model4.pth (torch, 8067 bytes, 5 tensors)

embedding.weight f4 [28, 20]
00000000: 0000 0000 0000 0000 0000 0000 0000 0000
00000010: 0000 0000 0000 0000 0000 0000 0000 0000
00000020: 0000 0000 0000 0000 0000 0000 0000 0000
00000030: 0000 0000 0000 0000 0000 0000 0000 0000
00000040: 0000 0000 0000 0000 0000 0000 0000 0000
00000050: 9d2a afbf c58f bcbf e80f e9bf 4dd3 333e
00000060: 9c67 103f dbc3 bcbe dcd5 94be 3316 7f3f
00000070: eb7b 903f 56e3 8d3f 2738 cb3d 4f2c 843f
00000080: 2831 8f3f 47f8 a4bf 974b 813f 803e c3bf
00000090: bac7 a4bd f62f 253f 480e 183f fd58 4c3f
000000a0: 6e95 03bf 603f 723f 689e 88bf 59dc ae3e
000000b0: 33ba 19be df2a 863e 6c10 ca3f 3892 d9bd
000000c0: 0f00 473f c6c3 b43f c786 89bf 306e 24c0
000000d0: ec44 da3e b34b ecbf d01b f7be bcc2 2a3f
000000e0: 77c4 5d3f 0343 3dbf 1daa afbe b9e8 903f
000000f0: c784 9d3e 8d97 d1be 8a22 0bbe efe3 11c0
00000100: f39c be3d ecce 6e3e c3d8 cebf a810 863f
00000110: 1651 fa3d e94a 2ebf 63f2 04bf 813d ccbf
00000120: 19e3 fb3d 854f 1dbf 6eff f33d ee08 96bf
00000130: b588 30bf 6c5f 55bf bd55 9dbe fccd 85bf
00000140: 5a2c d3bf 340a e73f 2608 0c40 c38d 933f
00000150: cd0d abbf f929 313f 70e8 5ebf 12f0 5b3e
00000160: d24d 9fbf 17a6 af3e 3fa3 ee3d 97c2 edbf
00000170: bdf0 cfbe af33 093f e849 c23f f050 b03c
00000180: cea9 0440 6ebf 2340 ecbe c33e 40ab 2940
00000190: 09f3 d23d c35d 49bf 3907 d6bd acdc 03bf
000001a0: 4451 01bf bf55 e53e eb02 24bf 8a79 25be
000001b0: ec0f 01bf 327b 95bf e087 cf3e 4dd4 28be
000001c0: 70cf 67be afa0 bc3e c590 083f 335e 97bf
000001d0: 1619 173f e4e8 8cbc d1a1 e13d 95a8 aa3d
000001e0: 7965 45bf 0c96 01c0 e639 15c0 6b97 c7be
000001f0: 53e1 4c3f 7062 5e3f 0cb8 0abf de6c 58bf
00000200: e82c e1bf a463 93bf c139 5b3f a6be 293f
00000210: 5be8 b4be f87a 633e 3936 35bf 764f dd3d
00000220: 5bbf b63f 6fe6 d8be e2fb e83f 72d1 4ebe
00000230: 6433 ca3e 8076 4f40 7943 3f3e f74a 40bf
00000240: f4ba 4bbf 0319 0cbc 704b 123f cc03 7e3f
00000250: 96d3 3ebd 6c19 0ebf aa25 333f 28ff d73e
00000260: 506c b6bf 142e f63b e5ca 5fbe f7cc 93bd
00000270: 96d7 42be 71f9 013f bdf1 d4bf 3c9d e13f
00000280: 1c8b b03e a5ea 04bf fa15 1f3f 52aa 0ebf
00000290: 0d78 d3be cd13 db3e 4f49 bbbe c7c3 31bf
000002a0: 5aa7 b0bd d8c5 a2bf 86ce 62bf 5fff 3dbf
000002b0: 4e40 12be 1c9d f9bf bfc1 d6bf 487c b6bf
000002c0: c5f9 d5bf 6d9c 5bbe 7817 9a3f 70a1 c3be
000002d0: e5aa 3abe fc6c 083f efca b13f 4591 cc3e
000002e0: ae87 efbf 9de6 d53e 92a7 6b3f 62ce 573f
000002f0: b3eb d7be f798 2fbf b9ae 8a3d c968 aebd
00000300: ea04 76bf c3f2 e13f 455b 3dbe be39 24bf
00000310: dd80 57be 381c ac3f 2041 92bf f4a0 94bf
00000320: 5a72 2abf 2e0f e53f 0d32 ed3f 59bb 0fbf
00000330: 3cff 4bbe 6f88 bdbf 3e03 3bbc f92d 84be
00000340: 688a ea3f 8dce d83f 8aba d63e cb38 eebd
00000350: b5b9 9abf 4da3 3dbe 24b0 84bd 981c 703e
00000360: 23d9 efbe b3f4 3bbe f410 ca3f c884 2e3f
00000370: 1a8c af3e c419 583f 279f e53d 7489 77bd
00000380: cfb6 07be b904 e63f d7c2 4a3f 159c 0e3f
00000390: e6dd 8ebf 6b78 943f 6428 173f fe16 283e
000003a0: 9900 25bf ff2b de3e 1d18 0b3f 231b d0be
000003b0: 1159 b8bf fc76 ec3f d4bf e63f 47a3 73bf
000003c0: 31ea 8a3f 11ca 963f c1be 7f3f 1a11 8dbd
000003d0: 92d4 063f b460 0040 5f6d ba3f 53b5 f03f
000003e0: bba3 2a3f e6b9 863f f3f0 163e 13c1 163e
000003f0: 14f0 5ebf c78c 2dbf 4187 a43f 4015 1abf
0.0 0.0 0.0 0.0 0.0 0.0 0.0 0.0
0.0 0.0 0.0 0.0 0.0 0.0 0.0 0.0
0.0 0.0 0.0 0.0 -1.368488 -1.4731375 -1.8207979 0.17561074
0.56408095 -0.36868176 -0.29069412 0.9964325 1.1287817 1.1085002 0.099228196 1.0326022
1.1186876 -1.2888268 1.0101193 -1.5253448 -0.08045907 0.6452631 0.5939679 0.79823285
-0.51399887 0.9462795 -1.0673342 0.34152487 -0.15012436 0.26204583 1.5786262 -0.10623592
0.77734464 1.4122245 -1.0744256 -2.5692253 0.42630708 -1.8460602 -0.48263407 0.6670339
0.86627907 -0.73930377 -0.34309474 1.1321021 0.30765364 -0.40935937 -0.13587394 -2.279537
0.093072794 0.23321122 -1.61599 1.0473833 0.12222497 -0.68083054 -0.5193235 -1.595627
0.12299175 -0.6144946 0.11913954 -1.1721475 -0.689586 -0.8334873 -0.30729476 -1.0453486
-1.649791 1.8049989 2.1879973 1.1527637 -1.3363587 0.6920467 -0.8707342 0.21478298
-1.2445624 0.34306404 0.116522305 -1.8575009 -0.40613356 0.5359449 1.5178804 0.021522969
2.072864 2.558559 0.382316 2.6510773 0.103002615 -0.78658694 -0.10450596 -0.51508594
-0.50514627 0.44791982 -0.6406695 -0.16159645 -0.5041492 -1.1678221 0.40533352 -0.16487236
-0.22637725 0.36841342 0.533459 -1.1825622 0.59022653 -0.017200895 0.11017192 0.08332936
-0.7710796 -2.0247831 -2.3316588 -0.3898271 0.8003132 0.86868954 -0.54187083 -0.8454112
-1.7591829 -1.1514783 0.85635 0.6630653 -0.35333523 0.22214878 -0.7078586 0.108061716
1.4277147 -0.42363307 1.8201869 -0.20197085 0.39492333 3.2416077 0.18678083 -0.7511439
-0.7958214 -0.008550885 0.5714636 0.99224544 -0.046588503 -0.5550754 0.69979346 0.42186856
-1.4251804 0.007512817 -0.21854742 -0.07216828 -0.19027552 0.5077124 -1.6636273 1.7626109
0.34481132 -0.5192054 0.6214291 -0.5572864 -0.4130253 0.42788544 -0.36579368 -0.6943936
-0.0862567 -1.2716627 -0.8859638 -0.7421779 -0.14282343 -1.9501071 -1.6777877 -1.4256678
-1.6716849 -0.2144639 1.2038412 -0.38209105 -0.18229254 0.53291297 1.3890055 0.39954582
-1.8713281 0.41777506 0.92052567 0.8429929 -0.42172012 -0.6859278 0.06771607 -0.0851608
-0.9610125 1.765221 -0.18491848 -0.6415061 -0.21045251 1.3446112 -1.1426125 -1.1611619
-0.66580737 1.7895257 1.8530899 -0.56145245 -0.19921583 -1.4807261 -0.011414347 -0.25816324
1.8323488 1.6938034 0.41939193 -0.11631926 -1.2087923 -0.18519326 -0.06478909 0.23448408
-0.4684535 -0.18355064 1.5786424 0.6817136 0.34286577 0.84414315 0.112119965 -0.06043382
-0.1325333 1.7970191 0.7920355 0.5570691 -1.1161468 1.1599249 0.59046006 0.16415021
-0.64454037 0.4339294 0.5433367 -0.40645704 -1.4402181 1.8473811 1.8027291 -0.95171016
1.085272 1.1780416 0.9990044 -0.068880275 0.52668107 2.0059023 1.4564627 1.8805336
0.6665608 1.0525482 0.14740352 0.1472209 -0.8708508 -0.67792934 1.2853776 -0.60188675

layer.weight_ih_l0 f4 [20, 20]
00000000: 48d6 833e 3331 7b3e ebef 313e f453 78be
00000010: c5eb 083c de9d 563d 1566 413e 06fb 1ebe
00000020: 3aba 80bd 737f 83be 8250 a9bd f9e6 c9bd
00000030: ad75 0fbe 34d6 b4bd 16f4 d53d 8312 94bd
00000040: bcad 7cbd 2b4f 0f3c 5240 d23d b665 433d
00000050: 4166 d73d ea2f 423d ac9d 193e 6539 063c
00000060: 81a3 60be 57c6 403e 046d 433e 62f6 09be
00000070: 4336 1ebe 9db5 8ebd 9915 e33d d814 03be
00000080: eaaf f13a 9203 283e a49f 48be 2e81 9c3d
00000090: 13ce e53d 7e47 343c 7af7 583c 08c5 013e
000000a0: 7736 27bd fa53 29be ee60 2abe f82b 7f3b
000000b0: 0ffa 563b d0cf e7bd c482 c6bd 3f88 353d
000000c0: 4d11 5ebd 7013 a73d 4ef7 463d c280 0e3e
000000d0: 466a 893d b899 66bc a6fb 3b3c 99f9 8bbe
000000e0: 1dea 21bd 0d42 ba3d 9e2b 0dbe 3e2b 893e
000000f0: 04cd 933a 0cca 903d 6b0a 923c 3e06 c0bd
00000100: 63ec 7abd 3055 f7bb 4663 71bd 3d70 76be
00000110: 9d07 8c3d ddc8 75be d4f3 90bd 7bb6 3bbe
00000120: 5793 c23d ff10 803e c090 67be da69 103e
00000130: 25d7 3c3e 9501 f7bc 4f23 edbd 5136 1dbe
00000140: ba9d ccbd 3f8e 37be e3fc fdbd 8ab7 7fbd
00000150: aa4c cf3c 3893 73bc 83b1 3dbd 5462 213d
00000160: 7425 c5bb fac7 2d3e 9f19 e1bc 4d13 da3c
00000170: 6d9c 02be d26c 92bd abfd 183e f6dd 21be
00000180: 0eef 493b bcc7 4b3d 57e8 57bd 124f 423e
00000190: 997f 02be 9616 57be 5c51 9bbc 907c 96bd
000001a0: ce9b e33d 746a 24bb cd46 223d 08b3 13bc
000001b0: 2459 7e3e e4aa 9a3d 58c6 38be 0b96 153e
000001c0: d619 703e 7a73 563d 96e1 353e 0f22 e6bd
000001d0: 4701 08be c74e 21bd d651 3cbc 2ee7 2ebd
000001e0: 13b3 20be b39a e8bd 0b62 f1bc 686d 273d
000001f0: a995 8fbc c590 0dbe 72ff 123e 3e33 463d
00000200: 9115 86bd 6f34 073e e59a 223e 2aa5 af3d
00000210: 04c8 f13d 1d93 c0bd c398 523d 27dc 97bc
00000220: 4a99 83bd 0209 d73c 0412 d0bc 0b75 cd3d
00000230: 9ffb 97bc 3c49 2f3e b935 443e a1a4 18be
00000240: 4e82 d13d 59aa 653d 4d71 253e 7102 553c
00000250: 1cc5 f0bd 015f 53be 9bbe b53d 58dc 96bd
00000260: 1e04 f1bd fe6a a33d 4297 b8bc cb88 1abc
00000270: 8110 96ba 0c2f abbd 08f1 913d ee02 56bc
00000280: 3c9d bdbe cd9d 34be 6457 60be 3899 7b3e
00000290: 96ab c83e 34e5 ffbd 8b24 4ebe 8308 3f3d
000002a0: bb56 643d 7e96 8c3b 2c89 5b3e cfe4 c93d
000002b0: ae91 edba 8f7e 10be 6f54 4ebd 333e 09bd
000002c0: f0f4 5dbd ea72 d93d efdb bbbc 7b93 523c
000002d0: 0c87 993e c021 edbc ff59 003e 2ff6 a5be
000002e0: 9be1 17be 987d 413e 7ca8 0e3e 8b6b dfbd
000002f0: a122 75be 44ef 1dbd 71b1 a8bd 12a0 a9be
00000300: d0a2 63be e224 9b3c 1669 253e de85 7d3e
00000310: fe9c 55bd e106 f4bd b3c5 d73d a670 47bc
00000320: 69a4 353e 42bc 1b3e b992 8f3e 4e85 dbbd
00000330: 9c60 ab3c fd2d ce3d f250 0f3e b675 e9bd
00000340: 6f02 8cbe eec4 6ebc 61d0 1e3e d8c8 adbe
00000350: 70a4 54be 8d01 363e 1fc0 27be 99a7 e3bd
00000360: e535 353e 9565 adbd a5a9 a53d 6155 d9bd
00000370: 856c 8b3e 7bc4 8a3b 0f2f babb 1e5c 62be
00000380: c7e5 a5bc a5cf 3abd dd1c aa3c 7749 83bd
00000390: 4fd0 87be 2b46 e7bc 41be d7bd 9dec 9bbe
000003a0: d175 06be 9cc2 de3d 416c 4fbe 3448 04bd
000003b0: 767a c23d bcd6 c93c 7a6c 74bd 49a4 9e3d
000003c0: c113 743d 920d 2d3e b062 22bd 5abd 0ebe
000003d0: c2e7 3ebd fe66 57bd 3bbf d93d 025c e1bd
000003e0: 5327 fb3b 5d06 86be b47e a73d 3f63 4cbe
000003f0: c9fb 983d b95d da3d f4bb 0ebe 8f10 413c
0.2574942 0.24530487 0.17376678 -0.24250776 0.008356993 0.052396648 0.18886597 -0.15525445
-0.0628552 -0.25683174 -0.08267309 -0.09858508 -0.14009733 -0.088299185 0.10446946 -0.07230093
-0.061689124 0.008746902 0.102661744 0.04770442 0.1051755 0.047408976 0.15001553 0.008192395
-0.21937372 0.1882566 0.19084555 -0.13472894 -0.15450387 -0.06968234 0.11088104 -0.1280092
0.0018439267 0.16407612 -0.19592148 0.076418266 0.11220946 0.011003373 0.013242597 0.12672818
-0.040823426 -0.16535941 -0.16638538 0.003893612 0.0032802855 -0.11318934 -0.0969291 0.044319388
-0.054215718 0.08158004 0.048575692 0.13916305 0.06709723 -0.014074735 0.011473572 -0.27338865
-0.03952991 0.090946294 -0.1378617 0.26790804 0.0011276309 0.070697874 0.017827233 -0.093761906
-0.061260592 -0.007547997 -0.058932565 -0.24066253 0.068373896 -0.24002405 -0.070777565 -0.1833133
0.09500759 0.25012967 -0.22613811 0.14102879 0.18441446 -0.030152122 -0.11579 -0.15352751
-0.099910215 -0.17925356 -0.1240175 -0.062430896 0.025305111 -0.014866643 -0.046311866 0.039400414
-0.0060164277 0.16970816 -0.027478037 0.026620531 -0.12754984 -0.07149662 0.14940517 -0.15807328
0.0030812654 0.04975103 -0.05271181 0.18975475 -0.12743987 -0.2100471 -0.018959694 -0.07347977
0.11113702 -0.0025087865 0.039618302 -0.009014852 0.24838692 0.07552126 -0.18044412 0.14608018
0.23447356 0.05235622 0.17761835 -0.11236965 -0.13281737 -0.03938177 -0.011494121 -0.04270094
-0.15693311 -0.113576315 -0.029465696 0.040875822 -0.017527418 -0.13824756 0.14355257 0.048388712
-0.06547082 0.13203596 0.158794 0.085764244 0.11805728 -0.0940306 0.051415216 -0.018537594
-0.06425722 0.026249412 -0.025399216 0.1003209 -0.0185526 0.1711778 0.19161119 -0.14906551
0.10229932 0.05607066 0.16156502 0.01300107 -0.11756346 -0.2064171 0.08874246 -0.07366246
-0.117683634 0.079793915 -0.022533063 -0.009432028 -0.001144901 -0.08358583 0.07126051 -0.013062222
-0.37034023 -0.17638321 -0.21908337 0.24570167 0.3919341 -0.12494889 -0.20131128 0.046638977
0.055746775 0.004290401 0.21439046 0.09858095 -0.0018125081 -0.14110778 -0.05037349 -0.033506583
-0.05418867 0.10617621 -0.022932021 0.012852545 0.29985845 -0.028946757 0.12534331 -0.32414386
-0.14832155 0.18895566 0.13931459 -0.10909184 -0.23938991 -0.03855826 -0.08236969 -0.33129936
-0.22230077 0.018938486 0.16153368 0.24758098 -0.052151673 -0.119153745 0.10535755 -0.012172854
0.17738499 0.15208533 0.28041628 -0.10718785 0.02092009 0.10067365 0.13995722 -0.11399405
-0.27345607 -0.014573319 0.15509178 -0.33942294 -0.20765853 0.17774029 -0.16381882 -0.11115951
0.1769634 -0.08466641 0.08088998 -0.10611988 0.2723123 0.004234848 -0.0056818794 -0.22105452
-0.020251168 -0.04560818 0.020765716 -0.06410497 -0.26526114 -0.0282317 -0.10534335 -0.3045396
-0.13130881 0.108769625 -0.2025614 -0.03229542 0.09496014 0.024638526 -0.059673764 0.07746179
0.05958915 0.16899708 -0.039644897 -0.1393942 -0.04660774 -0.052588455 0.106321774 -0.11003877
0.0076646 -0.2617673 0.081784636 -0.19959734 0.07469899 0.106624074 -0.13938886 0.011783733

layer.weight_hh_l0 f4 [20, 20]
00000000: a462 57bc 00b6 623e 2c7e c0bd 1663 31be
00000010: 505b b83d ce7a 273e d3aa adbe d5e2 6e3e
00000020: 7945 5cbe 552f 81be 5218 32be 9749 bd3e
00000030: c1c2 f6bc 3e3b ef3d e3f1 e43d 3ba8 72be
00000040: 3890 33be 44e7 ac3e a7e9 073e ad8a 37be
00000050: 37f1 ab3e 41b7 843e 2e0b 0ebe 4074 23be
00000060: b073 913d c92c 22be f6ce 0ebe ddfb 243e
00000070: 66af 99be be15 7c3e 65a2 a73e cf8e 943e
00000080: cc9a c83d 5437 57be 5079 2ebd 1a77 c83d
00000090: 45ce 6c3e 492a 4d3e 218c 3e3d d520 cfbc
000000a0: 0534 37be 98c1 a9bd 8a5b 8abe bf4f 7abe
000000b0: d398 9c3e cada 35be 4c3b e5be b44a 1d3e
000000c0: 79f3 563c 605e c8be 087e 8dbe 6553 5bbe
000000d0: cf72 4c3c c36c 17be c816 85bd e45c 1a3d
000000e0: f4a0 30be 3204 73bd 3868 a3be 70c4 bbbe
000000f0: 089d 9dbe ecd4 9dbd 5a86 96bd be5b c7be
00000100: 6cca b43e 7021 863e 8a57 82bd 4ec6 cf3c
00000110: 1b6f b13a 6b3a abbe 029b 043d 0084 ed3d
00000120: 5ef6 753e 1dfd 3bbd 6a93 28be c37e dc3d
00000130: 47ac fd3d f928 05bd 019b d0bc 8b3f b3be
00000140: 3a58 d53d d398 69be 612d c8be 7a90 28bd
00000150: 163b aabe 3452 6bbe 1ca0 25be 9f93 b53c
00000160: 1653 bfbd f6f2 6e3e 7003 e13d 0ad2 95bc
00000170: d899 613e 44fd c4be 450b 48be f2a4 6d3d
00000180: f126 b13e dc03 babc 1106 473e 8a75 423c
00000190: 2587 9e3e 2f91 6e3e 9ab8 f6bd 3f8e 11bc
000001a0: 4a3d b63e 965c 293e c6a4 a9bd 2888 813e
000001b0: 5711 a4be 6eda 94bc 1de0 08be 8dec 1e3e
000001c0: 5438 863e 3684 003d 63c2 f9bd 9f60 70be
000001d0: d344 703d 13db 9a3e b87e 13be 5fd1 0c3d
000001e0: 1885 cabd 8b46 8e3d 2368 c83e 9d99 e8bc
000001f0: 46c5 703e 59c4 943e 2631 59be ac2d 5abe
00000200: 6272 debd 0bdc 0cbe c756 82be a994 163d
00000210: c123 d3be f34a 333e b52c 9e3e 1d6c e2be
00000220: 9cdc 97be 5860 0ebe 820b 4ebc 3694 9abd
00000230: 2551 78be 2241 e4be c418 963b 94b3 62be
00000240: 2b59 5abd 07ae 9cbd 749c 1a3e 9667 1c3e
00000250: 0ea2 553e 994e efbe 341a 41be 2158 1dbe
00000260: 6262 f5bd 3f55 bdbe 170c a93e f7f1 b03e
00000270: ad85 a03e b87f fabb fa15 833e 96d9 e7bd
00000280: 9ecf 6fbe e69a bebd db3a 003e 4a68 3cbe
00000290: 1a54 d23d e9e8 a2bc 19c2 f53d 8faa dbbe
000002a0: 75e4 b93e 69fd 2dbd 9fd3 05bc 64e6 59be
000002b0: 5286 47be 19c8 053e ea1c f03d 8339 073e
000002c0: 05fb 99be 4613 3cbe d8f2 0cbe fdb0 82be
000002d0: 11e2 2b3e 092f 863e bfd5 58be 6771 98be
000002e0: cbc7 973e ae77 a53e 8a12 adbd 023b 893d
000002f0: 7a9a c7be f4fe 9cbd 3ec1 5dbe 34a1 793e
00000300: ea36 babc b714 df3e 24cd 713d 0631 5a3e
00000310: 2d2a 9cbe 5a6b 823e cfb1 fdbd ffca 6cbe
00000320: d827 343e 0882 2c3e 9bab 513e 9bf4 213e
00000330: c197 4bbc 33ed c63e 8e7b a73e ce5f abbe
00000340: da35 1d3d 6ef2 ab3e 8727 813c 4bac 353e
00000350: 4456 3bbe 9904 0e3e 1b33 df3d 1944 b5bd
00000360: 6f3b d6be d9a9 3e3e 5cf8 adbe 2de6 afbd
00000370: f39a 18be 3c99 c1bc 4eaa c8bc a6a5 a63d
00000380: bdeb 50be e8e1 cdbc 9c83 e6bd 4615 b23e
00000390: 4953 c5bd e2e9 643e e795 8ebe 1995 2a3e
000003a0: 600e b2bd 4c19 0abe 2c84 d13e ccae 4abd
000003b0: e27b f63d 061a dc3e ef15 fa3e 053b 883e
000003c0: 95d6 313e b840 a4be 43fa d03e 663c 7b3e
000003d0: 575c 8abe 0bb4 783c 4c56 fc3c 4ca4 2c3e
000003e0: 777b a0bd a4d3 20bd a86e 46be 05da 4cbe
000003f0: 3347 88be 4dea 67bd a20b b43e 98c9 72be
-0.013146076 0.2213974 -0.093990654 -0.17322955 0.090017915 0.1635544 -0.3391939 0.23328717
-0.21510877 -0.25231424 -0.1739209 0.36970207 -0.030122163 0.116812214 0.11178949 -0.23696987
-0.17535484 0.33770192 0.13272725 -0.17923994 0.3358247 0.25921062 -0.13871452 -0.15962315
0.07102144 -0.15837397 -0.13946137 0.16111703 -0.3001663 0.24617669 0.32741085 0.29015204
0.0979515 -0.210172 -0.04259616 0.09788342 0.2312556 0.20035662 0.046520356 -0.02528421
-0.17890938 -0.08288878 -0.27022964 -0.24444483 0.30585346 -0.17759243 -0.44771802 0.15360528
0.013119572 -0.39134502 -0.27635217 -0.21418531 0.012478544 -0.14787583 -0.06498486 0.037686244
-0.17248899 -0.059330173 -0.3191545 -0.36673307 -0.30783868 -0.07706627 -0.07349844 -0.3893718
0.35310686 0.26197386 -0.06364353 0.025363114 0.001353714 -0.33443007 0.03237439 0.115974426
0.24019763 -0.045895685 -0.16462484 0.107663654 0.12386375 -0.032509778 -0.025464537 -0.35009417
0.104172185 -0.22812204 -0.3909712 -0.04115341 -0.33248204 -0.22980577 -0.16174358 0.022165118
-0.09342019 0.2333487 0.10986984 -0.018288631 0.22031343 -0.38474476 -0.19535549 0.058018632
0.34600022 -0.022706918 0.19435908 0.011868844 0.30962482 0.2329757 -0.12046929 -0.008884012
0.35593635 0.16539225 -0.08283381 0.2529919 -0.3204448 -0.018170562 -0.13366742 0.15519924
0.2621485 0.031376086 -0.121952794 -0.23474358 0.058659386 0.30245265 -0.14403808 0.03437936
-0.09888667 0.06947049 0.3914195 -0.028393561 0.23512754 0.2905605 -0.21210155 -0.21306485
-0.108616605 -0.13755815 -0.2545683 0.036762867 -0.41238216 0.1750906 0.30893484 -0.4422311
-0.296605 -0.1390394 -0.012575986 -0.075478 -0.24249704 -0.44580942 0.004580589 -0.22138816
-0.053307693 -0.076503806 0.15098745 0.1527389 0.208626 -0.46739653 -0.18857652 -0.1536565
-0.11981656 -0.369791 0.33017036 0.34559605 0.31351987 -0.00764462 0.25602704 -0.11320798
-0.23419043 -0.09306888 0.12522452 -0.18399158 0.10269947 -0.01988645 0.11999912 -0.42903563
0.3630711 -0.042478 -0.00816813 -0.21279293 -0.19484833 0.13064612 0.11724265 0.13205533
-0.30074325 -0.18366727 -0.13764513 -0.25525656 0.16785456 0.2620776 -0.21175288 -0.2977402
0.29644617 0.3231787 -0.08450802 0.06700708 -0.38985044 -0.07665816 -0.21655747 0.243779
-0.022731263 0.43570492 0.059033528 0.21307763 -0.30500928 0.25472528 -0.1238743 -0.23124312
0.17593324 0.16846478 0.20475619 0.15815966 -0.012426318 0.38852844 0.32711452 -0.3347153
0.038381435 0.33583397 0.015765918 0.17741506 -0.18294626 0.13868941 0.108984195 -0.08850879
-0.4184222 0.18619479 -0.33978546 -0.085888244 -0.14902858 -0.023632638 -0.02449527 0.08137064
-0.20402427 -0.025132135 -0.11255571 0.34781855 -0.09635026 0.22354844 -0.2784874 0.16658439
-0.08694148 -0.13486212 0.40921152 -0.049483106 0.120353475 0.42988604 0.4884486 0.26607528
0.17367013 -0.32080626 0.40815935 0.24534759 -0.27023575 0.015179644 0.030802868 0.1685955
-0.07836049 -0.039264336 -0.1937815 -0.20005043 -0.2661682 -0.05661993 0.35165125 -0.23709714

classify.weight f4 [6, 20]
00000000: 0653 913d d9a4 9d3e a6bf 00be e849 a93d
00000010: ec71 a23d 3f2e 7c3c 9fcf b0be 4f5f 3abe
00000020: 78f5 44be 566e a93e 8970 cc3e 4a00 68be
00000030: 4c80 b9be e756 8fbe d091 45be 42f4 cdbe
00000040: d331 a23e 05bb 103d dc47 9fbe 1448 a23e
00000050: 5883 753e 75b5 223c b1eb 6dbd 9fc8 94be
00000060: 649a 76be e0ce 5b3e 3d1e c03e 8a90 17be
00000070: e701 dbbe 7331 113e fadb ba3e 6bea aa3e
00000080: d7ce f73d 5cd6 5c3e e999 a1be a925 a83e
00000090: 0fbc 48be f8ac a2be a14b 7fbe 8c8f 99be
000000a0: f5a4 bc3e ee6f 9a3e 8f80 863e 7909 af3e
000000b0: d9ea 813e b19c ce3c 491a b1be 033c 973e
000000c0: 7547 abbe 1781 ff3d 4d94 94be e1d5 f63d
000000d0: 59fe ccbd 63ac 093e 7b61 9a3e b646 a0be
000000e0: 83f2 dcbe 2009 003e e682 4f3e aa12 6a3e
000000f0: 4c16 1ebe dd47 783d 3e5f b6be a8fd 1bbe
00000100: d35a 7f3e b522 cbbe 02eb c7be 853b b73e
00000110: 9f5e 28be f8f5 dcbe 8e3c 3bbd 4c03 aa3e
00000120: 545f 753e c3dd 82be 3b7a 6b3d fcc4 613e
00000130: 8ab2 603d ac53 253e af96 923e ed52 dabe
00000140: b28a 083c a6d5 d2be ac13 1f3e d054 7a3e
00000150: d594 f8be 3492 49be bd72 cb3e f0b4 b93e
00000160: 5eb6 da3e 5ff6 583d df00 903e 8ad8 b1bc
00000170: d7da 17be 6713 37be daf9 c93e 420a b23e
00000180: d5fb c03e 43a1 e8bd 68a8 923e 5d11 9d3e
00000190: 3646 70be 87d7 00be 2a2c 3a3e 58c9 b0be
000001a0: 5747 0d3e 7487 653e 42b1 243d 9976 4bbe
000001b0: 98fc c73e 50d8 d2be e722 aebe d838 c8be
000001c0: ca09 7abe 9d71 903e 6ba0 ae3e 26c3 7e3e
000001d0: ae27 87be aac7 cabe 627c 3fbe 383b a0be
0.070959136 0.3078983 -0.12573108 0.082660496 0.07931885 0.015391885 -0.34533402 -0.1820042
-0.19234264 0.33091992 0.39929608 -0.2265636 -0.36230695 -0.2799599 -0.19293904 -0.40225416
0.31678638 0.035334606 -0.31109512 0.31695616 0.23975885 0.009930958 -0.0580861 -0.29059312
-0.24082333 0.21465635 0.3752307 -0.14801231 -0.4277489 0.1417902 0.36495954 0.33381972
0.120999984 0.21566147 -0.31562737 0.32841232 -0.19602989 -0.3177259 -0.24931194 -0.2999233
0.36844602 0.3016352 0.26269957 0.34186915 0.25374487 0.0252212 -0.34590366 0.29537973
-0.33452955 0.12475794 -0.29019395 0.12052513 -0.100094505 0.13444667 0.30152497 -0.31303948
-0.43153772 0.12503481 0.20264778 0.22858682 -0.15438193 0.06061541 -0.3561954 -0.15233481
0.2493699 -0.39674917 -0.39046484 0.35787597 -0.16442345 -0.4315641 -0.045712046 0.3320564
0.23962146 -0.25559816 0.057489615 0.220478 0.054857768 0.161452 0.28630587 -0.42641392
0.008333849 -0.41178626 0.15534848 0.24446416 -0.4855105 -0.19684678 0.39735976 0.36270857
0.4271726 0.052969333 0.28125665 -0.0217097 -0.14829575 -0.17878495 0.39448434 0.3477345
0.37692133 -0.11358883 0.2864411 0.3067731 -0.23464283 -0.12582217 0.1818091 -0.34528613
0.13796745 0.22414953 0.04020811 -0.1986946 0.390599 -0.41180658 -0.34011003 -0.39105868
-0.24417797 0.2821168 0.34106764 0.2487913 -0.2639746 -0.39605457 -0.18699792 -0.3129518

classify.bias f4 [6]
00000000: cf6e 473e 5565 923d abc1 513e 3a59 523e
00000010: ec25 313d c1ba e83d
0.19475864 0.07148234 0.20484035 0.2054185 0.043249056 0.113637455
