model.pt (torch, 1612 bytes, 2 tensors)

linear.weight f4 [5, 5]
2.6722543 -1.0144452 -1.0494992 -1.4172348 -1.0942619 -1.3858303 2.896779 -1.4000313
-1.2967097 -1.0516093 -1.2146958 -1.0351936 2.65105 -1.2560929 -1.1775135 -1.0987186
-1.1720887 -1.313121 2.7781234 -1.0264888 -1.2619272 -0.8530114 -1.2335737 -1.1752236
2.854366
00000000: 3706 2b40 57d9 81bf fd55 86bf f367 b5bf
00000010: c610 8cbf e362 b1bf d464 3940 3a34 b3bf
00000020: 95fa a5bf 229b 86bf 277b 9bbf 3981 84bf
00000030: ceaa 2940 a7c7 a0bf c3b8 96bf d0a2 8cbf
00000040: 0107 96bf 5914 a8bf c6cc 3140 fc63 83bf
00000050: d586 a1bf f55e 5abf bee5 9dbf ba6d 96bf
00000060: efad 3640

linear.bias f4 [5]
0.027224582 0.18047594 0.12240641 -0.04502699 -0.0897469
00000000: 1606 df3c afce 383e 36b0 fa3d 396e 38bd
00000010: 39cd b7bd
