model2.bin (torch, 1618 bytes, 2 tensors)

linear1.weight f4 [5, 5]
00000000: ce48 5e3f 25d7 94be 354c dbbe a903 79be
00000010: 438f d8be 4b9a c3be dddd 313f ebe9 4fbd
00000020: b87c 753e bb1a 12bf bb64 36bf ef59 93be
00000030: fd62 203f d2d7 2fbf 7fe0 a4be 8da2 6dbe
00000040: 9b8b 9cbe 17e1 8c3d 114f 103f 492b 88be
00000050: fe1d eebd b99c debe 40c1 07bf 34da bd3d
00000060: 5be8 253f
0.8682984 -0.29070392 -0.4283158 -0.24317802 -0.422968 -0.38203654 0.6947916 -0.05076019
0.23973358 -0.5707204 -0.7124745 -0.2877955 0.62651044 -0.6868869 -0.32202527 -0.2320654
-0.3057526 0.0687887 0.56370646 -0.26595524 -0.11626814 -0.43478945 -0.5302925 0.092701346
0.6480767

linear1.bias f4 [5]
00000000: 6b03 993d eac5 f9bd 2842 a93d 5745 fcbd
00000010: d14c 373e
0.07471355 -0.12195952 0.082645714 -0.12317913 0.17900397
