model.pt (torch, 1612 bytes, 2 tensors)

linear.weight f4 [5, 5]
2.5455146 -1.1882197 -1.1951241 -1.3318057 -1.3281841 -1.3443162 2.8622887 -1.3852444
-1.3120822 -1.0999645 -1.0692288 -0.9275543 2.6704023 -1.4537643 -1.1158694 -1.2997698
-1.1231825 -1.2284999 2.4206219 -1.2195745 -1.1061317 -1.0920392 -1.2339274 -1.2843997
2.5824866
00000000: b6e9 2240 9517 98bf d4f9 98bf 9c78 aabf
00000010: f001 aabf 8e12 acbf bd2f 3740 b04f b1bf
00000020: 4ff2 a7bf a3cb 8cbf 7ddc 88bf 3374 6dbf
00000030: dfe7 2a40 f314 babf cfd4 8ebf db5e a6bf
00000040: 72c4 8fbf 7c3f 9dbf 78eb 1a40 041b 9cbf
00000050: b995 8dbf f1c7 8bbf 55f1 9dbf 3667 a4bf
00000060: 7647 2540

linear.bias f4 [5]
0.2043774 -0.006748038 -0.14781222 0.07096392 0.02086794
00000000: 4f48 513e a51e ddbb 165c 17be 8855 913d
00000010: 3ef3 aa3c
