model.pth (torch, 12974 bytes, 7 tensors)

embedding.weight f4 [13, 30]
-1.905387 0.32206643 -1.3136369 -0.16157731 1.5582937 0.794993 0.77513313 -0.34912175
0.7206268 0.04468574 -1.0091777 -0.0022659856 -1.5282596 1.3938229 -1.2862914 -0.09131556
0.44725698 -0.36371228 0.016298309 1.120375 -1.0360255 -0.38291937 -1.0924764 -0.033976708
-0.6171563 -0.31047577 -0.089261636 -0.69024825 -0.40172148 -0.30513993 0.20445788 -0.55443746
-0.415747 -0.3076411 -2.3284755 -0.612502 -0.7493522 -0.17227511 -0.20073862 -1.4647053
0.4734722 1.8228136 -1.8756295 -0.33032492 0.0012061095 -2.0702372 -1.5411525 -1.5130166
1.1766626 -1.6620551 -2.2495697 1.1060184 2.2283912 -0.56599134 0.25302866 -0.59620976
0.37200522 1.1507682 1.2872459 -1.2536132 0.8577837 0.4433596 0.38009784 0.88464177
1.7647238 0.14375392 -1.4493545 -1.0252528 -0.3015357 0.2334375 1.3584112 -1.0721898
-1.5909437 -0.37336814 -0.18631923 -0.8217756 -0.7181801 -1.872508 1.5072838 -0.13171333
-0.55300057 0.2679452 0.21462443 -0.49698457 -0.43698025 0.59626704 1.3019404 0.7255575
0.479047 1.4937701 0.684876 0.9031106 0.67173433 1.6203408 1.030092 -0.0637108
0.6706542 -1.3015337 -0.34737366 1.526822 -0.039508503 1.8532597 0.008882265 -0.1921678
-0.45746905 -0.6122685 0.12530637 -0.6549004 1.2057151 -2.4321513 0.6759199 -0.3643159
1.1170708 0.083439186 -1.7302083 0.6216941 0.18091439 -1.5084285 0.29479277 -0.6448083
-0.5544141 1.0346648 1.5637819 0.8393521 1.5877142 -0.04837412 0.6008331 -0.6214083
1.7102408 -2.0928364 0.5003069 0.75900215 1.3388392 0.44410232 1.3647616 -0.5592567
2.1178908 0.013728769 -0.050940726 0.8805114 -1.2496798 1.8099012 -1.8649321 0.84761775
-0.19140594 -2.5426548 0.7589846 1.6092467 0.25205237 0.83462596 0.34226432 -0.36812535
0.46141207 0.38349956 -1.0020233 1.1711032 1.4300098 0.25898057 0.27853614 -0.88240725
0.41651487 0.42123428 0.9424007 -0.37170613 -1.2702502 -0.11158469 0.18141519 0.2743954
-0.0040884875 0.64015496 -0.28061366 0.32119745 0.10852028 -0.6594453 -0.5967753 0.18717697
-1.8570535 -0.48853558 -0.9784371 1.3894057 -0.72074705 1.360605 -2.2568607 1.8157547
-0.40655518 0.31877553 -0.2523139 0.010921233 -1.2274314 -1.2124995 -1.9911369 -1.3121241
-0.85766524 1.241954 -0.057755154 2.8872619 0.04563573 -0.17086212 0.2018974 1.1071695
0.14959535 -1.074665 0.034140274 -0.8595579 -0.9236001 0.06086182 0.03310423 -0.3251811
0.2118094 -0.82610244 1.3114189 -1.6846862 -0.7794269 0.9304981 0.7054049 1.5217507
-1.365782 0.5291421 -0.88901144 -2.4355507 -0.16307645 0.46217746 0.18064252 0.84913886
-1.3461589 -0.29091674 0.106246404 0.61999047 1.6058478 1.2457976 0.6718177 -0.92989796
-0.42006537 1.1120379 0.01307002 0.96274745 -0.7211374 -0.5078504 1.2564386 0.07882583
1.1690017 -0.22549003 1.5574433 -0.31385297 -1.1091192 0.97664756 1.4820899 -0.9316586
0.70774055 -0.20554024 1.0398359 -1.464722 0.321556 0.7495077 -0.015162317 -0.06141842
00000000: b9e3 f3bf e4e5 a43e 4125 a8bf 8674 25be
00000010: 2b76 c73f a984 4b3f 206f 463f 16c0 b2be
00000020: ff7a 383f 6508 373d bc2c 81bf ee80 14bb
00000030: 039e c3bf ca68 b23f 32a5 a4bf a703 bbbd
00000040: defe e43e 7f38 babe 0884 853c 7368 8f3f
00000050: 7c9c 84bf 020e c4be 44d6 8bbf 292b 0bbd
00000060: f5fd 1dbf aef6 9ebe cece b6bd 1cb4 30bf
00000070: 70ae cdbe 4d3b 9cbe 685d 513e 9def 0dbf
00000080: cadc d4be 2283 9dbe be05 15c0 eecc 1cbf
00000090: 8cd5 3fbf e368 30be 6d8e 4dbe 777b bbbf
000000a0: f36a f23e f551 e93f a114 f0bf 5920 a9be
000000b0: 5216 9e3a c47e 04c0 7c44 c5bf 87aa c1bf
000000c0: e19c 963f 39be d4bf f3f8 0fc0 0392 8d3f
000000d0: f69d 0e40 cfe4 10bf f98c 813e 34a1 18bf
000000e0: 7877 be3e 5f4c 933f 79c4 a43f 6676 a0bf
000000f0: b697 5b3f 0800 e33e 2f9c c23e e277 623f
00000100: 78e2 e13f 3a34 133e 7384 b9bf 7c3b 83bf
00000110: e362 9abe 3d0a 6f3e 6be0 ad3f 843d 89bf
00000120: 0ba4 cbbf 1c2a bfbe 78ca 3ebe e35f 52bf
00000130: a7da 37bf 58ae efbf adee c03f dcdf 06be
00000140: 7291 0dbf 1d30 893e 82c6 5b3e c374 febe
00000150: e0bb dfbe f5a4 183f fca5 a63f 23be 393f
00000160: a645 f53e dc33 bf3f 0954 2f3f 4232 673f
00000170: c8f6 2b3f 5467 cf3f 0eda 833f cf7a 82bd
00000180: feaf 2b3f a898 a6bf f6da b1be e76e c33f
00000190: abd3 21bd 9d37 ed3f eb86 113c a3c7 44be
000001a0: 6239 eabe a1bd 1cbf 5050 003e 8da7 27bf
000001b0: df54 9a3f 5ea8 1bc0 1609 2d3f 9d87 babe
000001c0: 2dfc 8e3f 2ae2 aa3d 7777 ddbf 5827 1f3f
000001d0: 9f41 393e 2f14 c1bf 14ef 963e 2812 25bf
000001e0: 15ee 0dbf e56f 843f 012a c83f c7df 563f
000001f0: 383a cb3f f123 46bd 33d0 193f 9d14 1fbf
00000200: 2ce9 da3f 08f1 05c0 1d14 003f f74d 423f
00000210: 155f ab3f 6161 e33e 82b0 ae3f 722b 0fbf
00000220: 868b 0740 a1ee 603c 39a7 50bd 3269 613f
00000230: 82f5 9fbf d8aa e73f 18b6 eebf 7afd 583f
00000240: ebff 43be dbba 22c0 d14c 423f ccfb cd3f
00000250: 020d 813e 0caa 553f 453d af3e ed7a bcbe
00000260: 343e ec3e 0e5a c43e 4d42 80bf b6e6 953f
00000270: 900a b73f 1a99 843e 4a9c 8e3e 71e5 61bf
00000280: 7041 d53e 05ac d73e 2c41 713f 4450 bebe
00000290: 8f97 a2bf 8486 e4bd e7c4 393e 8e7d 8c3e
000002a0: b8f8 85bb 32e1 233f 98ac 8fbe fe73 a43e
000002b0: e13f de3d 68d1 28bf 44c6 18bf 52ab 3f3e
000002c0: eeb3 edbf 5621 fabe db7a 7abf 0cd8 b13f
000002d0: e182 38bf 4e28 ae3f 6870 10c0 a66a e83f
000002e0: 0028 d0be 8c36 a33e 4a2f 81be f9ee 323c
000002f0: 791c 9dbf 2f33 9bbf 93dd febf aff3 a7bf
00000300: f38f 5bbf 59f8 9e3f ab90 6cbd e6c8 3840
00000310: 88ec 3a3d 7bf6 2ebe 31be 4e3e bbb7 8d3f
00000320: 862f 193e 9f8e 89bf acd6 0b3d fd0b 5cbf
00000330: 0e71 6cbf 3e4a 793d 4d98 073d 237e a6be
00000340: 90e4 583e 737b 53bf 93dc a73f cca3 d7bf
00000350: 8588 47bf 2035 6e3f 6a95 343f bac8 c23f
00000360: f2d1 aebf db75 073f 4196 63bf 10e0 1bc0
00000370: 83fd 26be 86a2 ec3e 5afa 383e 2a61 593f
00000380: ef4e acbf 0af3 94be b797 d93d b2b7 1e3f
00000390: 6c8c cd3f 4c76 9f3f 3ffc 2b3f cb0d 6ebf
000003a0: cf12 d7be 4257 8e3f a323 563c 9e76 763f
000003b0: 769c 38bf 7c02 02bf fbd2 a03f 706f a13d
000003c0: d9a1 953f dce6 66be 4d5a c73f 56b1 a0be
000003d0: 9ef7 8dbf 9305 7a3f 1fb5 bd3f 2e81 6ebf
000003e0: 7c2e 353f 2479 52be 5819 853f 037c bbbf
000003f0: fda2 a43e bddf 3f3f 5e6b 78bc e291 7bbd

rnn.weight_ih_l0 f4 [30, 30]
0.14093418 -0.06737055 0.077839285 -0.052290786 -0.14565384 -0.051550202 -0.08766465 0.05317072
-0.031437177 -0.17492777 -0.12169351 0.20123254 -0.16054699 0.043107722 -0.0049156863 -0.112675145
-0.12051451 -0.16996306 -0.035232928 -0.05961256 -0.2761588 0.001444608 0.11150252 -0.16271116
0.06460769 -0.17300585 0.007205675 0.04957289 -0.08243301 -0.20320788 -0.13454944 -0.019459609
-0.057646994 -0.0855092 -0.0981476 0.10158351 -0.16173907 0.04575466 -0.13630411 0.05023559
0.108191855 0.12979771 0.011575423 -0.12994862 0.050402153 0.022703448 0.06361955 -0.105560705
-0.02824274 -0.018909974 -0.113018826 -0.046374213 0.13388 0.065663524 0.10160518 -0.105211236
0.0950616 -0.0828821 -0.017022897 0.038703334 -0.06343005 -0.18218261 -0.06507295 -0.22303027
-0.2173088 -0.14539239 0.103270926 -0.0131178405 -0.0364538 -0.13439551 -0.10366165 0.0007039543
-0.10083246 -0.17706658 0.15525724 -0.16545254 -0.21232209 -0.008103751 0.035505973 -0.12238914
-0.27469027 0.03383213 0.07125401 -0.09578638 0.12249602 0.04711983 0.12143781 0.12814233
0.22662191 -0.072559215 -0.002134407 0.11146692 0.056268353 0.03147574 -0.055560976 -0.121762976
-0.01431184 -0.08829853 0.08621685 -0.0011561281 -0.06415147 0.07465001 -0.14088187 -0.030465305
-0.14344166 -0.1495274 -0.10504505 -0.03712903 -0.04788816 0.16347982 -0.040348887 0.118349254
0.16360648 -0.100053355 0.10936728 -0.12343776 -0.10830554 -0.1130468 0.055266906 -0.10615303
-0.03460887 0.17925237 -0.023504727 0.19632158 0.00040599288 0.14582951 0.0017438988 0.06762898
-0.060970508 0.14618035 0.10570463 -0.1508847 0.251192 -0.114022754 0.043915022 0.18592304
0.1434519 -0.034562 0.13213733 0.22584327 -0.06503635 -0.04239356 -0.07587504 0.05479648
-0.14171563 0.14834245 0.067450896 -0.13342687 -0.14420837 0.06333245 0.02382573 0.09247014
0.04545697 0.07382188 0.014852873 -0.028760334 -0.04798001 0.018961826 0.1058083 0.03628547
-0.03333968 -0.10085854 0.0040988857 -0.05921557 -0.26137766 0.12001296 -0.025144914 -0.08471331
0.04271015 0.12151632 0.12782979 0.07906247 -0.048148576 0.17431967 -0.18997253 -0.014412573
0.027723188 0.059710186 -0.029632827 0.04014639 0.12619543 0.14606446 0.14592358 0.14942102
0.23919336 0.111077584 -0.04850107 -0.013747469 0.1203179 0.104853004 0.008858443 0.007408622
-0.055392705 0.1506744 -0.026981214 0.22336245 0.09262509 0.1735734 -0.16929168 0.020999035
0.29533142 -0.008985542 -0.07231902 0.06500398 0.123740554 0.14304265 -0.04516428 -0.007073027
-0.053619508 0.17189103 -0.027753795 0.08954663 0.035080776 0.13506034 0.2144155 0.0340636
0.19203447 0.049761724 -0.06692774 0.05807533 -0.0029551128 -0.0116918 0.16192226 0.15522464
0.12195468 -0.06528474 -0.020551942 0.061038658 0.091037996 0.17130616 0.19667545 -0.087882556
-0.17690481 -0.06579545 -0.23529717 0.09153205 -0.059668414 -0.007316161 0.009468569 0.05150382
0.22466101 0.04964446 -0.07573385 0.040004686 -0.07852463 0.14529952 0.08452694 -0.014283738
0.016957281 -0.09699763 -0.22533104 0.06682163 -0.10470197 -0.13683464 -0.039018016 -0.12542428
00000000: 0d51 103e 92f9 89bd 346a 9f3d dd2e 56bd
00000010: 4826 15be 4e26 53bd 8689 b3bd 8ac9 593d
00000020: 45c4 00bd 4420 33be 723a f9bd e70f 4e3e
00000030: 6e66 24be b991 303d c413 a1bb 3ac2 e6bd
00000040: 50d0 f6bd cc0a 2ebe 6750 10bd 4d2c 74bd
00000050: b064 8dbe 0059 bd3a 6f5b e43d c19d 26be
00000060: 0951 843d 7228 31be 951d ec3b f10c 4b3d
00000070: a3d2 a8bd ba15 50be 54c7 09be c269 9fbc
00000080: 411f 6cbd 731f afbd 9c01 c9bd 040b d03d
00000090: ed9e 25be 3d69 3b3d 4e93 0bbe d6c3 4d3d
000000a0: b193 dd3d b1e9 043e d8a6 3d3c 4011 05be
000000b0: 7d72 4e3d 95fc b93c f74a 823d 3630 d8bd
000000c0: 525d e7bc 17e9 9abc 6a76 e7bd e3f2 3dbd
000000d0: d717 093e 997a 863d 6016 d03d fd78 d7bd
000000e0: a8af c23d 17be a9bd 9a73 8bbc 6387 1e3d
000000f0: 9de7 81bd 148e 3abe f844 85bd 0c62 64be
00000100: 3386 5ebe bee1 14be b57f d33d 36ec 56bc
00000110: 9450 15bd fa9e 09be 8f4c d4bd 9389 383a
00000120: 4081 cebd f150 35be c1fb 1e3e 646c 29be
00000130: f66a 59be 98c5 04bc b66e 113d 28a7 fabd
00000140: 34a4 8cbe 8f93 0a3d 9fed 913d a62b c4bd
00000150: 31df fa3d b900 413d 63b4 f83d be37 033e
00000160: 930f 683e ed99 94bd 68e1 0bbb c548 e43d
00000170: a579 663d b5ec 003d e893 63bd de5e f9bd
00000180: 357c 6abc dcd5 b4bd 7692 b03d 3989 97ba
00000190: d961 83bd 1be2 983d 5643 10be 6092 f9bc
000001a0: 5fe2 12be b61d 19be dc21 d7bd 9c14 18bd
000001b0: 6026 44bd 4167 273e e044 25bd 1861 f23d
000001c0: 7588 273e c6e8 ccbd f4fb df3d f0cc fcbd
000001d0: 4ccf ddbd 1585 e7bd 8d5f 623d c366 d9bd
000001e0: 08c2 0dbd ef8d 373e fc8c c0bc 8608 493e
000001f0: 71db d439 5554 153e 8993 e43a 1081 8a3d
00000200: 36bc 79bd 4db0 153e ab7b d83d 8581 1abe
00000210: 3d9c 803e c384 e9bd 3de0 333d 9c62 3e3e
00000220: 0ee5 123e e290 0dbd 024f 073e 7543 673e
00000230: c731 85bd dfa4 2dbd 5f64 9bbd 4672 603d
00000240: e71d 11be 15e7 173e b223 8a3d 0ea1 08be
00000250: 5cab 13be 72b4 813d 2d2e c33c fc60 bd3d
00000260: 1631 3a3d ed2f 973d 7759 733c cb9a ebbc
00000270: b086 44bd d555 9b3c 06b2 d83d 13a0 143d
00000280: 308f 08bd ec8e cebd f24f 863b 078c 72bd
00000290: 4bd3 85be 5bc9 f53d b5fc cdbc 2c7e adbd
000002a0: d7f0 2e3d 8cdd f83d d0e5 023e 81eb a13d
000002b0: 7137 45bd db80 323e 2988 42be b622 6cbc
000002c0: bd1b e33c ab92 743d 8bc0 f2bc 8b70 243d
000002d0: 6039 013e ec91 153e fe6c 153e d301 193e
000002e0: 1bef 743e a57c e33d 0fa9 46bd 103d 61bc
000002f0: 3b69 f63d 2cbd d63d 0123 113c 07c4 f23b
00000300: 76e3 62bd 644a 1a3e b507 ddbc 20b9 643e
00000310: 39b2 bd3d 3abd 313e cc5a 2dbe 2b06 ac3c
00000320: ae35 973e 1838 13bc ff1b 94bd cf20 853d
00000330: b06b fd3d c679 123e 2efe 38bd dac4 e7bb
00000340: 21a0 5bbd 3404 303e ed5b e3bc 3964 b73d
00000350: dcb0 0f3d 424d 0a3e bd8f 5b3e 4686 0b3d
00000360: afa4 443e f3d2 4b3d 6911 89bd 66e0 6d3d
00000370: 91aa 41bb f78e 3fbc f3ce 253e 35f3 1e3e
00000380: 60c3 f93d 01b4 85bd 8c5c a8bc ac03 7a3d
00000390: 2172 ba3d e26a 2f3e 4a65 493e c5fb b3bd
000003a0: 8926 35be c4bf 86bd bef1 70be 2875 bb3d
000003b0: de66 74bd 68bc efbb 0f22 1b3c abf5 523d
000003c0: 890d 663e fd57 4b3d 591a 9bbd f4db 233d
000003d0: 85d1 a0bd 66c9 143e 761c ad3d 5706 6abc
000003e0: ffe9 8a3c b2a6 c6bd 2ebd 66be c7d9 883d
000003f0: fd6d d6bd 611e 0cbe 5bd1 1fbd 396f 00be

rnn.weight_hh_l0 f4 [30, 30]
0.3460494 0.4364604 0.32712907 0.23116013 0.072677106 0.08384071 -0.11574212 0.32754332
-0.024875227 0.28517696 0.20493978 -0.04585977 -0.016632508 -0.33423474 0.0066171577 0.007999931
-0.30124632 -0.1987384 -0.008329938 0.23331699 0.050815858 -0.12640215 0.0117112575 -0.37105006
0.14514084 -0.20418836 0.035546526 -0.2273654 0.24238591 0.029939689 -0.21256697 -0.022652743
-0.19862463 -0.34513003 -0.15531705 0.12211692 -0.36256328 0.0035329307 -0.006357421 0.23734759
-0.0012064143 0.29051268 -0.2575075 0.04372468 0.09897144 -0.25780764 0.28538522 -0.22216927
0.033778556 0.04028695 0.27113688 -0.32613954 0.11177146 -0.040706865 0.1679796 -0.069393195
-0.16567096 0.30066794 0.17624402 -0.2946885 0.1512639 0.20929353 0.16345465 0.004931725
0.16881606 0.08221786 0.022478335 0.10530356 -0.3837879 0.32549107 0.0844535 0.123443566
0.03797095 0.028928025 0.096931756 0.07549815 -0.059882913 -0.3140162 -0.21767376 0.35915837
0.13166456 -0.10683581 -0.047870155 -0.15607153 0.14945443 -0.3728376 0.018907053 0.21956035
-0.02602551 -0.1559186 -0.1811664 0.2100194 0.06589208 0.19008972 0.15064849 0.23083387
0.18313472 0.24416628 -0.08962909 0.04388439 -0.31474704 -0.012497006 0.15984584 -0.1877073
0.3045691 0.06734591 -0.25651518 -0.050561238 0.034718208 0.11643007 -0.28169706 0.22182453
-0.0019067978 0.020264655 0.196901 0.10838501 -0.0685522 0.15238379 -0.10697608 0.0009397334
-0.40257835 -0.06824797 -0.1803343 -0.16608486 0.112813585 0.046034344 0.12672633 -0.10325323
0.13468704 0.115568556 -0.21322621 0.3369678 0.044969756 0.15496507 0.087429665 -0.29084334
0.03341762 -0.13567373 -0.05898292 0.19808105 -0.21139438 0.011635972 -0.19323273 0.106243715
0.14129253 0.022066424 -0.18617487 0.11417333 0.09984642 -0.0122857755 0.061903898 0.1414099
0.30990255 0.15695472 -0.08121335 -0.29743963 -0.016157726 0.015872499 -0.17464197 0.44021207
0.2618092 -0.28094476 0.05038766 -0.10824801 0.28573817 -0.07770849 -0.29276302 -0.27973
-0.019521331 0.19253445 0.2184671 -0.07692897 0.100083575 -0.24592641 0.043036573 -0.21793032
0.21347156 -0.15538955 0.024077041 0.20183453 -0.014089823 0.07776193 0.29522187 0.34518275
0.079253756 0.14289281 0.21512364 0.06164923 -0.38837364 0.15736282 -0.29754555 0.10191801
0.114022285 -0.11077624 0.29263863 0.36940843 -0.3542637 -0.015291501 0.06834377 0.027069923
-0.035431404 0.014003722 -0.17206918 -0.0959414 0.2322579 0.252805 -0.32733697 0.07809606
-0.18252215 0.14875473 -0.32032788 0.04966286 -0.37414655 -0.11439422 0.24638896 -0.024487218
0.061824996 0.09411944 0.012892717 0.24498205 -0.1892851 0.26110494 -0.21354486 0.049740177
0.2536148 0.09176904 0.28843608 -0.23897734 -0.059897613 0.15538798 -0.073506616 -0.039878964
0.2406891 -0.23952931 -0.31399024 -0.28036407 0.1253936 0.02406398 -0.0089610405 -0.162536
0.20618355 -0.32241765 0.23181179 0.17101195 -0.29120365 0.22759762 0.20844974 -0.19549587
0.2566495 -0.19935869 -0.16951677 -0.016539222 0.26952273 -0.052821822 -0.17726308 0.14777677
00000000: 632d b13e bd77 df3e 767d a73e 3eb5 6c3e
00000010: bcd7 943d aeb4 ab3d 340a edbd c2b3 a73e
00000020: 22c7 cbbc b702 923e bcdb 513e 74d7 3bbd
00000030: e640 88bc d120 abbe bed4 d83b 2512 033c
00000040: f53c 9abe 1482 4bbe 4b7a 08bc a6ea 6e3e
00000050: 4a24 503d 916f 01be 93e0 3f3c 46fa bdbe
00000060: cd9f 143e c116 51be 3c99 113d 7ad2 68be
00000070: 0334 783e 1444 f53c 28ab 59be 3f92 b9bc
00000080: 4164 4bbe e2b4 b0be 6f0b 1fbe 7018 fa3d
00000090: e5a1 b9be be88 673b ea51 d0bb 3f0b 733e
000000a0: 8c20 9eba 14be 943e 06d8 83be a618 333d
000000b0: 8ab1 ca3d 5dff 83be 031e 923e 5780 63be
000000c0: 625b 0a3d ee03 253d 74d2 8a3e c3fb a6be
000000d0: 6fe8 e43d 3ebc 26bd d802 2c3e 051e 8ebd
000000e0: a6a5 29be 26f1 993e 5079 343e 69e1 96be
000000f0: ece4 1a3e 0b51 563e a860 273e 4f9a a13b
00000100: 1ede 2c3e d661 a83d 7c24 b83c 65a9 d73d
00000110: d97f c4be c4a6 a63e f5f5 ac3d fbcf fc3d
00000120: 6d87 1b3d 77fa ec3c 2884 c63d c69e 9a3d
00000130: c947 75bd bbc6 a0be dfe5 5ebe 9be3 b73e
00000140: 13d3 063e bccc dabd 7f13 44bd 37d1 1fbe
00000150: 950a 193e 92e4 bebe f7e2 9a3c 6ed4 603e
00000160: 7333 d5bc 20a9 1fbe af83 39be 530f 573e
00000170: 6df2 863d e1a6 423e 9943 1a3e b75f 6c3e
00000180: ab87 3b3e ba06 7a3e 758f b7bd 1ec0 333d
00000190: 8626 a1be 3ec0 4cbc a1ae 233e 5836 40be
000001a0: 7bf0 9b3e a7ec 893d f555 83be 4d19 4fbd
000001b0: ae34 0e3d e372 ee3d 993a 90be f825 633e
000001c0: 84ed f9ba 1002 a63c 6aa0 493e f6f8 dd3d
000001d0: 1965 8cbd 7f0a 1c3e 4616 dbbd 7158 763a
000001e0: c01e cebe 97c5 8bbd 8ea9 38be 2612 2abe
000001f0: cf0a e73d 828e 3c3d 8cc4 013e 6e76 d3bd
00000200: 66eb 093e 35af ec3d f957 5abe 0b87 ac3e
00000210: 3532 383d 2aaf 1e3e 530e b33d 6be9 94be
00000220: eae0 083d 0eee 0abe 1398 71bd c2d5 4a3e
00000230: c577 58be cea4 3e3c cdde 45be 4e96 d93d
00000240: fdae 103e a5c4 b43c a0a4 3ebe b5d3 e93d
00000250: 487c cc3d 474a 49bc f18e 7d3d c2cd 103e
00000260: 8cab 9e3e bdb8 203e 2f53 a6bd 024a 98be
00000270: 355d 84bc 0b07 823c 58d5 32be 7a63 e13e
00000280: db0b 863e fed7 8fbe 4a63 4e3d 22b1 ddbd
00000290: 464c 923e a125 9fbd 09e5 95be c538 8fbe
000002a0: 33eb 9fbc c027 453e d7b5 5f3e f08c 9dbd
000002b0: 9ef8 cc3d 22d4 7bbe 1e47 303d 2029 5fbe
000002c0: 4a98 5a3e 701e 1fbe 373d c53c b6ad 4e3e
000002d0: 00d9 66bc a641 9f3d 5227 973e cbbb b03e
000002e0: cb4f a23d 7e52 123e 5f49 5c3e e783 7c3d
000002f0: e9d8 c6be b823 213e e457 98be 64ba d03d
00000300: 8484 e93d a7de e2bd bbd4 953e 1a23 bd3e
00000310: 0d62 b5be 3489 7abc d2f7 8b3d bec1 dd3c
00000320: 8520 11bd de6f 653c e732 30be ed7c c4bd
00000330: 04d5 6d3e a86f 813e b698 a7be d4f0 9f3d
00000340: 16e7 3abe 2953 183e 0402 a4be 486b 4b3d
00000350: 2390 bfbe 8447 eabd 634d 7c3e 6b99 c8bc
00000360: 353c 7d3d b1c1 c03d f93b 533c 93dc 7a3e
00000370: f4d3 41be 8caf 853e 81ab 5abe 5bbc 4b3d
00000380: cdd9 813e 68f1 bb3d e5ad 933e 7ab6 74be
00000390: 3357 75bd 071e 1f3e a38a 96bd 2058 23bd
000003a0: 3477 763e 2c47 75be 54c3 a0be e18b 8fbe
000003b0: 2e67 003e d321 c53c 54d1 12bc d66f 26be
000003c0: c821 533e ed13 a5be 1260 6d3e c21d 2f3e
000003d0: a518 95be 5a0f 693e d973 553e 1230 48be
000003e0: 9067 833e af24 4cbe ce95 2dbe 437d 87bc
000003f0: e2fe 893e b25b 58bd 7484 35be cb52 173e

rnn.bias_ih_l0 f4 [30]
-0.13606946 -0.24277154 -0.21119832 -0.105645195 0.14495145 -0.08284194 -0.03913297 0.015412191
0.05291978 -0.026933169 -0.20406608 0.07303895 -0.2732543 -0.110404484 -0.006818191 0.036804505
-0.19803444 0.09949521 -0.04453344 0.06444516 0.09936305 -0.032500617 0.15925221 -0.13052776
0.031752955 -0.17535383 0.052367546 0.00028333173 0.07480677 -0.076649226
00000000: cb55 0bbe 1a99 78be 5f44 58be 825c d8bd
00000010: 276e 143e 09a9 a9bd e549 20bd 6a83 7c3c
00000020: 69c2 583d f3a2 dcbc b3f6 50be 7295 953d
00000030: fde7 8bbe bf1b e2bd 226b dfbb 52c0 163d
00000040: 8ac9 4abe 25c4 cb3d b268 36bd d3fb 833d
00000050: db7e cb3d 5e1f 05bd 0313 233e 12a9 05be
00000060: 630f 023d f48f 33be 5a7f 563d 248c 9439
00000070: 4b34 993d 45fa 9cbd

rnn.bias_hh_l0 f4 [30]
-0.08070851 -0.184906 0.11343593 -0.089999616 0.15998697 -0.08497205 0.045666628 0.11269026
0.05774913 -0.083547935 -0.17817326 0.13313732 0.017934237 -0.13411169 0.03668091 -0.009033624
-0.13852449 0.035194073 -0.13068502 0.028971953 -0.0871248 -0.032876045 -0.12063134 0.17407489
0.27273777 0.04052257 -0.078280084 -0.00040566336 0.040886518 0.039566483
00000000: 814a a5bd 0058 3dbe 1951 e83d b851 b8bd
00000010: a0d3 233e d305 aebd ee0c 3b3d 27ca e63d
00000020: 5a8a 6c3d 2e1b abbd 0d73 36be 2655 083e
00000030: d2ea 923c 9354 09be b93e 163d c401 14bc
00000040: 5dd9 0dbe a927 103d 4bd2 05be 9756 ed3c
00000050: 7d6e b2bd 08a9 06bd 900d f7bd b040 323e
00000060: 49a4 8b3e fffa 253d 4f51 a0bd 37af d4b9
00000070: 9f78 273d 7710 223d

classify.weight f4 [11, 30]
-0.21305995 -0.10527173 -0.35236967 -0.05760765 0.18534055 -0.04204641 -0.12631944 0.20573646
0.2660567 -0.3811527 -0.042579442 0.19704841 -0.1564043 0.37871563 -0.014495108 0.3340207
0.1364794 0.16905789 0.4340861 -0.29276899 -0.1456387 -0.20681994 -0.3072899 0.14034213
-0.35584578 0.16296473 0.14550619 -0.13697869 -0.22163755 -0.2543368 -0.24301115 -0.18310611
-0.11246814 0.064885795 0.18531942 -0.19273427 0.08260722 -0.21974164 0.26534313 -0.2889243
-0.092848234 0.09451692 -0.25909972 0.32066256 -0.24800643 -0.38806593 -0.26973256 0.16518469
-0.09823853 -0.084976844 0.00076734304 0.36288294 -0.3578545 0.22696427 -0.4551576 0.26892313
0.35247532 -0.056802135 -0.25226706 0.03694426 -0.3319537 -0.049988758 -0.2252707 0.17622967
0.047586497 -0.14841129 0.20159552 -0.2305782 0.21366097 -0.10705326 -0.18793382 -0.29486504
0.41049862 0.3836277 -0.31215322 -0.2067763 0.15229823 0.081750706 -0.18069488 -0.35528228
-0.15050635 0.10840142 -0.10039369 0.089115545 0.31781742 0.37418386 -0.15368323 -0.10857131
-0.082826756 0.4268434 0.1842926 -0.2743786 0.16376935 0.114533365 0.011084146 0.3005275
0.14350237 0.1290967 0.17995372 -0.444801 0.0027550939 -0.2180067 0.4192152 0.44932112
-0.03443856 -0.2104059 -0.27373168 0.32264838 -0.123416364 0.059800632 -0.07321391 0.32629517
-0.19366312 0.11863836 0.21416737 -0.07609862 -0.19784226 0.2899432 -0.1871375 0.13305725
0.20780249 -0.2660469 0.20878877 0.24972668 0.022278564 0.17542088 0.25408313 0.23734038
0.08381122 0.36281273 -0.17782493 -0.33799562 0.33297688 0.14498071 0.06328406 0.25371733
-0.056533754 -0.2995608 -0.17142698 0.21634409 -0.038444377 0.16833575 -0.41212797 -0.3518672
0.05687454 -0.29599845 -0.17150304 0.22558254 -0.31469426 0.27431104 0.3180857 0.22571863
0.30901542 0.1167775 -0.10410506 0.03009999 0.23648535 0.16157866 -0.40821692 0.337484
-0.22591314 0.33336443 0.40577078 -0.38174918 -0.08760985 0.23311007 -0.014451964 -0.089268856
-0.14091738 -0.01323364 -0.025010528 0.26320097 0.14972952 -0.31392947 0.12540926 -0.30278477
-0.24613084 0.105360806 0.39325148 0.35297164 0.26106355 0.14861594 0.09239062 -0.17169814
0.09604008 0.28591782 -0.3504876 0.24052906 -0.41549042 0.26153836 0.06931211 0.09802205
-0.17832816 -0.2604694 0.07264555 0.09710302 -0.2421233 -0.082085215 0.102261245 0.04596869
0.33154804 -0.39100742 -0.01749457 -0.3830864 0.15431036 -0.09992273 -0.2087683 0.19042964
-0.1061783 -0.2838409 -0.39151144 0.28247204 -0.20031881 -0.24209508 0.1960989 -0.33083275
-0.3304516 0.23239882 0.36594793 0.23757449 0.23886107 -0.10217103 0.03830665 -0.27980906
0.27344793 -0.17915826 0.27461493 -0.037783004 -0.3447852 0.13127092 0.36980462 -0.11994909
0.10823709 -0.19320233 0.20802246 -0.19441359 0.38152298 -0.2052681 0.21772495 -0.08367
0.21673061 -0.34724328 -0.23978095 -0.34463567 -0.38102147 0.2915985 -0.036296662 -0.3812892
0.20603852 -0.26850954 -0.15741758 0.2116868 -0.21652296 -0.11212955 -0.16359238 -0.10386161
00000000: 632c 5abe b498 d7bd cc69 b4be 00f6 6bbd
00000010: eac9 3d3e db38 2cbd e259 01be 94ac 523e
00000020: 9538 883e 7226 c3be c867 2ebd 0fc7 493e
00000030: 7328 20be 04e7 c13e e47c 6dbc c304 ab3e
00000040: 41c1 0b3e 831d 2d3e 8940 de3e d1e5 95be
00000050: 5022 15be 9bc8 53be 1a55 9dbe d9b5 0f3e
00000060: 6b31 b6be 3ae0 263e 93ff 143e 2444 0cbe
00000070: f4f4 62be 6f38 82be ead7 78be 2b80 3bbe
00000080: b255 e6bd d8e2 843d 60c4 3d3e 225c 45be
00000090: f92d a93d f403 61be 0edb 873e e3ed 93be
000000a0: 3727 bebd 1692 c13d b8a8 84be e22d a43e
000000b0: 66f5 7dbe 94b0 c6be 631a 8abe 2d26 293e
000000c0: 4831 c9bd 5708 aebd 8527 493a cbcb b93e
000000d0: b438 b7be 5269 683e 6b0a e9be 4bb0 893e
000000e0: a577 b43e 5ba9 68bd 2629 81be dd52 173d
000000f0: d6f5 a9be 03c1 4cbd 5dad 66be 8d75 343e
00000100: 0fea 423d 21f9 17be 0e6f 4e3e b11c 6cbe
00000110: f1c9 5a3e bd3e dbbd b971 40be 8df8 96be
00000120: e02c d23e da6a c43e 8cd2 9fbe 2bbd 53be
00000130: 11f4 1b3e ea6c a73d 1408 39be 8fe7 b5be
00000140: 561e 1abe 9001 de3d 359b cdbd 3682 b63d
00000150: f7b8 a23e 0795 bf3e 235f 1dbe a35a debd
00000160: 13a1 a9bd 388b da3e 33b7 3c3e 5a7b 8cbe
00000170: 27b3 273e 7890 ea3d 479a 353c bede 993e
00000180: 49f2 123e ed31 043e ca45 383e f5bc e3be
00000190: ce8e 343b 263d 5fbe 60a3 d63e 6b0d e63e
000001a0: 730f 0dbd a574 57be 8f26 8cbe 2b32 a53e
000001b0: b8c1 fcbd 82f1 743d 2df1 95bd 2910 a73e
000001c0: a04f 46be abf8 f23d b14e 5b3e 98d9 9bbd
000001d0: 2997 4abe 6f73 943e f9a0 3fbe 2940 083e
000001e0: 2dca 543e 4d37 88be b9cc 553e 5ab8 7f3e
000001f0: 8981 b63c 88a1 333e 2f17 823e 5b09 733e
00000200: 38a5 ab3d 97c2 b93e bd17 36be c30d adbe
00000210: f27b aa3e d375 143e 139b 813d 3de7 813e
00000220: f08f 67bd 0860 99be 8e8a 2fbe 4e89 5d3e
00000230: da77 1dbd 3560 2c3e 7002 d3be f027 b4be
00000240: 47f5 683d 1c8d 97be 7e9e 2fbe 1cff 663e
00000250: 9b1f a1be 7f72 8c3e 21dc a23e c922 673e
00000260: 4537 9e3e 0b29 ef3d 0935 d5bd 4194 f63c
00000270: 3729 723e e074 253e cf01 d1be b4ca ac3e
00000280: c655 67be beae aa3e 30c1 cf3e a174 c3be
00000290: cb6c b3bd 68b4 6e3e eec7 6cbc 97d2 b6bd
000002a0: a54c 10be e9d1 58bc e1e2 ccbc 47c2 863e
000002b0: b252 193e 5dbb a0be 496b 003e 9b06 9bbe
000002c0: b909 7cbe 68c7 d73d 4258 c93e b3b8 b43e
000002d0: 1faa 853e c72e 183e 4b37 bd3d a3d1 2fbe
000002e0: a9b0 c43d d263 923e 1c73 b3be 404d 763e
000002f0: 29bb d4be 5be8 853e 82f3 8d3d c9bf c83d
00000300: a89b 36be 3f5c 85be 31c7 943d f3dd c63d
00000310: 2cef 77be 4b1c a8bd 586e d13d aa49 3c3d
00000320: aac0 a93e 2032 c8be c650 8fbc e723 c4be
00000330: 8903 1e3e 4aa4 ccbd 5bc7 55be fdff 423e
00000340: 0274 d9bd 9853 91be 3074 c8be 2da0 903e
00000350: 6020 4dbe c6e7 77be 26ce 483e e962 a9be
00000360: f430 a9be f5f9 6d3e 875d bb3e ba46 733e
00000370: ff97 743e 0c3f d1bd 6fe7 1c3d 2243 8fbe
00000380: 5e01 8c3e 4375 37be 549a 8c3e 5ac2 1abd
00000390: b087 b0be e26b 063e 0857 bd3e dea7 f5bd
000003a0: 68ab dd3d d5d6 45be d703 553e 5b14 47be
000003b0: fb56 c33e cd31 52be 4af3 5e3e 2d5b abbd
000003c0: a1ee 5d3e dfc9 b1be 2389 75be 1674 b0be
000003d0: 3f15 c3be 664c 953e cfab 14bd 5738 c3be
000003e0: c3fb 523e 157a 89be 1332 21be 6dc4 583e
000003f0: 32b8 5dbe 2da4 e5bd c384 27be 65b5 d4bd

classify.bias f4 [11]
-0.15542832 0.023638196 0.07249776 0.074229345 -0.17223673 -0.0973611 0.013686997 -0.19308625
-0.06356904 -0.06629536 0.17719682
00000000: 9a28 1fbe e4a4 c13c b579 943d 8e05 983d
00000010: d35e 30be 4265 c7bd 6d3f 603c 67b8 45be
00000020: 7c30 82bd ddc5 87bd 1573 353e
