model2.bin (torch, 1618 bytes, 2 tensors)

linear1.weight f4 [5, 5]
000000 ab 82 33 40 a1 44 40 bf 30 7c c2 bf 1f c5 a5 bf
       2.8048503 -0.7510472 -1.5194149 -1.2950782
000010 a6 86 9b bf 97 e2 9c bf 2c 33 44 40 80 7a a4 bf
       -1.2150466 -1.225665 3.0656233 -1.2849884
000020 84 3d 8f bf a1 ab 8c bf 95 d0 90 bf 71 73 67 bf
       -1.1190648 -1.0989877 -1.1313654 -0.90410525
000030 6e 26 20 40 d8 43 99 bf c1 ce 8c bf 5d 8e aa bf
       2.5023456 -1.1973829 -1.1000596 -1.3324696
000040 99 34 6b bf 2f 68 ad bf 38 97 1c 40 7c 40 88 bf
       -0.9187713 -1.3547419 2.4467297 -1.0644679
000050 c3 ac 98 bf 3e 7f 51 bf 67 6f b1 bf e1 d8 89 bf
       -1.1927723 -0.8183478 -1.3862122 -1.0769311
000060 19 90 36 40
       2.852545

linear1.bias f4 [5]
000000 e8 9a e9 3c 87 71 a2 bd bd 03 3d 3d 9e 4f 93 3e
       0.028516248 -0.0793181 0.046146143 0.2877168
000010 a1 2e 91 bd
       -0.07088972
