model3.pth (torch, 5645 bytes, 3 tensors)

embedding.weight f4 [28, 20]
0.0 0.0 0.0 0.0 0.0 0.0 0.0 0.0
0.0 0.0 0.0 0.0 0.0 0.0 0.0 0.0
0.0 0.0 0.0 0.0 -0.5377017 0.1320689 1.4374397 0.5379472
-0.14556615 -0.6390765 0.19715382 2.9379296 -0.7006313 -0.63355607 -1.3605455 -1.30122
-2.1468337 -0.00034940307 -2.3153937 0.22976337 0.7846802 0.38386285 3.516001 1.0662822
-1.3454422 0.6554291 1.2182698 -0.31068745 2.2540822 -1.2583172 1.6330491 0.9998706
0.6527166 -0.44951946 -0.46582705 -0.25278768 -0.7857688 0.907801 0.92297876 0.72932714
0.121863335 -1.407858 -0.30904663 1.4985868 -1.1223084 -0.2677568 -0.37467384 -1.5955436
1.1088356 0.10211366 1.45048 0.52342826 0.16169275 -0.42291266 -0.41851795 0.085394144
-1.3332537 0.14645329 -0.4790275 0.22752951 0.87526137 -0.2473623 0.5636278 -0.95803463
0.45413816 1.4825968 1.7672082 -0.71618545 -0.3422439 -0.123899795 0.16017783 0.3155359
1.7562358 -1.3688426 -0.017557863 -0.3701858 0.023890814 1.3208957 0.38808545 0.4800744
-0.47769913 -0.8773656 1.4491814 -1.7165821 1.3552717 -0.13693385 1.3495163 0.881935
1.0898495 0.2846421 0.5636539 1.1870217 1.8289356 -0.98187584 -0.07915597 0.93310356
1.9430186 1.1458259 -1.3482201 2.8079 3.1303654 0.099900424 1.3045685 0.6114152
-0.9633866 0.5102287 -2.6271613 -2.4728684 -0.06865844 1.7245204 2.1098459 1.41361
0.21541004 -0.3081363 -0.059982408 0.93453795 -0.8265223 0.7578263 0.09875316 0.20642017
1.9474597 0.7660049 -1.3839012 1.016361 -0.7182921 2.0405986 -1.3719461 -2.04889
-0.5596969 1.9470873 2.705313 0.45554844 0.32495576 -0.615548 -0.787107 -1.2445911
-0.88890326 -0.1493369 1.3187884 0.7746031 0.50580204 -0.48687208 1.481904 -0.563251
-0.83999854 0.67604375 -0.40026402 -2.0528429 -0.35948694 0.2290463 0.28588775 -1.7818534
2.0458076 -0.1486808 0.23511752 -0.5852636 -1.0097528 1.4758736 1.7585332 0.9397927
0.8440437 -1.5114686 -0.54006606 -0.30135313 -2.0007052 -0.9506326 0.19239831 0.56462216
1.3638943 0.3030175 0.3397453 1.2771894 0.62578005 -2.0348794 -2.9414656 -0.32079265
0.32803944 0.6347487 -0.6234146 -0.37600002 -1.6848434 -0.023873426 -0.51368344 -0.85727483
-0.56024384 0.5481803 0.26900655 0.29280147 0.39563963 0.48677027 1.6992273 -0.50480795
1.3505565 -1.4114276 0.29556862 -1.6761591 0.65328145 0.12540597 1.1489071 -0.4118954
-0.9396976 -0.037514083 0.76062906 -0.60509926 -0.6175415 -0.75204027 0.094924 -0.09747295
0.41336623 -0.9037695 1.5973865 -1.1033703 0.55646586 -1.1308489 -0.6816583 0.39001414
-0.2739405 -0.11919729 0.31841254 0.26955092 -0.24791531 -0.21783924 1.1236004 1.0193008
0.43746933 1.1057949 1.1750427 1.055077 -0.73525685 -1.9320238 0.102673896 0.3619007
0.6994433 0.4896 -0.6009305 -0.16934332 0.5007537 0.16116777 -1.8088378 2.8088882
00000000: 0000 0000 0000 0000 0000 0000 0000 0000
00000010: 0000 0000 0000 0000 0000 0000 0000 0000
00000020: 0000 0000 0000 0000 0000 0000 0000 0000
00000030: 0000 0000 0000 0000 0000 0000 0000 0000
00000040: 0000 0000 0000 0000 0000 0000 0000 0000
00000050: d2a6 09bf 123d 073e 06fe b73f e8b6 093f
00000060: 4b0f 15be 849a 23bf b1e2 493e 0a07 3c40
00000070: 935c 33bf bb30 22bf 5b26 aebf 618e a6bf
00000080: b965 09c0 1630 b7b9 692f 14c0 1747 6b3e
00000090: cde0 483f ac89 c43e 2906 6140 ef7b 883f
000000a0: 7337 acbf 34ca 273f 44f0 9b3f 6d12 9fbe
000000b0: e242 1040 8a10 a1bf c107 d13f 85f7 7f3f
000000c0: 6f18 273f 6a27 e6be e280 eebe 636d 81be
000000d0: 2528 49bf a565 683f 5648 6c3f 2fb5 3a3f
000000e0: 7c93 f93d b134 b4bf 5c3b 9ebe b1d1 bf3f
000000f0: cda7 8fbf 6b17 89be 40d5 bfbe c63a ccbf
00000100: 53ee 8d3f f720 d13d 54a9 b93f 65ff 053f
00000110: c992 253e 0288 d8be fc47 d6be 20e3 ae3d
00000120: 0fa8 aabf daf7 153e 1843 f5be 7ffd 683e
00000130: 2111 603f 8b4c 7dbe e949 103f c241 75bf
00000140: cc84 e83e bbc5 bd3f e133 e23f ee57 37bf
00000150: 983a afbe 2dbf fdbd a805 243e ec8d a13e
00000160: 56cc e03f 3c36 afbf 82d5 8fbc fe88 bdbe
00000170: abb6 c33c 1c13 a93f 23b3 c63e 50cc f53e
00000180: fb94 f4be 089b 60bf c77e b93f f6b8 dbbf
00000190: 8b79 ad3f 6338 0cbe f3bc ac3f 7ec6 613f
000001a0: 3080 8b3f 9cbc 913e 9f4b 103f 54f0 973f
000001b0: 901a ea3f 375c 7bbf 861c a2bd e0df 6e3f
000001c0: d5b4 f83f 6caa 923f 7a92 acbf a2b4 3340
000001d0: e857 4840 9898 cc3d 1afc a63f b585 1c3f
000001e0: 81a0 76bf 599e 023f 6923 28c0 7a43 1ec0
000001f0: cc9c 8cbd 16bd dc3f b707 0740 2cf1 b43f
00000200: 7394 5c3e 0bc4 9dbe 1db0 75bd e13d 6f3f
00000210: f796 53bf e800 423f 193f ca3d cf5f 533e
00000220: 5c46 f93f e618 443f ad23 b1bf 1e18 823f
00000230: fee1 37bf 2b99 0240 ee9b afbf 0421 03c0
00000240: 4c48 0fbf 283a f93f d923 2d40 a53d e93e
00000250: 9a60 a63e 8e94 1dbf d87f 49bf c34e 9fbf
00000260: 2a8f 63bf c6eb 18be 0fce a83f 644c 463f
00000270: 3e7c 013f 4c47 f9be 08af bd3f 3831 10bf
00000280: 250a 57bf 3411 2d3f 68ef ccbe c761 03c0
00000290: ac0e b8be 1d8b 6a3e e15f 923e c613 e4bf
000002a0: 83ee 0240 c83f 18be a6c2 703e d6d3 15bf
000002b0: 943f 81bf 6de9 bc3f 9e17 e13f 4196 703f
000002c0: 3f13 583f ce77 c1bf c541 0abf f54a 9abe
000002d0: 8e0b 00c0 a85c 73bf 1004 453e 148b 103f
000002e0: 1794 ae3f 1c25 9b3e 19f3 ad3e f17a a33f
000002f0: 1f33 203f 773b 02c0 f940 3cc0 ef3e a4be
00000300: c9f4 a73e e47e 223f 1998 1fbf 1383 c0be
00000310: f3a8 d7bf 3492 c3bc c280 03bf 5d76 5bbf
00000320: 246c 0fbf 8b55 0c3f 3abb 893e 13ea 953e
00000330: 4791 ca3e f439 f93e 4880 d93f 183b 01bf
00000340: 09df ac3f a9a9 b4bf c554 973e 628c d6bf
00000350: 743d 273f 6c6a 003e 630f 933f f4e3 d2be
00000360: 0690 70bf 5ea8 19bd 96b8 423f c9e7 1abf
00000370: 3317 1ebf b685 40bf 8467 c23d e69f c7bd
00000380: bda4 d33e 705d 67bf 2977 cc3f 3d3b 8dbf
00000390: 8c74 0e3f a8bf 90bf 2981 2ebf efaf c73e
000003a0: ee41 8cbe b51d f4bd f806 a33e 9402 8a3e
000003b0: 83dd 7dbe 4011 5fbe 23d2 8f3f 7378 823f
000003c0: fbfb df3e b08a 8d3f cd67 963f c30c 873f
000003d0: cb39 3cbf 8e4c f7bf b146 d23d 0c4b b93e
000003e0: b70e 333f daac fa3e 95d6 19bf 5668 2dbe
000003f0: 6531 003f 2a09 253e ff87 e7bf d3c4 3340

classify.weight f4 [20, 20]
-0.11639511 0.22817242 0.17453477 -0.023908341 0.015330496 -0.22502716 0.33013052 0.17587847
0.023207173 -0.2922693 -0.21280658 -0.18479146 -0.021661505 0.35512388 -0.1773571 0.12596008
0.1591582 0.0054532858 0.0998206 0.07433711 -0.012961343 0.30641535 0.11263216 0.10244295
0.1414832 -0.26863107 0.13737676 0.27001783 0.13907847 -0.106771044 -0.27627823 -0.20377979
-0.23352239 0.14423987 0.060408216 0.04949253 0.14541878 -0.022607507 0.32791957 0.20945995
-0.21617503 0.16406979 0.014024373 -0.01539061 0.0897966 -0.06909703 0.23932455 0.3629171
0.2958608 -0.06899636 0.0011182415 -0.085928254 -0.054561175 0.1842772 0.0213038 0.26489854
-0.05738474 -0.1061725 0.21195355 0.16105385 -0.32845414 0.070931174 0.27333933 -0.120866716
0.12798277 -0.13179518 0.225775 0.12000325 0.093960665 -0.3586456 -0.09290365 -0.13743389
-0.095520265 0.2498438 0.08999032 0.27606517 0.26665378 0.024670603 0.476858 0.03235854
-0.19738615 0.13712193 0.041439973 0.12531461 0.124389164 -0.013096477 0.18637177 0.26826334
-0.02813047 -0.14156064 -0.052781563 -0.1287887 -0.081907615 0.24658509 -0.027555037 0.113652706
0.29904824 -0.16554926 0.36453533 0.024414456 -0.22141743 0.12508976 0.024090884 -0.13015822
-0.03843772 -0.19183458 0.2879421 0.38519064 0.19254242 -0.08629242 -0.06546693 -0.18102318
-0.08231832 0.3725422 -0.07899276 0.2337283 0.04435682 0.02301704 0.3049242 -0.03015243
0.61766267 -0.25478408 -0.21472311 0.18347986 -0.46961686 0.4449391 -0.6315477 -0.2512586
-0.43258363 0.33989882 0.46163368 0.38311717 0.39450976 -0.4185447 0.069381595 -0.19846153
-0.4681497 0.16884945 -0.19487244 -0.46329004 0.3384753 -0.51589704 -0.45208952 0.08112878
-0.29615796 0.4356124 -0.19173399 -0.41274923 -0.41777954 0.5870054 0.4688825 0.25483686
0.26383886 -0.5131627 0.21928854 -0.39518747 -0.46384224 0.000996892 -0.5357973 -0.25915962
0.30095947 -0.31706655 -0.5924784 0.257559 -0.49282598 0.25208312 -0.5696076 -0.15429933
-0.43774018 0.35289153 0.63564867 0.19428895 0.33779344 -0.21560694 0.33730736 -0.2915576
-0.5382153 0.073218204 -0.40932056 -0.1825249 0.28446707 -0.31801486 -0.2687848 0.15917827
-0.3806904 0.24219282 -0.6356381 -0.2128935 -0.45494103 0.60452527 0.34010184 0.38272133
0.52490056 -0.27878022 0.17131285 -0.26060438 -0.49085793 0.24774417 -0.43541238 -0.33175677
0.63099843 -0.30195093 -0.53363043 0.21875438 -0.4483477 0.5000606 -0.38449746 -0.22315976
-0.2578747 0.17927031 0.5993375 0.30006966 0.22071356 -0.29656154 0.21495876 -0.48917177
-0.28923374 0.13928446 -0.27032697 -0.32051 0.4460413 -0.47218266 -0.24464034 -0.005834424
-0.60442966 0.36938012 -0.38667515 -0.4892603 -0.29181707 0.16348757 0.5083473 0.19126314
0.31193998 -0.45982417 0.23322755 -0.59271073 -0.36390993 0.15436573 -0.51816636 -0.29907686
0.4546973 -0.48941737 -0.46419448 0.22841449 -0.400565 0.39105368 -0.50741035 -0.5830406
-0.55201083 0.4709904 0.5401715 0.18547994 0.29651397 -0.44175392 0.34066305 -0.5425321
00000000: 8f60 eebd 08a6 693e 3eb9 323e 6ddb c3bc
00000010: c32c 7b3c 856d 66be de06 a93e 7c19 343e
00000020: f81c be3c 52a4 95be f8e9 59be f939 3dbe
00000030: 7873 b1bc ccd2 b53e 1a9d 35be aefb 003e
00000040: 5efa 223e 7ab1 b23b be6e cc3d 0e3e 983d
00000050: d05b 54bc 79e2 9c3e b1ab e63d 9ccd d13d
00000060: f9e0 103e 038a 89be 7eac 0c3e c73f 8a3e
00000070: 966a 0e3e c7aa dabd 5774 8dbe a6ab 50be
00000080: 7e20 6fbe 9eb3 133e 9b6e 773d aeb8 4a3d
00000090: a9e8 143e 6133 b9bc 13e5 a73e ab7c 563e
000000a0: fd5c 5dbe e901 283e 7cc6 653c e628 7cbc
000000b0: 48e7 b73d be82 8dbd 7f11 753e 45d0 b93e
000000c0: 117b 973e f74d 8dbd f591 923a 27fb afbd
000000d0: 8a7b 5fbd 2ab3 3c3e 4f85 ae3c c8a0 873e
000000e0: 430c 6bbd f870 d9bd 5a0a 593e 4deb 243e
000000f0: 242b a8be 5d44 913d 22f3 8b3e f888 f7bd
00000100: ea0d 033e 51f5 06be 9031 673e 44c4 f53d
00000110: 736e c03d 65a0 b7be 4544 bebd 78bb 0cbe
00000120: 21a0 c3bd 0ed7 7f3e d84c b83d 6a58 8d3e
00000130: d886 883e 011a ca3c bb26 f43e 638a 043d
00000140: 981f 4abe b169 0c3e f6bc 293d 7952 003e
00000150: bfbf fe3d 9b92 56bc 3ed8 3e3e d059 893e
00000160: df71 e6bc 46f5 10be 7b31 58bd 2fe1 03be
00000170: 2ebf a7bd cd80 7c3e 1abb e1bc c0c2 e83d
00000180: da1c 993e bf85 29be 60a4 ba3e d300 c83c
00000190: 40bb 62be 8817 003e 3f5a c53c 3248 05be
000001a0: df70 1dbd 4970 44be 266d 933e b537 c53e
000001b0: d729 453e 15ba b0bd 8713 86bd 245e 39be
000001c0: 8296 a8bd dabd be3e f5c6 a1bd 7956 6f3e
000001d0: 7faf 353d 3b8e bc3c 061f 9c3e 3b02 f7bc
000001e0: 241f 1e3f 0f73 82be 60e0 5bbe 25e2 3b3e
000001f0: 9f71 f0be 0fcf e33e 1cad 21bf f8a4 80be
00000200: 9a7b ddbe 3807 ae3e 405b ec3e ef27 c43e
00000210: 2ffd c93e 7e4b d6be f017 8e3d 8039 4bbe
00000220: 51b1 efbe dfe6 2c3e a48c 47be 5a34 edbe
00000230: a24c ad3e d411 04bf 4778 e7be d926 a63d
00000240: 04a2 97be 9708 df3e ea55 44be de53 d3be
00000250: 33e7 d5be fc45 163f 5e11 f03e fa79 823e
00000260: e315 873e a15e 03bf 2d8d 603e 0356 cabe
00000270: bb7c edbe 25aa 823a 032a 09bf 92b0 84be
00000280: 5c17 9a3e 8c56 a2be aaac 17bf c6de 833e
00000290: b053 fcbe 0a11 813e ced1 11bf a500 1ebe
000002a0: 7b1f e0be 33ae b43e dfb9 223f aff3 463e
000002b0: 43f3 ac3e 11c8 5cbe 8db3 ac3e 0a47 95be
000002c0: 7ac8 09bf 6df3 953d 7792 d1be cfe7 3abe
000002d0: aba5 913e d8d2 a2be 299e 89be a1ff 223e
000002e0: dae9 c2be 6501 783e 2eb9 22bf c100 5abe
000002f0: 08ee e8be 2bc2 1a3f d421 ae3e 0df4 c33e
00000300: e25f 063f 48bc 8ebe a36c 2f3e f06d 85be
00000310: bb51 fbbe a6b0 7d3e 5fee debe 06dc a9be
00000320: 1d89 213f 5099 9abe 019c 08bf 2601 603e
00000330: d48d e5be f903 003f dadc c4be fe83 64be
00000340: 2708 84be a392 373e 2f6e 193f bba2 993e
00000350: bc02 623e ead6 97be 261e 5c3e b974 fabe
00000360: 7216 94be 96a0 0e3e 4c68 8abe e319 a4be
00000370: 865f e43e edc1 f1be ff82 7abe b22e bfbb
00000380: e7bb 1abf 641f bd3e 49fa c5be 5380 fabe
00000390: 0c69 95be 4969 273e 0c23 023f 7cda 433e
000003a0: 99b6 9f3e 136e ebbe 34d3 6e3e e4bb 17bf
000003b0: 6752 babe 0d12 1e3e 8da6 04bf 9a20 99be
000003c0: 16ce e83e ea94 fabe e6aa edbe 7de5 693e
000003d0: db16 cdbe 3038 c83e a5e5 01bf 2642 15bf
000003e0: 9550 0dbf a725 f13e ae48 0a3f 74ee 3d3e
000003f0: aed0 973e 922d e2be 636b ae3e 62e3 0abf

classify.bias f4 [20]
0.3896352 0.36385766 0.35826832 0.11678842 0.41642782 0.14487079 -0.37853768 -0.20226
-0.39037594 -0.15809442 -0.2784296 -0.24925368 -0.25826994 -0.5400803 -0.2971363 -0.4893253
-0.16379233 -0.36816394 -0.48842692 -0.38789916
00000000: 447e c73e 8d4b ba3e f26e b73e c42e ef3d
00000010: 0736 d53e 0259 143e b1cf c1be 3f1d 4fbe
00000020: 5bdf c7be 81e3 21be 538e 8ebe 5b3c 7fbe
00000030: f53b 84be b442 0abf 4022 98be d988 fabe
00000040: 2db9 27be fc7f bcbe 1813 fabe b89a c6be
