model4.pth (torch, 8067 bytes, 5 tensors)

embedding.weight f4 [28, 20]
0.0 0.0 0.0 0.0 0.0 0.0 0.0 0.0
0.0 0.0 0.0 0.0 0.0 0.0 0.0 0.0
0.0 0.0 0.0 0.0 1.0522038 0.49776414 -0.68860257 0.6452015
-2.0588305 -0.29732057 -0.45818186 2.0292108 -0.42437056 -0.54157925 2.596187 0.007069332
-0.68765867 0.016644698 2.0959437 0.16819526 -1.0429332 -1.7590511 1.9458538 -1.3280292
1.1185832 0.15763694 0.5761019 -0.6342736 0.48307735 0.95337397 1.4864445 0.05848384
-0.28314984 0.6989701 1.1680892 0.4758527 0.6776385 -0.7998806 -0.45431894 1.0184827
-0.8809677 -1.9946849 -0.71511084 -2.5332284 -0.5673549 0.3285028 -1.3515495 -2.7386613
0.23593566 -1.0814115 1.9595625 -0.55258495 -1.7908196 -0.44215858 0.13744238 1.802784
-0.46914142 -1.6723241 -1.0037788 1.8558562 -0.5460405 -0.6366792 -0.051953074 -0.0017400174
0.028495431 0.702051 -2.0341783 0.16616593 -0.7577463 -0.19285122 1.8625214 0.09542613
1.1691048 0.9164334 -0.95697474 0.8080985 -0.1680692 -0.20870139 0.6198786 1.0533756
-0.7423505 -1.114272 1.2367439 -0.13052084 -1.0674767 -1.0933286 0.5695608 1.7185092
0.6858008 0.23920126 0.02984848 -0.48167002 0.9199866 -0.16055465 0.5279944 0.196859
1.3077322 -0.2703152 0.18698342 -0.28325158 0.63596344 0.3750691 0.7734968 0.9384399
0.72683173 0.33406425 -0.45025733 0.39490917 -0.98490757 3.6192524 0.8938299 -0.8934054
0.74051553 1.1196679 -0.44083565 -0.111224845 0.31109968 -0.47158766 0.4917875 0.28756934
0.76588356 -0.04032083 1.9123281 2.1951296 -1.2085838 -0.7996965 -1.8576014 1.3585573
0.28977498 -1.9355268 0.43291786 0.533684 0.4121514 0.42371833 -1.0554926 -0.20057334
0.41409037 -0.1969425 1.2410941 0.34261498 0.76819116 0.67770606 0.37441579 0.3584976
-0.26988578 -1.2738216 1.8948877 -0.734771 -0.8844214 0.33913657 0.55193895 1.5231911
0.73895913 0.7705615 1.0196868 -0.122864075 -0.81534284 1.7835418 0.9701856 0.5345817
0.36289176 -1.3006992 0.6546564 0.632206 1.35069 0.8081406 1.6864336 -0.23750478
1.1131068 -1.6704944 0.19699702 -0.109193124 0.1698566 0.122377194 -0.41774887 0.45403513
1.0139226 0.43822497 -0.016473275 -1.0514789 0.6067661 0.31759378 -0.025373487 0.20468041
-0.086806975 -0.15919966 1.1698844 -0.66486853 0.30524182 -2.2220154 -0.2569474 1.0021787
1.7507653 -0.09626029 -1.35559 -1.1432271 -0.8812993 -1.4750471 -0.3850856 0.1753879
0.47548378 1.9721344 -2.1955416 -0.7494876 0.47409877 0.050318256 -1.1644117 -1.2245071
-1.8054677 0.91580266 1.0843976 -0.13719603 0.7226692 1.0644623 0.19023244 -0.15473084
-0.26833653 -0.5233871 -1.6984437 1.8877608 -0.8055679 -1.5615875 0.79921407 0.42515832
0.18580376 -0.33723545 1.4407896 -0.77767485 0.3135613 1.3873932 -0.8423533 -0.20666602
-0.3353163 -0.9379412 -2.3996143 -0.20591015 0.681938 0.27554977 0.17072013 -0.08542911
00000000: 0000 0000 0000 0000 0000 0000 0000 0000
00000010: 0000 0000 0000 0000 0000 0000 0000 0000
00000020: 0000 0000 0000 0000 0000 0000 0000 0000
00000030: 0000 0000 0000 0000 0000 0000 0000 0000
00000040: 0000 0000 0000 0000 0000 0000 0000 0000
00000050: 9dae 863f f1da fe3e 4248 30bf ed2b 253f
00000060: e1c3 03c0 673a 98be d096 eabe 97de 0140
00000070: 1947 d9be f0a4 0abf ee27 2640 dba5 e73b
00000080: 660a 30bf 765a 883c f123 0640 613b 2c3e
00000090: d67e 85bf 9628 e1bf bd11 f93f dcfc a9bf
000000a0: bc2d 8f3f 946b 213e 6a7b 133f c15f 22bf
000000b0: ea55 f73e 5110 743f d043 be3f c08c 6f3d
000000c0: 04f9 90be b4ef 323f f283 953f f7a2 f33e
000000d0: b779 2d3f fac4 4cbf 7e9c e8be a45d 823f
000000e0: 1987 61bf d651 ffbf 8111 37bf 6a20 22c0
000000f0: 2c3e 11bf 8531 a83e 93ff acbf 3a46 2fc0
00000100: 1e99 713e b16b 8abf f2d2 fa3f 3576 0dbf
00000110: 9439 e5bf 9c62 e2be b2bd 0c3e a0c1 e63f
00000120: 4e33 f0be b70e d6bf d37b 80bf b28c ed3f
00000130: 4fc9 0bbf 68fd 22bf bfcc 54bd 4c11 e4ba
00000140: 406f e93c 9db9 333f fa2f 02c0 6727 2a3e
00000150: a9fb 41bf ca7a 45be 1a67 ee3f c66e c33d
00000160: 3aa5 953f 619b 6a3f 4cfc 74bf 8bdf 4e3f
00000170: 551a 2cbe d1b5 55be 5db0 1e3f 03d5 863f
00000180: af0a 3ebf 77a0 8ebf a04d 9e3f 41a7 05be
00000190: 14a3 88bf 31f2 8bbf bdce 113f 1cf8 db3f
000001a0: a490 2f3f 2df1 743e cd84 f43c 749d f6be
000001b0: 3e84 6b3f 7068 24be a42a 073f 6895 493e
000001c0: c563 a73f c166 8abe 9578 3f3e 5a06 91be
000001d0: 80ce 223f 0f09 c03e e303 463f 993d 703f
000001e0: a511 3a3f 780a ab3e 2188 e6be 8931 ca3e
000001f0: e722 7cbf d5a1 6740 09d2 643f 37b6 64bf
00000200: 6d92 3d3f 4751 8f3f 36b5 e1be dac9 e3bd
00000210: 7548 9f3e f073 f1be 92cb fb3e 4a3c 933e
00000220: f210 443f 7427 25bd 2bc7 f43f 017d 0c40
00000230: e0b2 9abf e9b8 4cbf e2c5 edbf 35e5 ad3f
00000240: 635d 943e 58bf f7bf 69a7 dd3e 849f 083f
00000250: 8205 d33e 9cf1 d83e 621a 87bf 1963 4dbe
00000260: a703 d43e 4bab 49be 2cdc 9e3f 3b6b af3e
00000270: 2da8 443f 257e 2d3f 6db3 bf3e ff8c b73e
00000280: 782e 8abe 960c a3bf ae8b f23f f419 3cbf
00000290: 7169 62bf 4fa3 ad3e df4b 0d3f edf7 c23f
000002a0: 6d2c 3d3f 8543 453f 1985 823f 29a0 fbbd
000002b0: 4fba 50bf 194b e43f 155e 783f 59da 083f
000002c0: f3cc b93e 507d a6bf 9097 273f 41d8 213f
000002d0: 69e3 ac3f 4de2 4e3f 0edd d73f 7434 73be
000002e0: 497a 8e3f c3d2 d5bf 96b9 493e a5a0 dfbd
000002f0: e3ee 2d3e e5a0 fa3d 2ee3 d5be 4b77 e83e
00000300: 37c8 813f 065f e03e f6f2 86bc dc96 86bf
00000310: 0655 1b3f a79b a23e 0fdc cfbc be97 513e
00000320: dbc7 b1bd 3c05 23be c6be 953f d334 2abf
00000330: a848 9c3e 8035 0ec0 9c8e 83be 6447 803f
00000340: 1419 e03f 1d24 c5bd f983 adbf 4455 92bf
00000350: d59c 61bf 58ce bcbf f129 c5be e398 333e
00000360: 9c72 f33e e66e fc3f c183 0cc0 6bde 3fbf
00000370: 13bd f23e 841a 4e3d 710b 95bf a6bc 9cbf
00000380: 9119 e7bf 0b72 6a3f 8acd 8a3f 1e7d 0cbe
00000390: d900 393f 4d40 883f 4bcc 423e c371 1ebe
000003a0: 6863 89be b2fc 05bf 9a66 d9bf 25a2 f13f
000003b0: b339 4ebf 19e2 c7bf 4b99 4c3f 5aae d93e
000003c0: 5743 3e3e 20aa acbe cb6b b83f b315 47bf
000003d0: 1b8b a03e 1a96 b13f 77a4 57bf 42a0 53be
000003e0: 94ae abbe ea1c 70bf 4893 19c0 1cda 52be
000003f0: 7d93 2e3f dc14 8d3e 42d1 2e3e 75f5 aebd

layer.weight_ih_l0 f4 [20, 20]
0.10007158 0.0027835122 0.07008552 -0.059466068 -0.16265401 -0.02118881 -0.25921318 0.08727481
-0.13268521 -0.18159303 0.2229622 0.014837679 -0.008909387 -0.2503635 -0.022204138 0.11665669
-0.15616108 0.17007582 0.22283047 -0.055337105 0.2460945 0.20635675 -0.120951094 0.01838935
-0.16611536 -0.06785536 -0.30276597 0.10900108 0.19130093 -0.28780025 -0.0025830506 0.031188019
0.032300334 -0.1517895 0.09753142 -0.09108211 -0.09291486 0.074417666 0.24212044 -0.12347834
-0.06627587 -0.016419653 -0.057803728 -0.12675089 0.055746585 -0.011732426 -0.15229037 0.26685405
-0.09396317 -0.0047318926 0.1336732 -0.10108354 0.10196808 -0.011607093 0.021636887 0.11041124
0.06866934 -0.20350753 -0.06780606 0.053973842 0.08192464 -0.057936504 -0.11752318 -0.06610192
-0.15285087 -0.11322316 -0.12864704 0.07820702 0.06999388 -0.23467185 0.12681985 0.01596481
0.19835974 -0.13682516 -0.0187637 0.1566746 0.14777721 -0.033802222 -0.008350381 0.10467982
0.06467079 0.18910573 0.0399448 0.008474766 -0.037560668 0.13387387 -0.22797033 0.2547724
-0.011550683 -0.028260155 0.20997088 0.05322981 -0.13416564 -0.05662925 0.15710998 -0.11914487
-0.09950113 -0.11821941 -0.021254618 -0.07681805 -0.2054691 -0.11289637 0.01405556 -0.032992594
0.13320681 0.05069609 0.07510786 -0.036447406 0.13591355 0.19800861 -0.22984335 -0.13677308
0.25849092 0.038076263 -0.1890979 -0.021834128 -0.04498984 -0.04976412 -0.048721004 0.20216845
-0.04021635 0.087082334 -0.05233151 -0.042056583 0.2203962 0.08024957 0.013164241 -0.09877645
-0.0037277462 0.042281494 -0.10118611 -0.055520337 -0.020235408 0.09559133 -0.15279949 -0.01748191
0.13318391 -0.13686779 -0.24909453 0.11294109 -0.21390419 -0.07990896 -0.017871942 -0.0060581067
0.21613501 0.0014941639 0.07317973 -0.10748144 0.052323613 0.1613272 -0.2286896 0.14844568
0.19273832 -0.041469984 -0.20428416 -0.098908246 0.13540863 -0.050014134 -0.059141345 0.14476983
0.12910056 0.2052501 -0.0071842605 0.31737927 -0.23622695 -0.054623514 -0.17171913 0.021782435
0.15074714 -0.06338878 0.0819557 -0.21365397 0.06149774 0.064542495 -0.14038116 -0.2621673
0.13584296 -0.07224679 0.17781785 -0.22892511 -0.06600165 0.08946467 0.034100145 0.18273939
-0.12181052 -0.09391117 -0.2182296 0.07631167 -0.12987389 0.13475169 -0.09539109 0.11205048
-0.12891899 -0.15306018 -0.12554523 -0.090075135 -0.01019348 -0.091045484 0.098405056 -0.078770705
0.24916375 0.2692436 0.013334442 0.253647 -0.19548824 0.06885023 -0.23533079 0.12660415
-0.13340548 -0.17478852 0.17308114 0.0020639948 -0.132775 0.11278443 -0.046144757 0.061296362
0.065066814 -0.06566492 0.2326418 -0.2595734 -0.054764163 -0.08280736 -0.013985121 -0.030688193
0.002105201 0.035814747 0.021485843 -0.03887729 0.014033864 -0.12438547 0.0034105969 0.08503583
0.020451829 -0.115298904 0.123975255 0.14231493 0.0349858 0.13221112 -0.13413346 0.113122486
-0.046900775 -0.049479086 -0.020299489 -0.06293559 -0.011272143 -0.032238744 -0.14295897 0.32104462
-0.12797879 -0.065206975 0.22569859 -0.16725215 0.025633376 -0.1312524 -0.055477463 -0.12740009
00000000: 54f2 cc3d 966b 363b ff88 8f3d b192 73bd
00000010: c68e 26be 2894 adbc 97b7 84be 23bd b23d
00000020: a2de 07be 86f3 39be 3450 643e bd19 733c
00000030: adf8 11bc a52f 80be 74e5 b5bc b4e9 ee3d
00000040: b1e8 1fbe 5b28 2e3e ac2d 643e 29a9 62bd
00000050: 3200 7c3e 2f4f 533e 35b5 f7bd 43a5 963c
00000060: 251a 2abe c0f7 8abd 2404 9bbe f53b df3d
00000070: 64e4 433e 8e5a 93be 6648 29bb 047e ff3c
00000080: 5b4d 043d b56e 1bbe 8ebe c73d 4289 babd
00000090: 254a bebd 4a68 983d 6cee 773e 36e2 fcbd
000000a0: a5bb 87bd 8282 86bc 9ac3 6cbd fcca 01be
000000b0: 8856 643d 5c39 40bc 02f2 1bbe 18a1 883e
000000c0: c36f c0bd fe0d 9bbb a1e1 083e e304 cfbd
000000d0: a4d4 d03d ad2b 3ebc d73f b13c 4a1f e23d
000000e0: 83a2 8c3d 4764 50be e7dd 8abd ad13 5d3d
000000f0: 1bc8 a73d d44e 6dbd feaf f0bd 7260 87bd
00000100: f084 1cbe 8be1 e7bd 0dbc 03be 012b a03d
00000110: f458 8f3d d14d 70be 10dd 013e a2c8 823c
00000120: d11e 4b3e e51b 0cbe 55b6 99bc 4e6f 203e
00000130: e952 173e 3374 0abd 09d0 08bc 6062 d63d
00000140: 1f72 843d efa4 413e 299d 233d bfd9 0a3c
00000150: 37d9 19bd 3b16 093e 0e71 69be 8771 823e
00000160: 133f 3dbc d781 e7bc 9b02 573e 8007 5a3d
00000170: b862 09be 13f4 67bd 70e1 203e 3a02 f4bd
00000180: 40c7 cbbd 051d f2bd 2a1e aebc c852 9dbd
00000190: 7e66 52be 3636 e7bd 4b49 663c 3e23 07bd
000001a0: 5e67 083e b4a6 4f3d 26d2 993d e049 15bd
000001b0: ec2c 0b3e c5c2 4a3e 0e5c 6bbe 3e0e 0cbe
000001c0: ec58 843e dbf5 1b3d e1a2 41be 7cdd b2bc
000001d0: 4447 38bd 76d5 4bbd ad8f 47bd 3f05 4f3e
000001e0: e6b9 24bd 3958 b23d 9159 56bd 8643 2cbd
000001f0: 8baf 613e e359 a43d d4ae 573c 4f4b cabd
00000200: 344d 74bb 5c2f 2d3d aa3a cfbd 4b69 63bd
00000210: bac4 a5bc 63c5 c33d 7877 1cbe 3936 8fbc
00000220: 5d61 083e 1227 0cbe a312 7fbe a84d e73d
00000230: b309 5bbe 4fa7 a3bd 2e68 92bc 1583 c6bb
00000240: 7f52 5d3e d2d7 c33a 41df 953d 3b1f dcbd
00000250: 4951 563d f532 253e 9b2d 6abe 2502 183e
00000260: 325d 453e 6edc 29bd de2f 51be 6890 cabd
00000270: 8fa8 0a3e 9fdb 4cbd 323e 72bd 8b3e 143e
00000280: f032 043e 152d 523e f269 ebbb 897f a23e
00000290: 7ae5 71be e8bc 5fbd 24d7 2fbe 1471 b23c
000002a0: 755d 1a3e fad1 81bd 64d8 a73d 1bc8 5abe
000002b0: 0ee5 7b3d db2e 843d 14c0 0fbe cb3a 86be
000002c0: 6b1a 0b3e 20f6 93bd e215 363e 586b 6abe
000002d0: e02b 87bd 4139 b73d 98ac 0b3d 0920 3b3e
000002e0: cb77 f9bd 8054 c0bd 9577 5fbe 4b49 9c3d
000002f0: a9fd 04be 59fc 093e 675c c3bd b97a e53d
00000300: 5703 04be cfbb 1cbe ee8e 00be 5079 b8bd
00000310: 8e02 27bc 0e76 babd 9788 c93d 8952 a1bd
00000320: c824 7f3e 4cda 893e b478 5a3c 05de 813e
00000330: 122e 48be 5901 8d3d 8efa 70be 85a4 013e
00000340: 729b 08be c3fb 32be 2f3c 313e 1644 073b
00000350: 2bf6 07be 86fb e63d 4902 3dbd e511 7b3d
00000360: c041 853d 547b 86bd a739 6e3e cee6 84be
00000370: 6350 60bd e896 a9bd d921 65bc ce65 fbbc
00000380: 69f7 093b 7cb2 123d 1403 b03c cb3d 1fbd
00000390: 4bee 653c cfbd febd 5284 5f3b 4427 ae3d
000003a0: 988a a73c d521 ecbd bde6 fd3d 01bb 113e
000003b0: 454d 0f3d 5a62 073e 485a 09be c3ac e73d
000003c0: 071b 40bd 95aa 4abd 1d4b a6bc 60e4 80bd
000003d0: cbae 38bc c60c 04bd d663 12be f65f a43e
000003e0: df0c 03be 3c8b 85bd 881d 673e 2644 2bbe
000003f0: 16fd d13c 0767 06be 563c 63bd 2b75 02be

layer.weight_hh_l0 f4 [20, 20]
0.23506457 0.21275471 0.2731719 -0.029717539 -0.18785998 -0.29000184 0.29828003 -0.043481745
0.19946016 0.26339626 0.1466909 0.102621384 -0.085081846 0.12312823 0.0681502 -0.41133657
0.005882256 -0.13070086 0.12630564 0.08562146 -0.24958639 -0.06671854 -0.11198076 -0.06558753
-0.17744881 0.028574945 0.27170667 -0.16521393 -0.03148554 -0.06454219 -0.026319932 -0.07107906
-0.07429009 0.24387808 -0.12265551 -0.07824079 -0.30495688 0.30204663 0.02840022 0.05835203
0.033989403 -0.017209696 0.16392303 0.09217151 0.076076575 -0.20625034 0.07623284 -0.24277808
-0.13867126 0.18282384 0.25843835 0.13924949 0.4056029 0.27131587 -0.36787045 -0.20485461
-0.28941795 -0.049489032 0.39561668 -0.05098817 -0.11992753 0.40678367 0.27001765 0.044280145
0.006649961 -0.32321963 0.10419176 -0.21483502 0.21869068 0.388909 0.08612103 0.12968174
-0.014819011 0.18118885 -0.32068223 -0.07362468 0.21479742 -0.22191516 -0.101521805 0.285465
0.2957571 -0.044338305 0.051651124 0.31185296 0.27754524 -0.103696235 -0.28575888 0.07206911
0.4376068 0.28993505 -0.13193555 -0.0050184554 -0.276015 -0.055594932 0.14105022 -0.19189978
-0.011505214 -0.17128979 -0.14068323 0.26621702 0.03584739 -0.09592121 -0.09225581 0.08306526
0.3932462 0.12946942 -0.16561398 -0.085447736 0.08969939 0.15880223 -0.17767946 -0.12245198
-0.12219342 -0.32502177 0.17683974 0.10497546 0.1442797 -0.20471075 -0.117984615 0.055875305
-0.25327018 -0.021672076 0.19043139 -0.12487275 -0.44580144 -0.06668105 0.14869072 -0.038862295
-0.15622774 -0.016032571 -0.11890267 0.014343839 -0.052659493 0.154745 -0.24527945 -0.06703429
-0.47804317 -0.1777798 -0.06749381 -0.22508557 0.2809743 0.25523943 0.4880208 0.21221523
0.25769073 -0.19396748 -0.27854216 0.096382536 -0.0074029937 0.04736627 0.10338252 0.20355046
-0.030480847 -0.10020589 0.23927546 -0.34511536 -0.22729269 -0.17225908 -0.42202914 0.29248565
0.19312088 0.11631518 0.32184628 0.007172094 -0.08200455 0.031227201 0.36117178 -0.014718593
0.2069677 0.30792388 0.2429566 0.150816 0.0771543 -0.08099754 -0.04447883 -0.27284214
0.043392 -0.0782483 -0.15969692 0.27337644 -0.2239497 0.12371546 0.07220135 -0.053140227
-0.2964686 -0.033858545 0.41558492 -0.16173789 -0.011587868 0.22876582 -0.13109376 0.33638668
0.104552485 0.027723884 -0.051135868 -0.14457674 -0.22622275 0.007112282 0.112097725 0.26637837
-0.34500623 -0.023964684 -0.00039436767 -0.080548435 -0.1535908 0.33149475 0.1798756 0.26553658
-0.22925803 -0.25233427 0.047079977 -0.28273308 0.13788068 -0.13307215 0.040849503 0.41179654
0.015189911 0.37444842 0.39968434 -0.03460559 -0.3093062 -0.036525015 0.059223667 -0.0127457
-0.23630206 -0.0015088307 0.12765828 -0.12549816 -0.10302389 -0.11756243 0.18009803 0.17267402
-0.049772978 0.3321771 -0.42404667 -0.1560279 -0.36476648 0.30295518 0.10431003 0.08913032
0.02560904 -0.14872518 -0.12932602 0.03520481 0.10803317 0.14463753 -0.06601112 0.27110517
-0.14208335 -0.30847746 -0.14400345 -0.18662755 -0.16007282 -0.13747627 -0.24070947 0.2536756
00000000: c4b4 703e 5fdc 593e 30dd 8b3e 3272 f3bc
00000010: 5e5e 40be 1f7b 94be 29b8 983e ea19 32bd
00000020: 493f 4c3e e0db 863e 2436 163e 292b d23d
00000030: 643f aebd a72a fc3d 5592 8b3d b59a d2be
00000040: f1bf c03b 72d6 05be 4456 013e 4e5a af3d
00000050: 9393 7fbe bba3 88bd 2b56 e5bd c152 86bd
00000060: 24b5 35be 0116 ea3c 231d 8b3e d72d 29be
00000070: fbf6 00bd b22e 84bd e69c d7bc e691 91bd
00000080: 6725 98bd 2dbb 793e d032 fbbd b53c a0bd
00000090: 4f23 9cbe dba5 9a3e 94a7 e83c 8a02 6f3d
000000a0: 7938 0b3d 59fb 8cbc 70db 273e 6bc4 bc3d
000000b0: 09ce 9b3d 4a33 53be f71f 9c3d d19a 78be
000000c0: d7ff 0dbe 2c36 3b3e 0852 843e 6b97 0e3e
000000d0: 2fab cf3e eae9 8a3e 8459 bcbe 68c5 51be
000000e0: 972e 94be 03b5 4abd 458e ca3e f9d8 50bd
000000f0: 919c f5bd f345 d03e c13f 8a3e 195f 353d
00000100: ebe7 d93b 0b7d a5be 7d62 d53d b6fd 5bbe
00000110: 73f0 5f3e 151f c73e 3960 b03d 4acb 043e
00000120: 70cb 72bc 9289 393e 7630 a4be 89c8 96bd
00000130: dbf3 5b3e ba3d 63be aaea cfbd 7828 923e
00000140: 7a6d 973e 159c 35bd 2190 533d 31ab 9f3e
00000150: 691a 8e3e b15e d4bd fd4e 92be f898 933d
00000160: 000e e03e 5e72 943e 1d1a 07be db71 a4bb
00000170: d751 8dbe 83b7 63bd 786f 103e 6081 44be
00000180: 5d80 3cbc 9766 2fbe 440f 10be 994d 883e
00000190: b6d4 123d 5772 c4bd 9df0 bcbd 1e1e aa3d
000001a0: 9157 c93e a293 043e b696 29be 39ff aebd
000001b0: 50b4 b73d 0d9d 223e 9bf1 35be 1bc8 fabd
000001c0: 8b40 fabd 4169 a6be 7a15 353e 60fd d63d
000001d0: 0fbe 133e b29f 51be eba1 f1bd 81dd 643d
000001e0: a1ac 81be a389 b1bc 7200 433e 49bd ffbd
000001f0: 1640 e4be 1390 88bd 6142 183e 122e 1fbd
00000200: 2afa 1fbe bd56 83bc 3e83 f3bd 6c02 6b3c
00000210: 7bb1 57bd 7975 1e3e 892a 7bbe 4649 89bd
00000220: 13c2 f4be e80b 36be 323a 8abd d57c 66be
00000230: dddb 8f3e beae 823e dddd f93e f34e 593e
00000240: 0af0 833e 699f 46be 149d 8ebe 3564 c53d
00000250: d094 f2bb 2203 423d 37ba d33d 886f 503e
00000260: f8b2 f9bc bf38 cdbd a004 753e f6b2 b0be
00000270: 6abf 68be af64 30be 3414 d8be aec0 953e
00000280: 7bc1 453e a736 ee3d 09c9 a43e e303 eb3b
00000290: 00f2 a7bd 30d0 ff3c 82eb b83e 4126 71bc
000002a0: 57ef 533e 33a8 9d3e 9dc9 783e 826f 1a3e
000002b0: 1303 9e3d 0ae2 a5bd 6f2f 36bd f7b1 8bbe
000002c0: cfbb 313d a540 a0bd 9787 23be fff7 8b3e
000002d0: 1253 65be 885e fd3d 4dde 933d 91a9 59bd
000002e0: bbca 97be 42af 0abd 8cc7 d43e 9e9e 25be
000002f0: 0bdb 3dbc 9641 6a3e 713d 06be e03a ac3e
00000300: 9d1f d63d 331d e33c d873 51bd ed0b 14be
00000310: f0a6 67be 250e e93b 7e93 e53d bf62 883e
00000320: a8a4 b0be 9651 c4bc 22c3 ceb9 94f6 a4bd
00000330: e846 1dbe aeb9 a93e 4f31 383e 69f4 873e
00000340: 9ec2 6abe f531 81be efd6 403d 64c2 90be
00000350: 9830 0d3e 1144 08be cf51 273d ffd6 d23e
00000360: 1bdf 783c b4b7 bf3e 6da3 cc3e 97be 0dbd
00000370: 625d 9ebe 419b 15bd 8494 723d 57d3 50bc
00000380: 2bf9 71be f5c3 c5ba dab8 023e 9782 00be
00000390: 30fe d2bd 92c4 f0bd 9e6b 383e 75d1 303e
000003a0: c0de 4bbd 1e13 aa3e a51c d9be c7c5 1fbe
000003b0: acc2 babe f11c 9b3e 7fa0 d53d f589 b63d
000003c0: 0dca d13c 6a4b 18be 0a6e 04be eb32 103d
000003d0: 7f40 dd3d dc1b 143e d730 87bd 4cce 8a3e
000003e0: 4c7e 11be c2f0 9dbe a475 13be 4b1b 3fbe
000003f0: 21ea 23be 94c6 0cbe 8b7c 76be c5e1 813e

classify.weight f4 [6, 20]
0.24724779 0.0973454 0.026589578 0.2515 -0.32752433 -0.29934525 0.39891905 0.047821917
0.18044902 0.4610615 -0.22557797 0.38880128 -0.2756404 -0.2852724 -0.055014655 -0.3433766
-0.25688782 -0.19789357 -0.21355648 0.3364109 -0.4469839 0.041914117 0.39433724 -0.23927389
-0.3209121 -0.11711144 0.2986166 -0.3854979 -0.43329614 -0.1175231 0.305339 0.47470525
0.039216254 0.4084226 -0.35429743 -0.34944776 -0.03017254 -0.12440416 -0.070499 0.15880515
-0.4276277 -0.112868935 -0.34105578 -0.25916725 -0.35949445 0.20585747 -0.2475849 -0.37135476
-0.26307678 -0.25714073 0.24073641 -0.17908514 0.35096994 0.37029222 -0.22606759 0.32397878
-0.14726189 0.31005153 0.3654473 -0.10208578 -0.23210333 -0.28421837 -0.19434221 -0.21252935
0.22894199 0.37686875 0.008535954 0.2581427 -0.06312705 -0.44223815 -0.16768621 -0.31266016
0.061529115 -0.26944375 0.28172603 0.023185084 0.48490277 0.38385603 0.40405303 -0.22676308
0.16528249 -0.26888692 0.3756539 0.2223218 0.19767632 0.14411491 -0.26377055 0.19337639
0.14027663 -0.16599715 -0.41805303 -0.2934562 -0.4317136 -0.34396818 0.3909782 0.0672014
-0.045607146 -0.30520156 -0.47551888 -0.23064671 0.421308 0.25657895 0.11497099 0.009870755
0.18337286 -0.30910134 -0.1080839 -0.16682246 0.41347155 -0.050754867 0.4359819 -0.2849634
0.15280032 0.21157992 0.4134151 -0.4355816 0.32911327 -0.23015884 0.48148662 0.26977286
00000000: 862e 7d3e 065d c73d 63d2 d93c 9cc4 803e
00000010: 45b1 a7be c843 99be 1e3f cc3e eae0 433d
00000020: a1c7 383e 4110 ec3e e9fd 66be f610 c73e
00000030: bd20 8dbe 390f 92be 0c57 61bd 0fcf afbe
00000040: cd86 83be 9da4 4abe 8dae 5abe 0d3e ac3e
00000050: 13db e4be 23ae 2b3d 92e6 c93e 3704 75be
00000060: 974e a4be 1fd8 efbd 46e4 983e fb5f c5be
00000070: fed8 ddbe f3af f0bd 6555 9c3e 910c f33e
00000080: 39a1 203d c41c d13e 7966 b5be d1ea b2be
00000090: 672c f7bc 9cc7 febd c861 90bd d19d 223e
000000a0: 05f2 dabe d427 e7bd dd9e aebe 92b1 84be
000000b0: a80f b8be 4dcc 523e e586 7dbe 3622 bebe
000000c0: 00b2 86be f3a7 83be 9b83 763e 1862 37be
000000d0: 55b2 b33e f196 bd3e 437e 67be 8ce0 a53e
000000e0: d2cb 16be 13bf 9e3e e91b bb3e 5912 d1bd
000000f0: 7fac 6dbe 1285 91be a501 47be 4ba1 59be
00000100: c56f 6a3e f1f4 c03e 63da 0b3c 482b 843e
00000110: c148 81bd 0a6d e2be efb5 2bbe fe14 a0be
00000120: f405 7c3d 88f4 89be 653e 903e a5ee bd3c
00000130: 2d45 f83e c788 c43e 0ae0 ce3e 9534 68be
00000140: d03f 293e 8cab 89be b555 c03e 53a8 633e
00000150: a96b 4a3e dc92 133e ef0c 87be 7604 463e
00000160: ada4 0f3e 28fb 29be 0c0b d6be e43f 96be
00000170: 9109 ddbe 991c b0be 4b2e c83e e3a0 893d
00000180: 8fce 3abd 6143 9cbe 3677 f3be a72e 6cbe
00000190: afb5 d73e 515e 833e e975 eb3d f2b8 213c
000001a0: 18c6 3b3e 8842 9ebe 175b ddbd 82d3 2abe
000001b0: 8bb2 d33e 56e4 4fbd 0539 df3e b9e6 91be
000001c0: b077 1c3e 68a8 583e 25ab d33e 8d04 dfbe
000001d0: 8981 a83e c2ae 6bbe 6a85 f63e ab1f 8a3e

classify.bias f4 [6]
0.2184867 0.14628865 0.031105936 0.22733855 0.09494037 0.124404915
00000000: faba 5f3e b1cc 153e e0d1 fe3c 70cb 683e
00000010: 1970 c23d 01c8 fe3d
