model.pth (torch, 12974 bytes, 7 tensors)

embedding.weight f4 [13, 30]
00000000: 7414 ae3f 9854 5fbf dbe2 b93f 4457 1440
00000010: 23a3 acbe 438d 74bf 5cc3 6b3f b8cb 0bbf
00000020: 2721 e3be 19f1 a0be 2ba0 c0bf 85af 6f3f
00000030: 87b5 6a3f 7f42 4e3f 8195 dbbf 55a8 3d40
00000040: bad0 95be 6c82 263f f3a8 a7bd 58c5 c0bd
00000050: 8777 01be c1be 6b3f ba71 bd3e b608 233f
00000060: d909 56bf 1e0b 30be 2590 2fbf f311 d73e
00000070: 7495 3cbf dbe3 28bf 9837 de3f e464 61bf
00000080: 6b80 a0bd 528a 95be da69 d2bd 59f1 15bf
00000090: 6c6c 34bf 8812 45bf bf74 7e3f 6cf6 28c0
000000a0: 57b7 7c3f 9fe7 de3d f99c 3dbf 71eb 7bbf
000000b0: 1656 0b3f 380b d8be 2076 363e 4c48 563f
000000c0: 3adf 94be a415 ca3e 168a acbf 8dd6 52bf
000000d0: e42f 24bf bd3f 17be 39d1 d43f bd56 fe3f
000000e0: 094a b5bf 28f3 a13f 5b80 77bf 0d5d d9be
000000f0: 5c70 5e3f 0b9b 733e 9755 463f 538c fdbe
00000100: 00bd 5e3d 5479 eb3e 3170 143f b77a 96be
00000110: fa94 4f3f 0261 3b3f a707 84bf c22f 0940
00000120: a05a 763e 95dd 58be 40af 8cbe f0f6 cd3e
00000130: 3e2e 083e bc1a a4bc cc95 8dbe 293e 833f
00000140: eebf 4dbd cd30 f1be 243a 613d 837b 28bf
00000150: 1e69 e73e f5de 5d3f 12c7 22bf 465f 8cbf
00000160: fdde 20c0 73e9 6a3f 39b1 a5be 8bee a13f
00000170: 4936 8b3f aed2 7d3f 4763 8f3f b4a6 3140
00000180: d449 a9bf 3e6f b33e 7773 fcbd 00b8 f33f
00000190: 8bdf 3a3c d9cf ca3f 8021 43be 3ff2 1540
000001a0: 00a2 50bf 0cf5 bd3f 6971 5dbf fdca 3c3e
000001b0: 1f75 fbbf 3dbc 2b3f f8c4 88bf da49 943e
000001c0: a474 d5bd e9cb 3cbf b89c 203f 0e79 a03e
000001d0: 9eeb 4cbf 6056 b23f 154a 803f 6db9 cc3e
000001e0: f30c 08bf 481c 31be 6b91 213f a700 cebf
000001f0: b408 26bf 105f 92bf 1aeb 3bbd 5c67 0b3f
00000200: c99e 483f 440a 1bbf d0e7 3dbf fc6b 313d
00000210: 0b06 84be 0cf8 b43f 77d1 a23f 8ef0 37bf
00000220: f6f7 8abe 9a69 75be f9a7 ce3f 62ca 1f3f
00000230: 3d46 8d3e 8607 1ac0 c693 2cbf 2ea1 c4bf
00000240: 38f2 963f 9ad2 c6be 59ee 73bf 6446 f9be
00000250: f8ff aabf 824b ce3e fe75 6c3d 6cf0 933f
00000260: 6b37 113f 5190 7c3e 9178 aa3f 58d5 38bf
00000270: f40c dbbc 3308 dcbe 2d14 a43f b141 6f3d
00000280: ac1c 3abe 19ab c23e 2c15 a03f 61bc 3e3f
00000290: a141 00be 5384 76bf adae c0bd c588 2bbd
000002a0: 4deb f0be 904e d2be a4bf 87be 3cd0 e63e
000002b0: b026 35bf ae43 d1bd 03e6 2140 c039 96bf
000002c0: 3068 bc3e 556e 9dbf 6de4 cd3f 4ca3 92bf
000002d0: 6619 323f 81a0 023d 2f26 613f c380 17bd
000002e0: 739e 183f f9fe 23c0 7919 033f 1748 7c3f
000002f0: 6533 363f 7484 433f 3658 c63f fa58 d03f
00000300: 6ad8 a43f 3d1f 18bf 568f 9fbd dab3 0240
00000310: 1ce1 75bf 8f43 56bd 2532 873f e280 843f
00000320: 284e 1bbf 0173 3bbe 0224 44bf 2323 433f
00000330: 1f4c e73f 9738 903f a0bd 943d 9593 03be
00000340: 8ba3 483f 1562 35bf 2b0c 05c0 e8e8 883e
00000350: 9c56 0cbf 7953 21bf e4c7 30bf b159 cebd
00000360: 1b48 e3bf f6db cebd d5ad ce3f 72ac c9bf
00000370: 97a8 683e 6a0a 213f 0063 3840 b92f d3be
00000380: 686c 293d 42f5 c6be aa0f d43f 3337 bd3e
00000390: 3180 813f 93a9 2b3f 229a 263f aa82 5abf
000003a0: 7982 333e 1873 08c0 2eef fe3f f9b0 20be
000003b0: c4b9 6a3e fa8b 21bf 5df9 ea3f dd42 56bf
000003c0: 89dc 58bf 0ce3 b6be e2f2 d8be 31a2 b0be
000003d0: 6c7b 013f 7a46 053f 237a 7c3f a18e d93f
000003e0: 3559 96be 4ff0 333f c8de 57bf 12f8 7cbe
000003f0: e3eb 2c3f fe95 7a3f ca64 c0bf f4b3 7e3f
1.3599992 -0.87238455 1.4522356 2.3178263 -0.33718213 -0.9552805 0.9209497 -0.54607725
-0.4436123 -0.31433943 -1.5048879 0.93627197 0.9168324 0.80570215 -1.7155 2.9633992
-0.29260808 0.6504276 -0.081865214 -0.0941264 -0.12643252 0.9208794 0.3700083 0.63685167
-0.83608776 -0.17191741 -0.6857932 0.42005882 -0.7366555 -0.6597268 1.7360716 -0.8804457
-0.07836994 -0.29207093 -0.10274096 -0.5857139 -0.7047794 -0.769814 0.9939689 -2.6400404
0.98717254 0.10884022 -0.74067646 -0.9840613 0.5442823 -0.4219606 0.17818499 0.83704066
-0.29076558 0.39469635 -1.347964 -0.8235863 -0.64135575 -0.14770408 1.662635 1.987022
-1.4163219 1.265233 -0.9668023 -0.42453805 0.86890197 0.23789613 0.7747435 -0.4952112
0.054379463 0.45991004 0.5798369 -0.293905 0.81086695 0.731949 -1.0314835 2.14354
0.24058008 -0.21178277 -0.27477455 0.4022746 0.1329889 -0.02003228 -0.27653348 1.0253345
-0.050231867 -0.47107545 0.054987088 -0.65813464 0.45197386 0.8666833 -0.6358501 -1.0966575
-2.5136101 0.91762465 -0.32361773 1.2650923 1.0875942 0.99149597 1.1202172 2.7757998
-1.3225656 0.3504581 -0.12326711 1.9040527 0.011405836 1.584468 -0.19055748 2.3429105
-0.8149719 1.4840407 -0.86501175 0.18436809 -1.9645118 0.67084104 -1.068511 0.28962594
-0.10422638 -0.7374864 0.62739134 0.31342357 -0.80047023 1.393261 1.0022608 0.3998522
-0.5314476 -0.17295945 0.63112515 -1.6093949 -0.6485703 -1.1435261 -0.045878507 0.5445459
0.78367287 -0.6056254 -0.7418184 0.043315873 -0.2578586 1.4138198 1.2720174 -0.7185143
-0.27142304 -0.23966065 1.6145011 0.62418187 0.2759265 -2.4067092 -0.67412984 -1.5361688
1.1792669 -0.3883255 -0.95285565 -0.48686516 -1.3359365 0.40291983 0.057729714 1.1557746
0.56725186 0.24664427 1.3318044 -0.72200537 -0.026739575 -0.42975006 1.2818657 0.058412258
-0.18175 0.38021162 1.2506461 0.74506193 -0.12525035 -0.9629566 -0.09408317 -0.04187848
-0.4705452 -0.41075563 -0.26513398 0.45080745 -0.7076216 -0.10217987 2.5296638 -1.1736374
0.3679824 -1.2299296 1.6085335 -1.1456084 0.69570005 0.03189135 0.8794889 -0.03698803
0.59616774 -2.5624373 0.51210743 0.985475 0.7117217 0.7637398 1.549567 1.6277153
1.2878544 -0.59422666 -0.07791011 2.0422273 -0.96046615 -0.052310523 1.0562178 1.0351832
-0.6066613 -0.1830559 -0.76617444 0.7622549 1.8070105 1.126727 0.072627306 -0.12849267
0.78374547 -0.70852786 -2.0788677 0.26740193 -0.54819655 -0.63017994 -0.6905501 -0.10075701
-1.775638 -0.10100548 1.6146799 -1.5755751 0.22720562 0.62906516 2.8810425 -0.41247347
0.04136315 -0.38858992 1.656728 0.36956176 1.0117246 0.67055625 0.6507894 -0.8535563
0.1753024 -2.1320248 1.9916742 -0.1569251 0.22922426 -0.6310421 1.835735 -0.83695775
-0.8471151 -0.35720098 -0.42372805 -0.34498742 0.5057895 0.52060664 0.98623866 1.6996652
-0.29364935 0.70288557 -0.8432431 -0.24704006 0.67547435 0.9788512 -1.5030758 0.99493337

rnn.weight_ih_l0 f4 [30, 30]
00000000: 3efd 87be 9200 c03d 3830 1d3e 9c8e 833d
00000010: 59d9 6c3c bc1f 063d 10b3 893e 4e5c 4b3d
00000020: cfff 1abe e01c cb3d 67bd 0cbe 141d 023e
00000030: e17a 0c3e e20f 27bc d0b7 abbd 3ead dd3d
00000040: b459 66be 2c35 5bbe ce46 a73d 16fe 033e
00000050: b92a 783d a6b5 0ebe 6ad0 b3bc 8da5 61be
00000060: 6658 48bd d505 ccbc 893a 193e 8b5a 8ebc
00000070: 4d12 3a3e 160a d23c 1aad 89be 5bd9 4e3d
00000080: bb1d 5c3e 0aae d9bd 959e 7ebd a243 a63a
00000090: 8708 d93c 3ed3 1bbc d797 0abe 4a34 2f3e
000000a0: 93b2 353d 6448 3a3d f859 b33d 44c6 9abc
000000b0: 5b4f 27bd bcba 113d e579 25be 81ad 29bd
000000c0: 3660 92bc 337b b23d a559 723e 010d dd3c
000000d0: c807 d73c f399 073e 04ac aebd 9782 95be
000000e0: e826 b63d 71c2 5abe f88f 9cbd 32c1 953d
000000f0: ccd9 c9bc 49a4 cd3d 4e77 bfbd 9f33 2c3e
00000100: e3f7 763d c54a 71bd dbfb 263d 9e80 5d3d
00000110: a4a9 513e 1b67 3a3e 82c4 3a3c e853 ddbd
00000120: c13c 8fbd a93b 083d 7cf4 c63d b0ca f83c
00000130: 64e3 b2bc 6b2d 5fbe 3b50 c63d 7642 eb3d
00000140: 9a00 0f3e f956 5dbd 32e3 a33d 8bf4 463d
00000150: 1f5a d5bd 3357 70be 5b53 76bc 3266 3e3d
00000160: 084f 163d 7eec ae3d b143 14be c0a1 203d
00000170: 7409 b9bd 1ec2 093e a855 063d fed9 aebd
00000180: c07b 263d a9fa f1bd 6ef0 03be 0ec5 283e
00000190: 4d58 2cbd d44d 8ebd 04b5 193e 30a6 5bbd
000001a0: 207b 043d a74d 71bd 1715 593d 7648 e1bd
000001b0: ce9c 943d 1ad2 48bd a1aa b8bd 6e31 66bd
000001c0: 5256 2ebb 7e05 8dbd 7dd7 96bd 8ee6 17bc
000001d0: 3627 163e 7688 a43d f57b 08be ddd1 733d
000001e0: 1a48 04be e246 e73d 050b 89bd 4fec 10bd
000001f0: 6e61 bfbc 3014 96bd 0c35 333e e352 7c3b
00000200: 4b03 1ebe d4ef 363e 88d5 21be 9cac 0a3e
00000210: f1f5 d23c 6afb f03d c2c0 1e3d 81d6 a13c
00000220: e5ea 9f3d a956 3cbe b86b 0b3e b736 05bd
00000230: e185 3e3e 22be 1e3e 8002 a63d 59d0 513c
00000240: ca9d 12bd e207 38bd 0598 9d3d a732 05be
00000250: c500 ea3d e162 3f3e c095 8c3d ce87 4cbd
00000260: bdb9 e23d d3d8 ccbd 8df8 623d c6ce 95bc
00000270: d10d 0ebe 77e8 b2bd aab0 0b3e fea3 a8be
00000280: dbae 143e a670 21be d54a 8abe 6bd9 bebd
00000290: cff7 60bd 0a2b f5bd bfbf b63d 6fa2 193c
000002a0: 5679 4ebe c1ba 8ebd 11d7 7abe 6764 16be
000002b0: 57da c03d 2664 4d3e 2639 97bb 85e7 fd3d
000002c0: 924e 4bbb b0f3 063e 1dc4 39bd cf6c 3bbd
000002d0: 0f76 13be 7150 1a3b a026 83bc 8e75 d53c
000002e0: 94b6 9ebd f952 dbbd 412d 66bd d3fd bb3d
000002f0: e3cf c7bd 08d4 b83d 49eb 823c 3f07 033e
00000300: 6d6d 943d 3036 b83d 3b17 f4bc aae7 8fbd
00000310: 0495 ecbb 2626 f0bd af0e 03bd c669 cb3b
00000320: a61b 1ebc 12cf 18bc 5ef6 e0bd a052 fd3d
00000330: 2462 3fbe 9a4b d8bd fefe 233d a79d 0fbe
00000340: 4110 a23d e2c7 263e 6dfe 8c3d 0236 333d
00000350: 9da6 f2bd 3666 0dbe 30d8 86bd 7d34 bb3c
00000360: f13e d5bd f018 84be 8445 12be 3424 56be
00000370: fc71 7d3e 4805 dcbd 25c6 1dbe 64fa 653d
00000380: 2211 843c f232 523d 85be 213e d369 f53c
00000390: 9801 babc 79a4 993d 93df 6dbe 498f 4e3d
000003a0: d813 bbbd 8e34 41bd 464b 6fbb 4b13 213e
000003b0: 130a c9bd dde4 733d be6a d7bd c3e8 98bd
000003c0: ed28 39bd e975 8cbd 00ef b43c d009 c8bc
000003d0: 2b08 dfbc 8af3 983b 27a0 84bd 75f4 c9bd
000003e0: bb8d 5a3c d537 9b3d aa45 cd3c 5356 01be
000003f0: 976c f23d 9207 473d c5fd c93d 84b6 7cbd
-0.26560396 0.09375109 0.15350425 0.06423685 0.014456117 0.032745108 0.26894426 0.049648575
-0.15136646 0.09917617 -0.13744126 0.12706405 0.1371875 -0.010196658 -0.08384669 0.10824059
-0.22495157 -0.21407002 0.08167802 0.12889895 0.06058762 -0.13936481 -0.021949966 -0.22035809
-0.04891243 -0.024905125 0.14963736 -0.017377159 0.18171044 0.025639575 -0.2688988 0.050500255
0.21495716 -0.106288984 -0.062162954 0.0012684951 0.026493324 -0.009510813 -0.13534485 0.1710979
0.044359755 0.045479193 0.087573946 -0.018893369 -0.040847164 0.035578474 -0.1615978 -0.04142523
-0.017868143 0.08714905 0.23667009 0.02698374 0.026248828 0.1324232 -0.08528903 -0.29201195
0.088941395 -0.21363236 -0.07644647 0.0731224 -0.024639986 0.100411005 -0.093489274 0.16816567
0.060294997 -0.058909196 0.04076753 0.054077737 0.20474869 0.18203394 0.01139939 -0.108070195
-0.0699401 0.03326002 0.097146004 0.030370086 -0.021836944 -0.2179467 0.096832715 0.11487286
0.13965073 -0.05403802 0.080023184 0.048573058 -0.1041758 -0.23470764 -0.015034522 0.04648418
0.036696464 0.08541201 -0.14478947 0.039216757 -0.09035006 0.13452956 0.032796532 -0.085376725
0.04064536 -0.11815388 -0.12884685 0.1648142 -0.042076398 -0.06948438 0.15010458 -0.053625286
0.032343984 -0.058911946 0.05299863 -0.11000149 0.072564706 -0.049028493 -0.0901692 -0.056199484
-0.0026601744 -0.06885813 -0.0736532 -0.009271277 0.14663395 0.0803384 -0.13328536 0.059526313
-0.1291813 0.11292817 -0.06691555 -0.03538161 -0.023361888 -0.07328069 0.17500705 0.0038501553
-0.15430944 0.17864925 -0.15804112 0.13542408 0.02575204 0.117667034 0.038758047 0.019755604
0.078084745 -0.18392433 0.1361531 -0.032522883 0.18605758 0.15502217 0.081059456 0.012806022
-0.03579501 -0.044929393 0.07695011 -0.13007604 0.11425928 0.18690063 0.068645 -0.0499342
0.11070583 -0.100022934 0.055412818 -0.018287074 -0.13872458 -0.087357454 0.1364161 -0.32937616
0.14519827 -0.15765628 -0.27010217 -0.09318813 -0.05492383 -0.119711 0.089232914 0.009377106
-0.20163473 -0.06969214 -0.24496104 -0.14686738 0.09416645 0.20057735 -0.004614967 0.123976745
-0.0031022173 0.13178897 -0.045353044 -0.045758065 -0.14400505 0.0023546482 -0.016009629 0.026057031
-0.07749668 -0.10709185 -0.0561955 0.091792725 -0.09756448 0.09024817 0.015981333 0.12795733
0.07247434 0.089947104 -0.029796233 -0.07026608 -0.0072199125 -0.11726026 -0.031996425 0.0062076775
-0.009650147 -0.009326713 -0.10984491 0.12369275 -0.18689781 -0.10561295 0.0400381 -0.14024983
0.079132564 0.16287187 0.06884465 0.043752678 -0.11848185 -0.13808522 -0.06584203 0.022852177
-0.10412396 -0.25800276 -0.1428433 -0.20912248 0.24750513 -0.10743195 -0.15407617 0.056146994
0.01612145 0.051318116 0.15795334 0.029957687 -0.022705838 0.07502074 -0.23229818 0.050429616
-0.09134644 -0.04716926 -0.0036513372 0.15730016 -0.09816375 0.059544433 -0.10518406 -0.07466271
-0.045205045 -0.06858427 0.02208662 -0.024418741 -0.027225574 0.004667704 -0.06475859 -0.098610796
0.013339455 0.075790085 0.025057632 -0.12630586 0.11837118 0.048591204 0.09862856 -0.061697498

rnn.weight_hh_l0 f4 [30, 30]
00000000: 6422 1e3d d68d a5bc c461 bd3d 8d3d 2b3e
00000010: 1bcd 853c aeda 69be 9a22 71be 8ead 423e
00000020: 6d51 63be 2032 01be a01d 7fbe 0325 273e
00000030: e997 23be 419e 073d ad9d 04be 185f 5abe
00000040: ac08 a43d d888 67be 24b4 a0bd 8c44 aabe
00000050: 7320 f4bd 6a5f 01be ce15 913d 6d12 a6bd
00000060: 8261 f4bb 7d9c 973e 1789 183d 0472 773e
00000070: 8c56 ca3e 5d77 1e3e 9486 613e 79d0 0b3e
00000080: b179 6d3e 1118 943e 7374 d53c dc63 6abd
00000090: 1cc6 81bd 455b a83d 0485 cabd bd7e 3d3e
000000a0: 2423 7ebd f381 0d3e 665f 203e c38f 99be
000000b0: 4ee1 293e 7743 8ebe 55ac 30be 9ce1 06be
000000c0: 5487 af3d de6a f3bc e4eb 87bd cfe3 4e3e
000000d0: 7671 003e 387a 593e 9373 22be e88a c73e
000000e0: a0b1 e73d f0c3 36bd f23e 173d 3448 53be
000000f0: cf50 d7be f5a0 c0bd c120 00be abc5 d83a
00000100: 4ceb c7bb d61c a83e 05de 5ebc c483 31bd
00000110: 0a30 023d 7469 983e afd9 243e 442f 3fbc
00000120: 5b93 08be 244f bc3e 3ff8 fb3c 86e0 5b3e
00000130: 9e77 90be 3412 0f3e 4361 a1be fcf7 8dbd
00000140: 7dbc f5bc 9eef 87be c162 a73e 6bc7 97be
00000150: d484 b7bc c2c5 56bd 8891 f23d 166a 223e
00000160: 5196 d03c 8115 9fbd 9565 7cbe f0da 73be
00000170: 6a16 48be 738f 0fbe deae 3bbe d0b4 5b3e
00000180: 2c61 33be dce2 1ebe 562d d43d 1232 dcbb
00000190: 8c25 c03e a295 16be a17f 113d 067c b33e
000001a0: aa22 c93d 853a 5c3e 8271 0bbe 27d1 09bc
000001b0: a2fe 05be e08f 74bd b9d4 9c3d 706f 5bbe
000001c0: daca 923d 0b49 7bbc cd34 2d3d aa59 4abe
000001d0: 6716 ed3d 972c b8bd a04e a6bc 8cef 0bbe
000001e0: 6a24 a4bd 019b 8a3e b75f 873e 5216 203c
000001f0: 156f f8bd c7a3 8abe 7dcb 6e3c 68a5 843e
00000200: 1b8a 28be 2000 563e 55ab 8abe 4807 a23e
00000210: dea8 883e 352b 83be ac3e 5f3d 2831 5abd
00000220: d6a3 3c3e 22d1 0cbd 6a27 1dbd f780 92be
00000230: d909 d0bc b273 633d 48f9 11be 6af3 bb3e
00000240: db9d 3a3e b1c9 993e 5180 5f3c 4fed 40be
00000250: 53c2 763e b751 32be 812e 77bd 9dd2 08bd
00000260: 93c8 2d3d a5c6 3f3e a45e 3fbe b444 49bc
00000270: 74aa c23e 2ad6 59be f092 3a3d a9ea c4bd
00000280: 394a 943e d84d eabe 897a 52be 2279 a23d
00000290: 1fb5 043c 2b5b 32be e1b4 0d3e 3750 8e3d
000002a0: 558c 4b3e f616 513e 893c 19be 9ab8 3d3e
000002b0: a2c0 1cbe 9317 07be 29c8 863d 05ba 98be
000002c0: 1419 30be b7e4 a1bc c7d8 08be 441f 853e
000002d0: 2f1f 1d3e 65d0 5cbe ca68 1cbd 9580 7ebc
000002e0: 61ca acbe 30a7 313e 6af8 0dbd 2580 9bbd
000002f0: 8df8 b1be 8c3b 77be 61cd fc3d df3b 4dbe
00000300: 522b 28be 7baf 9ebd a3b5 93be 162a d5bd
00000310: 8a35 8f3e 8dd9 10be 975d ca3e 55a8 3abe
00000320: 9cd0 663e 087b b43c 51db b2bd 7674 363e
00000330: 993c f03d e250 3a3c 0c3f 4a3e 0daf b63e
00000340: 521f f7bd 5f9f c73e a844 473d 3726 22be
00000350: fad3 683e faf3 8c3e 9fb0 24bd 3fbf 46be
00000360: b605 c83d 2c94 1dbe 781a 1fbe 5452 823e
00000370: 4b09 51be 783e 043d 9032 acbd f8ad d0bd
00000380: 3703 a8bc c3b2 82bd fc43 a03d 3d43 95be
00000390: 1426 813d 46dd 9a3d 7baf 233e 43e1 6dbe
000003a0: 8d24 c93e acc2 0dbe 9a8a 92be 5521 9f3e
000003b0: b74b 823d c5c8 833d 8b2b 3b3e 53e0 3b3a
000003c0: 9245 963e 630d ba3e dfde 3d3d 96b7 31be
000003d0: 4b9f 9b3e f411 dbbc aacc 67bc c62b 17be
000003e0: 1e0c 3b3e a960 a2bc b322 d03d 4595 8bbc
000003f0: 6d08 8e3e 77fc a0be 0759 1dbe 59b5 74be
0.038607016 -0.020209234 0.09247163 0.16722699 0.016333153 -0.22837326 -0.23548356 0.19011518
-0.2219903 -0.12616777 -0.24913645 0.16322713 -0.15975918 0.033109907 -0.12950774 -0.21325338
0.080094665 -0.22610795 -0.07846859 -0.33255422 -0.11920252 -0.12634054 0.07084237 -0.08108983
-0.007457913 0.2961158 0.037240114 0.24164587 0.39519155 0.15475221 0.22023994 0.13653745
0.23190953 0.2892461 0.026056504 -0.05722414 -0.063366145 0.08220533 -0.09888652 0.18505378
-0.06204523 0.13819103 0.15661392 -0.29992494 0.16589853 -0.27785847 -0.1725324 -0.13172
0.08570734 -0.029714044 -0.066367894 0.2020409 0.12543282 0.21238029 -0.158644 0.38973165
0.11313176 -0.044620454 0.036925264 -0.20633012 -0.4205384 -0.094057 -0.12512495 0.0016538402
-0.0061010476 0.328345 -0.013602738 -0.043338552 0.031784095 0.29767954 0.16098665 -0.011668984
-0.13337462 0.3677913 0.030758021 0.21472368 -0.2821626 0.13971788 -0.31519517 -0.06932065
-0.029997105 -0.2655 0.3269253 -0.2964433 -0.022402205 -0.05243469 0.11844164 0.15860781
0.025462301 -0.077677734 -0.24648125 -0.23813987 -0.195398 -0.14019565 -0.18328425 0.21455693
-0.17517537 -0.15516227 0.1036021 -0.006719836 0.37528646 -0.14705518 0.035522107 0.3505556
0.09821065 0.21506698 -0.13617519 -0.008411682 -0.13085416 -0.059707522 0.07657761 -0.21429229
0.07167597 -0.015337239 0.042286683 -0.19760767 0.115765385 -0.0899288 -0.020301163 -0.13665599
-0.08014758 0.27071384 0.26440212 0.009770947 -0.12130562 -0.27078077 0.014574883 0.25907445
-0.16458933 0.20898485 -0.2708384 0.3164618 0.26691335 -0.25618902 0.054503128 -0.053269535
0.18421873 -0.034379132 -0.038367666 -0.28614017 -0.02539532 0.055530258 -0.1425525 0.36709148
0.1822428 0.3003669 0.013641433 -0.18840526 0.24097566 -0.17413984 -0.060347084 -0.03340398
0.04242761 0.1872812 -0.18688446 -0.0122844465 0.3802067 -0.21273103 0.045550287 -0.096150704
0.28962877 -0.45762515 -0.20554556 0.079332605 0.008099823 -0.1741759 0.13838531 0.069488935
0.19877751 0.20418915 -0.14964499 0.18527451 -0.15307859 -0.13192587 0.06581146 -0.29829422
-0.17197067 -0.01976238 -0.13363944 0.26000416 0.15343927 -0.21563871 -0.038185872 -0.015533586
-0.33748153 0.17348933 -0.034660734 -0.07592801 -0.34759942 -0.24143809 0.123438604 -0.2004237
-0.16422775 -0.07748314 -0.28849515 -0.10408418 0.27970535 -0.14145489 0.39524528 -0.18228276
0.22540516 0.022031322 -0.087332375 0.17817864 0.11730308 0.011371823 0.19750613 0.35680428
-0.12066521 0.38988778 0.04864946 -0.1583489 0.22737113 0.2752989 -0.0402075 -0.19408892
0.09766714 -0.15388554 -0.15537441 0.25453436 -0.20413701 0.032286137 -0.084080815 -0.10189432
-0.020509345 -0.06381752 0.07825467 -0.2915286 0.06306091 0.07561736 0.15984909 -0.23230462
0.392857 -0.13843793 -0.2862137 0.31080118 0.06362098 0.06434778 0.18278329 0.0007166911
0.29349953 0.36338338 0.046355125 -0.17355189 0.30394968 -0.02674196 -0.014147917 -0.14762792
0.18266341 -0.019821482 0.10162868 -0.01703895 0.27740803 -0.31442615 -0.15365992 -0.23897304

rnn.bias_ih_l0 f4 [30]
00000000: e31f 99bc 9b44 993d 93e1 393d 9eb6 4cbb
00000010: f9a7 1dbe b132 ef3d 6502 f43c 3e88 10bd
00000020: 08a9 c6bd 80b1 0cbd 69cd 443d 2a3d 093e
00000030: 85b8 cf3c e698 b1bd 5ee8 b03d 6ad4 e5bd
00000040: cc7a 2e3e 79cd 16bd c616 f1bd 2c11 3abe
00000050: a264 30be b2f6 d6bd c1b5 dc3b 1cae c53c
00000060: fd66 183d 8376 553d b0f8 ec3d 3f75 d9bd
00000070: 0db3 013e 1299 ff3d
-0.018691963 0.074837886 0.04538114 -0.0031236778 -0.15396108 0.116795905 0.029786298 -0.03528618
-0.09700209 -0.034348965 0.048047457 0.13402238 0.02535654 -0.08671741 0.086380705 -0.112221554
0.17039031 -0.036817048 -0.11771922 -0.18170613 -0.17225888 -0.10496272 0.006735534 0.024130873
0.037207592 0.052114975 0.11570871 -0.10618066 0.12665959 0.12480368

rnn.bias_hh_l0 f4 [30]
00000000: 4cce 373c f3f6 d43d 327b c4bd 0806 123e
00000010: c9d6 babd 085a 8ebc 47ac 543d 8dfe 5ebd
00000020: b293 f13d 692a d33d 7629 063e c3b8 053b
00000030: 0d66 c1bd 062a 243e dc55 ae3c 640b 34be
00000040: faab a3bc f11d dc3b 15e8 bcbd 6305 213e
00000050: 66c9 4cbe dec9 7b3d f82e dfbc b598 4e3c
00000060: 4c38 82bd f9e8 4c3d 8aae 8d3c 7a29 b7bd
00000070: 9ec5 e43d 4a45 4c3d
0.011218619 0.10398664 -0.0959381 0.14260113 -0.09122998 -0.017376915 0.05192211 -0.054441977
0.11795749 0.103108235 0.13101754 0.0020404316 -0.09443293 0.16031656 0.021281175 -0.1758247
-0.019979466 0.0067174365 -0.09223954 0.15724711 -0.19998702 0.061471812 -0.027244076 0.01260965
-0.06358394 0.050026868 0.01729514 -0.08943458 0.11170505 0.049870767

classify.weight f4 [11, 30]
00000000: 972c e23d 6e23 813e 780a 813e 3273 1d3e
00000010: 5031 513e c775 81be b145 99be f2de 613e
00000020: 70e7 88be c090 00bd 5a46 a1be 165d 3c3e
00000030: 0868 913e 0147 61be 717d 0bbe ab08 51be
00000040: 2df9 543d 4cdf 5e3a 1650 a33e 96f8 f6bd
00000050: cb3b b13e e81a 983d 02ad cabe bc1b 883e
00000060: 893d ffbd d9d9 e73d 4158 a13e adfb e9bd
00000070: 0344 89bb 5b9b a0be aaac 95be 2c44 63bd
00000080: 603b ca3e 33d2 903e dd05 3ebe b825 a3be
00000090: e48d 79bd 6026 80be 4803 813e ee7c 963e
000000a0: 3e85 a6be fda9 933e 9236 253e f979 673e
000000b0: f6cc f53d 5e98 28be 1390 c4bd 2ef0 b8bd
000000c0: d97c a8be 8594 81bd 60a1 b7bc d02c 8cbe
000000d0: 4194 a63e 3385 acbd 5ba2 193e 1426 e83d
000000e0: e29c a63e 0923 5c3e 2254 063e 53f8 a4be
000000f0: e4cb 883d f43d 8c3d bb34 77be 1ee1 47be
00000100: 9a0d 523e 7742 36be 4525 9ebe a92f 3bbe
00000110: 2517 913e cf0d 913e db12 603d 417e 143e
00000120: 715e 093e dcc8 923e 5ad9 803e 3f6d ab3e
00000130: 48ed 10bd 681c 633e 2cbc aebe c459 c83e
00000140: fa08 01be f42d 92bd f848 353e a3f4 fabd
00000150: ac89 903e 2dfe 7dbe 569f 653e 5a27 91be
00000160: b320 9ebe aefd 99be 2a46 723d 563b 653e
00000170: 01c8 95be 2f11 b6be 1f93 ab3e 46ca 68be
00000180: d69e 943e 1fa5 b73e 7ba3 1fbd 3a18 7c3e
00000190: 64bc 71be 48cb 973e 9000 4d3e 4040 5fbe
000001a0: 71d9 bcbd fb02 68be a1b8 c63e 93a8 c43e
000001b0: fd53 afbe caa4 523e 1896 2cbe 8753 eb3d
000001c0: 82f7 05be 8eaa e13d 7ae4 52bd 7b5d 82be
000001d0: 13c7 8abe a257 a1bd a752 7b3e 9666 1b3d
000001e0: b85f c83d d29d 233e e4b8 a63e b699 a03e
000001f0: 720c 39be 1870 40bd f063 c73d dc8f 943c
00000200: 20f0 a5be f475 c13e a0f8 80be 8183 6d3e
00000210: 3ae0 7fbe c076 62be ceba 64be 266b d6bd
00000220: 1af4 8f3e 2a54 30be 5d3b be3e 3e29 503d
00000230: caf4 5e3e fd91 84be 2de9 df3e 4746 023e
00000240: 39be 3fbe ad61 873e a7ff d9bd d3a4 c6bb
00000250: afa5 7f3e 4c0f 7b3e abc0 96be 4f4f a7be
00000260: c28e 503e 92f3 cc3d 2239 b4bd 2e94 b63e
00000270: d667 88be 367c 873d 59af 5bbe d165 223e
00000280: 3b67 b23e 6ccc bebe b369 773d 40b2 863e
00000290: 3a49 5b3e bb3c bb3c d8d7 5fbe 1d79 49be
000002a0: cfd6 6d3e 7f90 ae3c 496e e7bd c652 07be
000002b0: fdf5 b33e 344c 2dbe e10c bebe d286 af3e
000002c0: 770f 913d 9125 c03e ba33 6cbe 08d0 62be
000002d0: 730f 51be a72b 533d 5fcb 96be aa7b 71bd
000002e0: 8b8a 4fbd da8d a33e 302e dd3e dd83 2fbe
000002f0: 0e8b 373e 6a45 8b3e f4cc bf3e 829c 62be
00000300: 106c 63be 415d 433e a801 9e3e 30cf 303e
00000310: 40dc 69be 70f1 b43e e5cd fbbc f841 a03e
00000320: 5962 5c3d 0f2b 74be 07f0 b03e 74a3 85be
00000330: 6960 afbe 231e a1be 363e c8be 5327 6dbe
00000340: cb10 b2bd 865e 9c3d ec50 d53d bf52 093d
00000350: ac99 4dbe e392 04be bea2 fcbd ce6e c03e
00000360: d65e b13e b78a cc3c 7a15 81be ce8b c23d
00000370: a618 823e b7c5 55be 036b 29be 0daf 26bd
00000380: 1503 9cbe de59 90be e5b5 973e 413c bf3e
00000390: d5af 443e 3051 7e3e d229 b93c 6c2f 9a3e
000003a0: 8d8e 11be e4f3 a93e f0f2 833e 2b20 d7bd
000003b0: f748 86be 1fae cbbd 7166 bbbe cd3c 873e
000003c0: 64e0 8e3e ecf0 adbe b9b0 a03e d318 933e
000003d0: e685 e03d 7bb3 80be 9bcf 8a3e ee72 f7bd
000003e0: ed3e 8cbe 324c 60be 8f8d 69bd 5377 37be
000003f0: e60c 96be 6d82 8b3e e6ce 71be 40ab 44be
0.11043661 0.25222343 0.252033 0.15375975 0.20428967 -0.2528517 -0.29935983 0.22057703
-0.26739073 -0.031388044 -0.31498986 0.18394884 0.28399682 -0.21999742 -0.13622071 -0.20413463
0.051995445 0.0008501902 0.31897038 -0.12059133 0.3461593 0.07427007 -0.3958512 0.2658366
-0.12462909 0.11320848 0.31512645 -0.114249565 -0.004189016 -0.31368527 -0.29233295 -0.055484936
0.39498425 0.2828537 -0.18556924 -0.31864715 -0.060926333 -0.25029278 0.25197816 0.2939219
-0.3252353 0.28840628 0.16134098 0.22605123 0.12001984 -0.16464373 -0.095977925 -0.09030186
-0.3290775 -0.06327156 -0.022415817 -0.2737794 0.32534984 -0.08423843 0.1500334 0.11335388
0.32541567 0.2149774 0.13118032 -0.32220706 0.06679514 0.06847754 -0.24141209 -0.19519469
0.20513001 -0.17798792 -0.3088781 -0.182799 0.2833797 0.28330848 0.054705482 0.14501287
0.13414933 0.2866887 0.25165826 0.33481786 -0.03538254 0.22178805 -0.3412794 0.39130986
-0.1260108 -0.07137671 0.17703617 -0.12253692 0.28230035 -0.24803992 0.22424063 -0.28350335
-0.30884323 -0.30076355 0.059148945 0.22385916 -0.29254153 -0.35559985 0.33510682 -0.22733411
0.29027432 0.35868165 -0.038974266 0.24618617 -0.23607022 0.2964728 0.20019746 -0.21801853
-0.09221161 -0.22657387 0.38812736 0.38409862 -0.34243765 0.20570675 -0.16854131 0.11490541
-0.13082698 0.11018859 -0.051487423 -0.25461945 -0.27105007 -0.07878043 0.24543248 0.03793963
0.09783882 0.15978172 0.32562935 0.31367272 -0.18071154 -0.0469819 0.097358584 0.018135004
-0.32409763 0.37785304 -0.25189686 0.23194696 -0.2498788 -0.22115612 -0.22336885 -0.10469656
0.28115922 -0.17219606 0.37154666 0.05082058 0.21773067 -0.2589263 0.43732587 0.12722121
-0.18724908 0.26441708 -0.10644465 -0.006062129 0.24965547 0.24517554 -0.2944387 -0.32677695
0.20366958 0.10007395 -0.0879996 0.35659927 -0.2664172 0.06615488 -0.21453609 0.15859152
0.34844384 -0.37265337 0.060403537 0.2630787 0.21414652 0.022856107 -0.21859682 -0.19675107
0.23226474 0.021309135 -0.11300332 -0.1321517 0.35148612 -0.169236 -0.371192 0.34282547
0.07083028 0.3752866 -0.23066607 -0.2214967 -0.2041605 0.051555302 -0.29452035 -0.058955826
-0.050669234 0.31944162 0.431993 -0.17140146 0.17924139 0.27201396 0.37461054 -0.22130015
-0.22209191 0.19078542 0.3086064 0.17266536 -0.22837925 0.35340452 -0.030737827 0.3130033
0.05380473 -0.2384455 0.34558126 -0.26101267 -0.34253243 -0.31468305 -0.39109963 -0.23159532
-0.08694609 0.076352164 0.10415825 0.03352618 -0.20078152 -0.12946658 -0.12335728 0.37584537
0.34642667 0.024968488 -0.25211698 0.09499322 0.2540943 -0.20876203 -0.16544728 -0.040694285
-0.304711 -0.28193563 0.29630962 0.37350658 0.192077 0.24835658 0.02260295 0.30114305
-0.14214535 0.33193886 0.25771284 -0.105041824 -0.26227543 -0.0994532 -0.36601594 0.26413575
0.2790557 -0.3397287 0.3138483 0.28729877 0.10963039 -0.25136933 0.27111515 -0.12082468
-0.2739176 -0.21904066 -0.057019766 -0.17916612 -0.29306716 0.27247944 -0.23614082 -0.19205952

classify.bias f4 [11]
00000000: 2bd8 0f3e 048b 6b3d 6899 88bd 36cc 8e3c
00000010: 41b8 de3d ae98 aa3d 6e1f 28be 0968 ca3c
00000020: a264 02bc 1c83 5fbb 5704 2f3e
0.14047305 0.057505623 -0.06669885 0.01743136 0.108749874 0.083299026 -0.1641824 0.024707811
-0.007958563 -0.0034105247 0.170915
