pythonProject/week7 文本分类问题/nn_流水线/model.pt (torch, 1612 bytes, 2 tensors)

linear.weight f4 [5, 5]
00000000: 22d8 1c40 1c45 afbf be8f 92bf 244a 85bf
00000010: 4b24 87bf 4348 a7bf a7a4 0a40 d892 a0bf
00000020: 878f 8abf 4f16 52bf 7747 95bf c1c9 babf
00000030: 22db 2e40 e2ba 8bbf d738 71bf 9b6d a6bf
00000040: e3b2 aabf 0d05 98bf 9a87 1f40 a990 65bf
00000050: 5cd6 99bf 0a96 afbf 277f 8fbf c027 99bf
00000060: d44f 3540
2.4506917 -1.3692966 -1.1450117 -1.0413251 -1.0557951 -1.3068928 2.1662996 -1.2544813
-1.0825051 -0.8206529 -1.1662434 -1.459282 2.7321248 -1.0916407 -0.94227356 -1.3002199
-1.3335842 -1.1876541 2.4926515 -0.8967386 -1.2018542 -1.3717663 -1.1210679 -1.1965256
2.8329973

linear.bias f4 [5]
00000000: a575 1c3e 68e6 323e 968a a5bc 2d4d 383e
00000010: e864 ba3d
0.15279253 0.17470706 -0.020207684 0.1799819 0.091012776
