pythonProject/week2 深度学习基本原理/model22.pt (torch, 1624 bytes, 2 tensors)

linear1.weight f4 [5, 5]
000000 03 73 29 40 42 03 9a bf cd 91 9e bf e1 5a 86 bf
       2.6476448 -1.2032244 -1.2388245 -1.0496484
000010 28 1c 9c bf 89 f0 8a bf 2f b0 18 40 0a 9a 6e bf
       -1.2196093 -1.0854656 2.3857534 -0.93203795
000020 40 53 a9 bf d7 5b b3 bf a9 93 a1 bf be 33 95 bf
       -1.3228531 -1.4012402 -1.2623187 -1.1656415
000030 ed 68 30 40 48 d6 ae bf 3a 23 b4 bf 4e 1e 71 bf
       2.7564042 -1.3659143 -1.407325 -0.94186866
000040 3b 5c 90 bf 72 c4 65 bf 66 5c 20 40 be c6 a4 bf
       -1.1278147 -0.89752877 2.5056396 -1.2873151
000050 a5 87 74 bf 6a b3 9b bf 8e ac 82 bf 7a 59 87 bf
       -0.9551948 -1.2164128 -1.020891 -1.0574181
000060 57 4d 1a 40
       2.4109704

linear1.bias f4 [5]
000000 a9 b5 b4 bd 22 c6 89 3d 09 09 70 3d de 4b 64 be
       -0.088237114 0.06727244 0.058602367 -0.22294566
000010 f6 87 37 be
       -0.17922959
