pythonProject/week2 深度学习基本原理/model.pt (torch, 1612 bytes, 2 tensors)

linear.weight f4 [5, 5]
2.8297293 -1.1406273 -1.2969183 -1.4019464 -1.4206594 -1.1285408 2.8478713 -1.257807
-1.3067523 -1.249413 -1.346713 -1.1592427 2.7670803 -1.3803287 -1.1874613 -1.3170644
-1.1181664 -1.2546076 2.2973504 -1.2231014 -1.2521297 -1.2509334 -1.1357976 -1.4742519
2.7366319
00000000: 491a 3540 1300 92bf 6b01 a6bf fb72 b3bf
00000010: 2bd8 b5bf 0674 90bf 8643 3640 d2ff a0bf
00000020: a943 a7bf c4ec 9fbf 1761 acbf 1162 94bf
00000030: d817 3140 9cae b0bf bbfe 97bf 9195 a8bf
00000040: 1420 8fbf fb96 a0bf ca07 1340 968e 9cbf
00000050: c945 a0bf 961e a0bf d161 91bf 49b4 bcbf
00000060: fa24 2f40

linear.bias f4 [5]
0.113904044 -0.0041092373 0.051929113 0.28016436 0.12224003
00000000: 8646 e93d c8a6 86bb 9fb3 543d b471 8f3e
00000010: fb58 fa3d
