pythonProject/第三周/model.pth (torch, 12974 bytes, 7 tensors)

embedding.weight f4 [13, 30]
000000 66 58 cf 3f c0 40 2a 3e aa 1b 26 3e 6d d6 20 bf
       1.6198852 0.16626263 0.1622149 -0.6282719
000010 a2 83 48 bf 42 dc 3e b9 1a b7 a5 3f 9a b5 fc 3f
       -0.78325856 -0.00018201864 1.2946503 1.974292
000020 81 ff 8b 3f 30 6e 13 3e 82 41 5b bf d0 e2 8a bf
       1.0937349 0.14397502 -0.8564683 -1.0850468
000030 7e 58 8e bf b3 fc ba be ac e4 55 bf 7d 5b 2b 40
       -1.1120756 -0.3652092 -0.8355205 2.677459
000040 28 15 59 bc 36 b4 aa 3f 2f 36 92 be 88 de 4f 3e
       -0.013249673 1.3336246 -0.28556964 0.20299733
000050 a5 e8 b5 3f 61 45 13 40 24 46 35 bf 9c 98 2a bd
       1.4211622 2.3011096 -0.7081015 -0.041649446
000060 c1 7a d7 be ba 4b 2d bf 06 fd d9 3d f7 bf 9a bf
       -0.4208584 -0.67693675 0.106439635 -1.2089833
000070 f3 a8 ae 3f dc 94 0e bd 5d 1b 09 3f 8e ad c5 3f
       1.3645309 -0.034809932 0.5355738 1.544359
000080 36 61 af 3f 25 d5 9c bd 96 32 8f bd 30 a4 0f 3d
       1.3701541 -0.076578416 -0.069920704 0.03506869
000090 2a e2 97 3e e7 8b 80 bf 0f 29 fe 3f 38 77 4d 3f
       0.29664737 -1.0042695 1.985628 0.8026004
0000a0 56 e5 da bf 47 a7 78 3e 55 da 87 3f 26 3e ce bf
       -1.7101238 0.24282561 1.0613505 -1.6112716
0000b0 60 1f 0e bf ca a0 c3 bf a6 7b d8 3f 5f 0d 1d bf
       -0.55516624 -1.5283444 1.6912735 -0.6134853
0000c0 bd bf 22 c0 f6 fd 9e bf 44 78 26 3d 6a 0f e0 be
       -2.5429528 -1.2421253 0.040642038 -0.4376176
0000d0 f2 d0 98 3f 7c 91 0e 3e 28 2d 15 bf ac 68 de 3d
       1.1938765 0.13922685 -0.5827203 0.10859808
0000e0 38 40 44 bf 8d 4f d5 3d 6d cf c3 bf 7a 97 3d bf
       -0.7666049 0.10415564 -1.5297676 -0.7405926
0000f0 90 dd 8c 3e 3e 90 2f 3f a5 ab 8a bf df a0 b6 bf
       0.2751279 0.6857947 -1.0833632 -1.4267844
000100 5c b3 bc be cd 1b 83 bf aa 33 30 3f 34 5f 38 3f
       -0.3685559 -1.0242859 0.68828833 0.7202027
000110 4b e0 73 3d f1 8a 4f c0 2d 57 e3 3f d5 27 36 3f
       0.059540074 -3.2428553 1.7760979 0.7115453
000120 54 e0 de 3d 34 7e ae be 31 c2 13 40 38 3b d6 bf
       0.10882631 -0.3408066 2.3087275 -1.6736822
000130 5f a0 41 3f 89 b4 cb be 69 bc 8b bd cf c5 2d 3e
       0.7563533 -0.39786175 -0.06823046 0.16969989
000140 94 f8 19 bf 88 bc 24 3f 29 e1 f0 bd 8f d1 39 3f
       -0.60144925 0.64350176 -0.11761696 0.72585386
000150 ee ea 03 c0 59 94 0e 3f b7 20 4a 3e ce 2b 53 bc
       -2.061214 0.5569511 0.19739042 -0.012888862
000160 d8 97 96 3f 51 38 88 bf 57 f4 6f bf b2 f9 02 40
       1.1765089 -1.0642186 -0.9373221 2.0464902
000170 73 08 7a bf aa 84 18 3f a1 32 87 3e 14 20 09 3d
       -0.9766914 0.5957743 0.26405814 0.033477858
000180 19 23 72 be 49 51 0e be aa 94 16 bf 54 ee a9 3e
       -0.23646201 -0.13898195 -0.58820593 0.33189642
000190 56 20 2e bf 7f d0 bf bf 82 da 0f bf 02 07 ad 3e
       -0.6801809 -1.4985503 -0.5619279 0.3379441
0001a0 6b 3d 05 3f fd 82 e5 3e ae c9 cb be 84 82 0e 3f
       0.5204684 0.448265 -0.39802307 0.556679
0001b0 8c a7 37 3f a2 b9 96 be 71 03 6e 3e 14 f3 1b bf
       0.7174003 -0.29438502 0.232435 -0.6091778
0001c0 ec 38 48 bf ac 55 ce 3f aa 37 a0 3f b2 bc ca be
       -0.78211856 1.6119895 1.2516987 -0.39597088
0001d0 6b f4 e0 3e e6 8e 8c bf 42 63 83 bf 77 0f 8a 3f
       0.43936476 -1.0981109 -1.0264666 1.078597
0001e0 1c 2e 90 bf dc 36 01 bf 59 d0 bc bf 76 89 92 3f
       -1.1264071 -0.50474334 -1.4751083 1.14482
0001f0 fa 30 46 bf 11 53 e0 3e 87 56 dc bf c4 ca 80 3f
       -0.7741848 0.43813375 -1.7213906 1.0061879
000200 0d f3 f5 bd 24 b8 3f 3e 77 75 9b 3e e2 d0 b2 3c
       -0.12009249 0.18722588 0.30363056 0.021828119
000210 c2 06 33 be 62 03 82 bf 5d 39 4d 3b e0 1d 9d bf
       -0.17483047 -1.0157282 0.0031314709 -1.2274742
000220 39 94 a4 3e cd d3 92 3f ba 67 a5 3f 27 64 fe bf
       0.32144335 1.1470886 1.292228 -1.9874314
000230 7e ba 06 bf 8f 80 08 be 65 04 e2 3e 1b 7c 27 3f
       -0.52628314 -0.13330291 0.44143978 0.65423745
000240 73 2f 3f c0 67 c7 ac 3f de b3 02 c0 3f 1d f4 3c
       -2.987271 1.3498353 -2.0422282 0.029799102
000250 84 9d f4 bd 60 b1 4b bf 64 6e a0 3f 60 b0 46 bf
       -0.11944106 -0.7956753 1.2533689 -0.77612877
000260 a2 cb 8a 3e e4 77 b8 bf b1 21 1b c0 93 48 85 bf
       0.27108485 -1.4411588 -2.4239314 -1.0412773
000270 7c c5 7e 3f c4 63 a4 bf eb 23 46 be d8 1a 73 bf
       0.9952009 -1.2842946 -0.19349639 -0.94962835
000280 dd 83 48 3e 11 fe b1 3e 04 18 3c bf 18 af 71 3e
       0.19581552 0.3476415 -0.73474145 0.23601949
000290 a9 a4 69 be a8 84 be bf ec a4 38 bf 75 40 31 3f
       -0.22816719 -1.4884233 -0.7212665 0.6923898
0002a0 a5 83 a8 bd b9 1f b0 bb 62 b6 11 bf 69 0f 00 c0
       -0.08228234 -0.0053748754 -0.5691892 -2.0009406
0002b0 5f 90 be be 82 5c 58 3f d7 fc 1e bf aa 93 8e bf
       -0.3721952 0.84516156 -0.62104553 -1.1138813
0002c0 88 b2 b7 3e 19 1b 4a bf 47 d1 94 3f c5 32 88 bf
       0.35878396 -0.789476 1.1626366 -1.0640494
0002d0 79 8a cb be 39 fe 0c c0 bb 9c f9 3f 30 00 b0 3e
       -0.39754084 -2.2030165 1.9500955 0.34375143
0002e0 6d 85 f8 3e 9f b8 e7 bf ec 08 7d 3f 03 81 cd bf
       0.48539296 -1.8103217 0.9884174 -1.6054996
0002f0 12 7b 97 bf 28 92 9d 3f f8 2b 7a bf cf 67 17 3f
       -1.1834433 1.2310228 -0.9772334 0.59142774
000300 3f 7f 42 3f ff 00 6f bf 63 cb 66 bd a2 e6 70 3f
       0.7597541 -0.93360895 -0.05634631 0.9410192
000310 bb fd 6d bf 89 59 3a be 35 9f 8d be 3d 20 af bf
       -0.92965287 -0.18198217 -0.27660528 -1.3681713
000320 25 0d 0e 3e d0 50 bd bd 40 c1 83 bf 88 8a 0b 3f
       0.13872202 -0.092439294 -1.029335 0.54508257
000330 6d b9 76 3f 51 0e b7 bf f3 98 1f bd ce 33 5b bf
       0.9637669 -1.4301244 -0.038964223 -0.8562592
000340 c3 f5 f0 3e 3a ff d0 3f 4e e0 a0 3e 7e 8e 29 bf
       0.470625 1.6327889 0.3142113 -0.6623305
000350 f9 61 77 3f af 72 8b 3d 02 86 e2 bf 42 ff 6c bf
       0.9663387 0.068089835 -1.7697146 -0.9257699
000360 8d 98 8a be 3e 92 a6 3f 4e 47 8f be 14 11 68 be
       -0.27069512 1.301338 -0.2798409 -0.22662765
000370 ad 1c 25 3f 30 1f c6 bf 8a 1b c5 3e 2c ca f9 bf
       0.6449688 -1.5478268 0.38497573 -1.9514823
000380 a7 7d 59 be 35 3d 93 bf 9d 66 50 bf eb c5 12 bf
       -0.21239339 -1.1503054 -0.81406575 -0.5733325
000390 97 b5 b5 3f cc df 92 3e 2b a5 91 be dd 87 06 bd
       1.4196042 0.28686368 -0.28446326 -0.032844413
0003a0 5a 21 44 bf 48 df 26 bf 18 b5 80 3f bf 85 9e bf
       -0.7661339 -0.6518445 1.0055265 -1.2384566
0003b0 32 fc 95 3f 5f f6 11 c0 5d 7e 91 bf 1d d6 a3 be
       1.1717589 -2.2806623 -1.1366688 -0.31999293
0003c0 2c 67 d3 3f 48 d0 e3 be 3e c2 bb be 50 ee a5 bf
       1.651586 -0.44494843 -0.36671633 -1.2963352
0003d0 81 25 1b bf 09 eb 82 3f 48 31 78 3f 29 66 9d 3e
       -0.606041 1.0227977 0.969502 0.30742005
0003e0 7e 40 14 bf c7 91 e2 bf b7 d0 82 bf 8b 30 16 3f
       -0.5791091 -1.7700738 -1.0219945 0.5866782
0003f0 7e a0 33 c0 ae 54 57 bf 68 27 7b be 7e 7e a6 3d
       -2.8066707 -0.84113586 -0.24526751 0.08129595

rnn.weight_ih_l0 f4 [30, 30]
000000 e4 76 aa 3c 47 9d 6a 3e 0c 1f 34 3e fd 77 bf bc
       0.020808645 0.22911559 0.17589968 -0.023372645
000010 bd 97 f1 bc 16 df 87 3d 14 10 45 3e d7 66 e8 3c
       -0.0294913 0.06634347 0.19244415 0.02836935
000020 2d 33 e4 3d 41 46 2d 3e 4a d5 f0 bd 0e 86 cc 3d
       0.111425735 0.16921331 -0.11759432 0.099865064
000030 08 15 85 3d 06 01 05 be 3b f0 81 bb ee 84 f9 bd
       0.06498152 -0.12988672 -0.0039654053 -0.121835575
000040 de 62 59 3e 0a d8 d6 bd f1 45 37 be 42 8e 13 3d
       0.21229121 -0.10490425 -0.17897774 0.03602434
000050 0b 9c d3 3c 1e 0b d5 3c 3f ff 99 bc cb 30 fc 3d
       0.025831243 0.026006278 -0.018798469 0.12313994
000060 a7 51 ab ba 76 64 cc 3c f9 c3 b6 bd d3 3f 0f 3e
       -0.0013070599 0.024950247 -0.089240976 0.13989191
000070 3d 86 0b be 16 e4 be bd 03 98 29 3b c1 10 20 3e
       -0.13625427 -0.09320848 0.002587796 0.15631391
000080 d8 22 cb 3d 9b 5c b7 bb 07 d7 66 bd 36 bc ef 3d
       0.09918755 -0.005595756 -0.05635741 0.1170582
000090 7c 1f 48 bc a9 cd 2b 3c a7 46 ac 3d 8b f9 41 3d
       -0.012214538 0.010486045 0.08411913 0.047357123
0000a0 64 3f 8a bd 9c 8c 19 3e c3 88 53 3d 39 cf 5e be
       -0.06750372 0.14995044 0.051644098 -0.21758737
0000b0 80 eb bc 3d 1e 14 19 3d 5f f5 c1 3d 0d 38 47 3d
       0.092246056 0.0373727 0.09470629 0.04863744
0000c0 3f 6a 37 be d4 28 62 bd ca f8 5a bd 24 66 ed 3b
       -0.17911623 -0.055214718 -0.05345992 0.007244842
0000d0 50 fc a7 3d f0 7d cf 3c 50 84 02 3e 08 af 9b 3c
       0.08202422 0.025328606 0.12745786 0.01900436
0000e0 79 02 b3 3c 23 c2 59 3c ff d2 bf bd 56 82 ed bd
       0.021851765 0.013290915 -0.09366416 -0.11597125
0000f0 77 1b a9 3d a3 1e b3 3d e3 9f d9 3d ca 7f 0f be
       0.08257192 0.08746078 0.10626199 -0.14013591
000100 e9 d7 fc 3d 43 a3 24 be a9 0f 27 be 8b ac a3 3d
       0.12345869 -0.16077904 -0.16314568 0.07991894
000110 09 e8 33 be 1b d9 13 3e e5 32 0d 3e 07 c8 8e bd
       -0.17568983 0.14438288 0.13788946 -0.06971746
000120 1c 38 c1 bd 2f 6a ef bd ce ee 3f 3c dd f7 b1 3d
       -0.0943453 -0.11690175 0.01171465 0.08689854
000130 79 ec 4a 3d ca b1 22 3e f2 37 b0 3c 76 b9 a1 bd
       0.049541924 0.15888134 0.021511052 -0.07896702
000140 2a 8f 20 be e7 9d 98 bd 0e 56 10 3e 44 7a 56 bd
       -0.15679613 -0.074519925 0.14095327 -0.052362695
000150 92 cb 46 bd 79 ab a9 3d 66 32 15 3e 89 9b f2 bd
       -0.048533984 0.08284659 0.14570007 -0.11846072
000160 77 01 34 3e d2 fe 09 3e 4e 00 53 be 6e 58 34 be
       0.17578684 0.13476112 -0.20605585 -0.17611858
000170 a5 a2 5b be f0 de dd 3d 3d 10 3b bd 2d 1d ae bd
       -0.21448763 0.108335376 -0.045669783 -0.085016586
000180 9e 15 c5 3d 4a 0e 0d 3e d5 a5 eb bc 57 76 30 3d
       0.09623264 0.13774982 -0.028765598 0.043081608
000190 e8 fe c2 3d 7b 34 49 3d 33 c0 f2 bd ac 5d 14 3e
       0.09521276 0.049122315 -0.11853065 0.14488858
0001a0 cf 28 c0 3d b1 8b 8f 3b 5f 26 84 be f3 6e 53 3d
       0.093827836 0.004380666 -0.25810525 0.05161948
0001b0 9b 87 f6 3c 8b 63 60 3e dd 4c 7b bd 08 72 5c 3b
       0.030093959 0.21912973 -0.0613526 0.0033637304
0001c0 08 a0 77 be 17 76 90 bc fb d5 9d bc 7f 3d 89 3c
       -0.24182141 -0.017634435 -0.019267073 0.016752956
0001d0 96 19 b4 3d e7 68 db bd 47 b0 39 3e cd 84 99 3d
       0.08793943 -0.10713368 0.1813365 0.07496033
0001e0 c9 60 c5 3d bc 25 f9 3d b4 5f e6 bd e3 85 c5 3d
       0.09637601 0.121654004 -0.11248723 0.096446775
0001f0 ed 83 a4 3b 3b 30 c8 bd f8 3f 9a bd 3f 12 82 3d
       0.0050206096 -0.09774824 -0.07531732 0.063511364
000200 17 c5 8a 3d 5f 63 1e bd e8 63 ba bd f4 9f f4 3d
       0.06775873 -0.038668986 -0.09101087 0.11944571
000210 29 62 2a 3e e5 8c bb bd c2 cb 8e 3d 35 46 b6 3d
       0.16639008 -0.09157733 0.069724575 0.0890011
000220 61 ab 16 be 8f 06 01 3e 71 0f 01 3d d6 dc 45 be
       -0.14713813 0.12600158 0.031508867 -0.19322523
000230 26 6f 42 be 9a a8 49 3d ac 2a f8 3c 17 2e ce bd
       -0.18987712 0.049233057 0.030293785 -0.10067385
000240 90 a9 2b 3e ed 1d cf bd d9 4e c2 3d e7 69 13 3e
       0.16763902 -0.1011313 0.09487695 0.14395867
000250 84 aa d0 3c b3 28 10 be 9f 69 46 3e 2e de d2 3d
       0.025471933 -0.14078026 0.19376229 0.10296284
000260 dc e8 36 3e d1 62 07 be fb c8 10 3e b7 ea 10 3e
       0.17862266 -0.13221289 0.14139168 0.14152037
000270 0c aa 7f bd 4f a1 67 3d 54 ab 61 3e 16 2d 03 3e
       -0.06241803 0.05655032 0.22038013 0.12810168
000280 0e 39 5a 3c 28 b3 74 3e 9e 9e a7 3d 84 e1 23 be
       0.013319267 0.23896468 0.08184551 -0.16003996
000290 3f d2 11 be 15 f1 26 be dd 4d 34 bd 7f 7d 3c bb
       -0.14240359 -0.16302903 -0.04401957 -0.0028761325
0002a0 e3 66 55 be 46 dc cf 3d fe f9 d5 bc 9b 4c b8 bb
       -0.2084003 0.10149436 -0.026120182 -0.0056243665
0002b0 28 31 56 3e d9 1c 13 3e 8b 36 1b 3e 09 ed 74 3e
       0.20917189 0.14366473 0.15157525 0.23918547
0002c0 33 5e 19 bc 44 ae a4 bc ce 1a 6e be 1e 16 88 3b
       -0.009360838 -0.020102628 -0.23252413 0.004153027
0002d0 8b a6 3f bd 93 e9 26 be c9 ef a7 bd 7c 61 d5 3d
       -0.046789687 -0.16300039 -0.08200032 0.10418984
0002e0 5b 45 59 bd 82 43 c1 bb 18 ef 8d 37 c2 bd 8a bc
       -0.05304466 -0.00589794 1.6919847e-05 -0.016936187
0002f0 1a f6 4d be 26 d3 f2 bd 47 9a 35 3e 50 5d aa 3d
       -0.20113412 -0.118566796 0.17734633 0.08318579
000300 54 d1 96 bc aa 17 7b 3e ae 71 4b be 60 6e ae 3c
       -0.018410362 0.24520746 -0.19867584 0.021292865
000310 df d9 7d bd 45 d1 6a bd 6e c4 73 3e c2 ad ea 3d
       -0.061975356 -0.05732848 0.238054 0.11458923
000320 27 81 d7 3d 5a 19 a0 3c 30 60 0c be 70 54 0e 3d
       0.10522681 0.019543339 -0.13708568 0.034748495
000330 1b 45 98 3c 59 b8 22 3e 39 a6 58 3d 03 a5 81 bd
       0.01858764 0.15890636 0.052892897 -0.063303016
000340 08 9c 62 3e 6a 95 1a 3e c1 51 bf bd d2 93 31 be
       0.22129834 0.1509606 -0.09341765 -0.17341545
000350 e5 28 77 bd 8f 9e ed bc 85 66 81 bb 9d ec 27 3e
       -0.060341734 -0.02900627 -0.003948989 0.16398855
000360 1c d6 22 3d 31 0a b0 bd fe 9f a6 bd 50 2c 03 be
       0.03975497 -0.08595694 -0.08135985 -0.12809873
000370 a6 3d eb 3b f7 b4 2c bc b4 c4 d5 3d 6f 47 da bd
       0.00717898 -0.010541192 0.10437909 -0.10658156
000380 47 34 b9 3d f6 b1 be 3d 40 0d d6 bd 19 f4 24 3e
       0.09043174 0.09311287 -0.10451746 0.16108741
000390 dc 51 c8 3d 26 4d 8a 3d 21 38 a9 3d 84 97 b4 3d
       0.097812384 0.06752996 0.08262659 0.08817962
0003a0 d4 b9 8e bd 0e f1 07 3e 89 a3 ef 3d f3 b3 8e 3d
       -0.06969038 0.13275549 0.11701114 0.06967916
0003b0 cf 9e 5d 3d 9a 10 ae 3d 33 52 3b 3d 6b cd cb bd
       0.05410653 0.0849926 0.04573269 -0.0995129
0003c0 94 bf 39 bd 1e 43 15 bc 77 55 72 bd 85 e0 57 3d
       -0.04534872 -0.00911024 -0.059163537 0.052704353
0003d0 7d d4 fc bc 36 0f f2 bc f2 38 b6 3d 1d 66 e7 bc
       -0.030863041 -0.029548269 0.0889758 -0.028246934
0003e0 02 41 e8 bd d9 b6 3b bc d5 8a f5 3d cc 04 e9 bd
       -0.11340524 -0.0114571685 0.11989371 -0.11377868
0003f0 c7 56 dd 3d ef 7b 9d 3d 11 50 e2 bd 60 52 46 bd
       0.10807567 0.07689654 -0.11050428 -0.048418403

rnn.weight_hh_l0 f4 [30, 30]
000000 56 5a be 3e d6 ea 0d 3d 52 e1 84 3c 93 55 c3 3d
       0.37178296 0.034647785 0.016220722 0.09537806
000010 ab 25 49 3e ff de 8d 3e ac 08 4a 3d f8 bc ba 3e
       0.19643275 0.27709195 0.049324676 0.36472297
000020 61 8e b0 be d1 bd 3b be e1 6c 9a 3e 61 95 78 3d
       -0.34483626 -0.18334128 0.30161193 0.060689334
000030 95 d8 be be d1 ec ab 3b d1 28 8d 3c 6c e9 89 3e
       -0.37274614 0.0052467366 0.017231377 0.269359
000040 78 0b 89 be b5 44 16 bd 84 fc a9 3c 3c df a9 3d
       -0.26766562 -0.036686618 0.020750292 0.08294532
000050 21 ae ff bd 4a 0b 74 bb a4 b5 3d 3e d0 ab 2b 3e
       -0.12484384 -0.0037238174 0.18526322 0.1676476
000060 9d 28 e6 3e f3 81 c4 bb da 56 7d 3d 90 52 70 bd
       0.4495286 -0.0059969365 0.061850406 -0.058672488
000070 e0 89 a1 be ea f0 9c be 41 38 83 be c1 ed 56 3e
       -0.31550503 -0.30652553 -0.25628856 0.20989133
000080 a3 66 a6 bd 09 ce 0b 3e 0f c3 9b 3d 05 61 9e be
       -0.08125045 0.13652815 0.07605564 -0.30933395
000090 32 e6 4c 3e ec 80 ba be a5 f7 d9 bd 69 d6 f5 3e
       0.20009688 -0.36426485 -0.106429376 0.48015144
0000a0 cc 41 3c bd 9e 9a 67 3e 0a f1 90 3d 02 25 84 3d
       -0.045961186 0.22617576 0.070772246 0.06452371
0000b0 c9 70 22 bd b8 14 fd 3d b1 bb 94 3e 8b 8c fb 3d
       -0.03965834 0.123574674 0.29049447 0.12282666
0000c0 d1 af f4 bd 79 9e e7 bb 93 74 6d 3d 51 6d ba 3d
       -0.11947597 -0.007068452 0.057972502 0.09102882
0000d0 0a 33 eb bd 43 30 8b be b4 83 fb bd 2c ea 96 3d
       -0.11484344 -0.27185258 -0.1228098 0.073688835
0000e0 e2 37 3b be 72 31 e1 bd 5f b8 41 3b 27 08 c0 3d
       -0.18283036 -0.10995759 0.0029559357 0.09376555
0000f0 b8 8c 42 3e 71 95 9e 3c 18 57 2e be 9d 28 2d 3d
       0.18998992 0.019358369 -0.17025411 0.04227506
000100 c5 4c 11 be 5a 1c 58 3d e0 c3 3d be 76 d1 90 3e
       -0.14189442 0.052761413 -0.18531752 0.28284806
000110 2f 82 06 be 1b 27 e3 3d dd 4b b7 3e 30 71 13 be
       -0.13135599 0.11091443 0.35800067 -0.14398646
000120 db fd ef bd 4f 22 6c be cc 13 99 3e ce 86 2c be
       -0.11718341 -0.23059963 0.29897916 -0.16848299
000130 5b 27 59 bd cb 15 9f 3d 67 8b 96 be 6d 75 95 be
       -0.053016048 0.077678286 -0.2940323 -0.2919115
000140 1f 99 6a 3e a3 56 19 be 6c 46 8a 3b 7a fc 0e 3e
       0.22909974 -0.14974456 0.0042198207 0.139635
000150 fa 32 4f 3e 6b d9 41 3e 07 3a 3e 3e b3 0d 50 3d
       0.2023429 0.18930595 0.18576823 0.050794315
000160 bb bf ce bd 9d e5 4e be 64 b3 30 be c5 5c dc 3c
       -0.100951634 -0.20204778 -0.17255932 0.026899705
000170 ff d6 83 be 82 a0 3b 3b b5 d9 94 3e 7d f4 25 bd
       -0.25749967 0.0028629606 0.29072347 -0.040516365
000180 49 e0 5e 3e 03 07 ee ba f0 0f a6 bd f3 eb 6c 3e
       0.21765245 -0.0018160049 -0.081085086 0.23136882
000190 c9 7d 66 be ef 54 95 3e a9 72 11 3d ad 8c 3f 3e
       -0.2250892 0.29166362 0.03550974 0.18706007
0001a0 04 45 71 bd 28 97 6d 3e 74 09 9d 3e e8 e0 a3 3e
       -0.05890371 0.23202193 0.30671275 0.32007527
0001b0 4b 41 8b bb 35 21 97 be 88 d2 41 3e 60 68 88 3e
       -0.004249727 -0.29517522 0.18927968 0.26642132
0001c0 1d 67 b6 bd a6 8d be bd 6c 2e c7 be 11 f6 60 3e
       -0.08906386 -0.09304361 -0.38902605 0.21968867
0001d0 cb d9 ac bd cd bf 23 3e 7e 07 f3 bd 71 fc cc 3d
       -0.08439978 0.15991135 -0.118666634 0.10009087
0001e0 c7 3f 21 3e cf 81 08 be 30 32 93 bc b6 dd 10 3e
       0.15746985 -0.13330768 -0.017968267 0.14147076
0001f0 65 3c 19 be 6c 34 93 3e 53 24 b5 3b 7b b5 4a be
       -0.14964445 0.28750932 0.005528012 -0.19795792
000200 4b 8f f4 bd de ab fd bd f6 4c 1f be 4e 71 bb 3e
       -0.119413935 -0.12386297 -0.15556702 0.36609882
000210 06 98 c6 bc ec 96 6c 3e cc 72 c2 be 51 1e 0d 3e
       -0.024242412 0.23104447 -0.37978208 0.13781096
000220 37 82 f8 3b 2f f6 17 be 04 d1 f6 3e 46 21 8a 3e
       0.007583882 -0.14840005 0.4820634 0.2697851
000230 98 f9 3c be 13 03 f2 3b 98 f2 03 3d 4d 9c 36 be
       -0.18454587 0.0073856204 0.032213777 -0.17833062
000240 b1 7f ba be f8 9d 17 3e bb bf 2d 3e 48 6c 00 3d
       -0.36425546 0.14806354 0.1696767 0.031353265
000250 06 46 82 3d e5 53 18 3e 5f e7 8e 3e 4b d7 93 3e
       0.06361012 0.14875753 0.27910897 0.28875193
000260 92 40 37 3b 8f 24 15 be 7b ca 41 3d 4f 74 e1 3e
       0.002796207 -0.14564727 0.04731224 0.4403405
000270 70 f3 34 3e ce 19 08 bc 95 fe ca be bf c7 8c 3d
       0.17670989 -0.008306934 -0.39647356 0.06874036
000280 c0 34 5f bd 99 db bd bd 05 17 c9 be 24 de 0d be
       -0.054493666 -0.092704006 -0.39275375 -0.13854271
000290 e4 21 94 bd 59 50 a3 3d c8 28 80 be 74 5b a1 3d
       -0.072330266 0.079743095 -0.25031114 0.078787714
0002a0 a7 25 b6 3c 5b 56 3e bb 6f e9 34 bd ce 34 40 bd
       0.02223475 -0.002904317 -0.044167932 -0.04692536
0002b0 b9 76 a5 3e 35 2b 9e bd e4 38 cb 3e ff d4 41 3d
       0.3231714 -0.07723085 0.39691842 0.04732227
0002c0 ec 10 86 bc f1 5e 2a 3e 46 84 98 be a0 f9 82 bd
       -0.01636549 0.1663778 -0.29788417 -0.063952684
0002d0 7b 3d b2 bd 21 b1 ab 3e 88 ad 61 be 4b 05 4a 3d
       -0.08703133 0.33533576 -0.22038853 0.049321454
0002e0 f5 45 6f bc 88 75 03 be 0f d0 8d bb 4c 80 5a be
       -0.014604081 -0.12837803 -0.004327781 -0.21338004
0002f0 b4 f1 41 bd 64 32 e5 3e 0b 6b 3b 3c c3 65 59 bc
       -0.047349647 0.44765007 0.011439095 -0.013268891
000300 e1 4a d7 bd 03 24 1e bd b4 43 ab bd 3e 43 cf bc
       -0.10512329 -0.038608562 -0.08362523 -0.025300618
000310 6a 47 0a be c6 57 12 3e 3f 1b 29 be b5 15 3b 3e
       -0.13503805 0.14291295 -0.165143 0.1827
000320 31 07 26 be 6f 34 76 be 9e b1 ad bd b6 ef cf be
       -0.16213681 -0.2404344 -0.084811434 -0.40612572
000330 75 53 98 be 28 c0 27 3e 8b 74 47 be 2e a8 33 3d
       -0.29751173 0.16381896 -0.19478051 0.04386156
000340 05 25 f3 bd 8a da 7e 3e 26 6e 9b 3e 52 e9 28 3d
       -0.11872295 0.24888054 0.30357474 0.041238137
000350 37 c4 0a 3e e0 ed 75 be 1d f2 ac 3d fe da cf 3d
       0.13551413 -0.24016523 0.08444617 0.10149191
000360 3e 67 7b be ad 4a e4 3d d3 11 d7 bd d6 a9 08 be
       -0.24551103 0.11147056 -0.105014466 -0.13346037
000370 d6 ba 81 bd 48 02 8c 3e 5a 0b be be fc 49 f3 3d
       -0.06334464 0.2734549 -0.37118036 0.11879346
000380 8c 23 09 be 65 f2 c5 3d 7b ad bc 3c c3 17 2f 3d
       -0.13392466 0.09665374 0.02303194 0.04274727
000390 a1 a0 82 3e cd e0 07 3e 77 14 a0 3e 78 ea b2 3d
       0.25513175 0.13269348 0.31265613 0.087361276
0003a0 0c 4d c2 3e da b3 8e 3d 2e 12 35 bd ab bf 94 3e
       0.37949407 0.06967898 -0.04420679 0.2905248
0003b0 57 e9 d4 be 35 97 31 3e 67 2e 40 be fc 3e 7a be
       -0.41584274 0.17342837 -0.18767701 -0.24438089
0003c0 7e f3 0a 3e df 07 6c be df ec 34 3e 6a fc 1d be
       0.13569447 -0.23049878 0.17668484 -0.1542832
0003d0 1b 3c 21 be 70 36 7d be a6 8f 80 be 30 f6 c0 3c
       -0.15745585 -0.24727798 -0.25109595 0.023554891
0003e0 c8 a5 52 3e db ba 2a be 93 0a 98 bd 53 b7 86 3e
       0.20571053 -0.16672842 -0.07423892 0.2631174
0003f0 45 04 23 3e ca 10 b0 3d 81 47 74 bd fd 03 bb bc
       0.15919597 0.08596952 -0.059638504 -0.02282905

rnn.bias_ih_l0 f4 [30]
000000 ae df d3 bd 05 ac 10 bb cb e7 e8 3d dd 47 40 bd
       -0.10345398 -0.0022075188 0.11372336 -0.046943534
000010 73 ee 47 bd 9a 6b 91 b9 b9 8d d1 bb 9b 39 ba bd
       -0.048811387 -0.00027736725 -0.0063950685 -0.090930186
000020 78 ca 53 3e 5a fe 5c 3d 99 c9 63 3c 35 48 01 bd
       0.20682704 0.053953506 0.013903045 -0.031563003
000030 ac eb 91 3d 44 33 aa bd 33 95 81 bd 2b 9d 94 3d
       0.07125029 -0.083105594 -0.063272856 0.0725654
000040 2f f5 34 3b cc 5b b0 3d 79 39 d6 bd 46 bf f3 3d
       0.002761196 0.08611259 -0.10460181 0.11901717
000050 e6 49 0a bd 6e eb 11 be 7a ea 82 3d 3c 4b 70 3d
       -0.03376188 -0.14249966 0.06392379 0.0586655
000060 ff 79 a3 bd 2a 19 95 bd cb 07 cb 3d 37 b9 95 3d
       -0.07982253 -0.0728019 0.09913596 0.073107176
000070 f4 c9 54 bd 7b 00 30 3d
       -0.05195041 0.04296921

rnn.bias_hh_l0 f4 [30]
000000 c5 68 6e 3e 79 eb 05 be 2e 56 05 be 28 f5 d1 bd
       0.23282154 -0.13078107 -0.13021156 -0.10251838
000010 ad 89 10 3e b5 c4 36 bd 14 9e 75 bd 5f af 56 3e
       0.14115019 -0.04462119 -0.05996521 0.20965336
000020 af ff 09 3d 92 3e 9c 3d 8a 53 1a 3d cc 24 f3 bc
       0.033691105 0.07629122 0.037677325 -0.029680632
000030 de 5c 5b bd c6 49 00 3c 24 86 b0 bd 23 29 e2 bd
       -0.053555362 0.007830089 -0.08619335 -0.110430025
000040 fd cf 1e be f7 cf 4f 3c e1 4e a5 3c ca 0a 42 bd
       -0.15509029 0.01268386 0.020179214 -0.04737357
000050 81 d6 98 bd 5a c2 27 3e 89 b9 17 3e 8f b6 df bd
       -0.074627884 0.16382733 0.1481687 -0.10923492
000060 dd b2 6a bc 34 60 92 bd b7 77 eb bd 1e 3b 2e bd
       -0.014324871 -0.071472555 -0.11497443 -0.042536847
000070 d7 dc 22 3e af 50 ad bc
       0.15904556 -0.021156637

classify.weight f4 [11, 30]
000000 c3 62 62 be d4 c4 bd 3e b3 9e e4 3d d5 66 8d 3e
       -0.22107987 0.3706423 0.11163082 0.27617517
000010 20 22 a1 be a2 03 46 be 2f 24 43 3e d5 be 50 be
       -0.31471348 -0.19337323 0.19056772 -0.20385297
000020 15 68 65 be 92 c3 df 3e ea 2a 39 be 76 fa b8 bd
       -0.22402985 0.43703896 -0.18082777 -0.09032147
000030 5b 69 0a 3e 8c a5 b3 bd 2c 6b 26 3e 97 61 04 be
       0.13516752 -0.0877181 0.1625182 -0.12927853
000040 94 18 6b be cf 08 5b be b1 a7 85 be 38 9b b8 3d
       -0.22958595 -0.21390079 -0.261045 0.090139806
000050 5d af 10 3b 2f ed 4e be dc 35 8a be 17 28 ca bd
       0.002207718 -0.20207666 -0.26994216 -0.09870928
000060 bd 88 e9 3d 05 68 bc be 9b 40 7c 3e 97 ed 4c be
       0.11403034 -0.3679811 0.2463402 -0.20012508
000070 38 ea 9a 3e 23 5d 3b 3e f4 12 92 bd 80 4d 92 3e
       0.3025682 0.18297248 -0.07132521 0.28574753
000080 43 71 c4 bd 2c ff 07 3e 99 b5 68 3d 56 5e c6 bd
       -0.095919155 0.13280934 0.05681381 -0.09685962
000090 d7 ac 85 3e 5d c7 c0 3d 3a 8f 4f 3e 3a 42 8e 3e
       0.2610843 0.094130255 0.2026948 0.27784902
0000a0 78 64 9c 3e fb 3e eb bc 68 67 a2 3e 0c ee 32 3e
       0.30545402 -0.028716555 0.31719518 0.1747362
0000b0 ea be 30 3e 6d cb d8 3e 02 e8 8c 3e ad e4 8a 3e
       0.17260328 0.42342702 0.27520758 0.2712759
0000c0 a4 8d 14 be 69 3a a3 be 76 70 6f 3e 9d 25 93 3e
       -0.14507157 -0.318805 0.23382744 0.28739634
0000d0 01 94 77 be 59 41 82 bd e1 a7 40 be 38 2b 9d 3e
       -0.24177553 -0.0636012 -0.1881404 0.30697036
0000e0 db fc c0 bd 62 46 0a 3e e5 07 3c 3d 82 eb fd bc
       -0.09423228 0.13503411 0.045905966 -0.030996088
0000f0 12 e3 3d be 16 e6 62 be 36 d8 2c 3e 08 58 86 be
       -0.18543652 -0.22158083 0.16879353 -0.26239038
000100 af fa a0 be fa 79 29 be 08 d1 56 be d4 e0 bd be
       -0.31441256 -0.16550437 -0.20978177 -0.37085593
000110 f9 87 13 3e d7 8c 6c 3e 0f f4 47 be be 86 a3 3e
       0.14407338 0.23100601 -0.19526695 0.31938738
000120 14 d5 21 be 42 c2 09 3d 46 e8 50 be 18 ed ae be
       -0.15803939 0.033632524 -0.20401105 -0.34165263
000130 70 d3 ac 3e 8d 3b 1f 3d 6d aa 0a 3e 39 ea 89 3e
       0.33755064 0.03887515 0.13541575 0.2693651
000140 a0 56 84 be 3c d3 66 3e da c0 ff bd 43 77 fc bd
       -0.2584734 0.22541517 -0.124879554 -0.12327435
000150 11 bd 70 be 4a 09 7b 3d 4b 76 b6 be ee 89 96 3d
       -0.23509623 0.061288156 -0.35637125 0.07350527
000160 7e 75 af 3d 9a 93 8b 3e 99 ba 0f be 10 34 af bd
       0.08567332 0.2726105 -0.14036025 -0.08554852
000170 20 f9 14 bd 5f b8 61 3e 7d b7 cd be 3d 44 a2 bd
       -0.036370397 0.22042988 -0.40179053 -0.07923172
000180 b8 f1 a1 be 44 77 5a 3e e6 4a 00 3e ac 78 b8 be
       -0.3162973 0.21334559 0.12528571 -0.36029565
000190 75 18 f5 bd 10 b9 b6 be 05 8a b8 3d 8c 3f 9c be
       -0.119675554 -0.35688066 0.090107 -0.30517232
0001a0 1d 9c 53 3e 76 8f 8c be f6 6d 86 3e 39 a6 c2 bd
       0.20665021 -0.27453202 0.2625577 -0.09504361
0001b0 6d b3 7a be f5 be 11 3d 8c 73 9b 3e 52 cb 6d be
       -0.24482508 0.0355825 0.30361593 -0.23222092
0001c0 ff ac 9f be 85 e5 7d 3e 3b 1b a0 3e 3a ec 99 be
       -0.31186673 0.24794586 0.31270775 -0.3006304
0001d0 84 77 94 3d fe 28 15 be 79 d6 2f 3e 85 01 71 3e
       0.07249358 -0.14566419 0.17171659 0.23535736
0001e0 80 24 20 be a9 71 b8 be 2a 98 73 be 65 33 b4 be
       -0.15638924 -0.36024216 -0.23788515 -0.3519546
0001f0 25 af 2b 3e 0d fa 3d be 17 2c 61 bc df a6 24 3d
       0.16766031 -0.18552418 -0.013743422 0.040198203
000200 fb cc 50 3e f3 03 ce be f2 8c f3 bd d9 09 11 be
       0.20390694 -0.40237388 -0.118921176 -0.14163913
000210 55 00 b1 3e 66 5c 32 3e f9 e7 09 bc 38 1d 9d 3b
       0.34570566 0.1741806 -0.008417123 0.004794743
000220 88 69 8b 3e 0e df 70 3d a3 8d a7 be d1 70 8c be
       0.2722895 0.05880647 -0.32725248 -0.27429822
000230 e0 5d 01 3e 30 f5 11 3e 15 8c 8a 3e df b7 94 3e
       0.12633467 0.14253688 0.2706 0.29046533
000240 ee d1 75 be 2a 19 85 3e 4c 8e 83 be 4f 81 0f 3e
       -0.24005863 0.2599576 -0.256945 0.14014171
000250 dd ae ae bd 56 1a 68 be 6b ed dd 3e ac ee 20 be
       -0.08529446 -0.22666296 0.43345198 -0.15716046
000260 24 01 9e 3e a3 ab a0 be e6 d6 91 be 36 37 f1 3b
       0.30860245 -0.31380948 -0.28484267 0.007361318
000270 9d 4e 25 be ad b8 a6 be 65 fa 8d 3e 0a 77 8d be
       -0.1614327 -0.3256277 0.27730098 -0.27629882
000280 b3 17 86 be 8a 21 5e be 59 6f c3 3d 90 a5 22 3e
       -0.26189956 -0.21692482 0.09542722 0.1588347
000290 84 56 c7 bd 98 de 83 be 36 f1 51 be 6c 2c af be
       -0.097332984 -0.25755763 -0.20502171 -0.3421358
0002a0 8b a4 d9 3c 87 c7 aa 3d a1 6d 2a be 5f 78 94 be
       0.026567718 0.08338838 -0.16643383 -0.28998086
0002b0 68 d5 89 3e fc 71 6a 3e de 05 b9 be 21 2f 8e be
       0.2692063 0.22895044 -0.3613729 -0.27770332
0002c0 66 68 8b 3d 20 70 87 3e 59 eb 48 3e bf 22 bf 3d
       0.06807022 0.26452732 0.19621028 0.09332799
0002d0 e5 88 99 3e ea f3 78 be 84 c4 94 3e 57 28 80 3e
       0.29987255 -0.24311796 0.2905618 0.25030777
0002e0 9e bf 36 3e a8 bd fa 3d b6 8a 8f be 26 bd c6 3e
       0.17846534 0.12243205 -0.28035516 0.38816184
0002f0 59 e4 4b 3e 5d e6 97 be fd 07 98 3e af aa 5d be
       0.19911326 -0.2966794 0.29693595 -0.21647142
000300 a3 f7 9b 3d 68 3f 90 bd c1 28 ad bc 38 b0 11 be
       0.07615592 -0.07043344 -0.021137597 -0.14227378
000310 58 10 f3 bd 4d 7a 85 be c2 2d be be dc 24 5d be
       -0.11868352 -0.2606987 -0.37144285 -0.21596092
000320 b8 6a 83 be 43 60 ad 3c 23 6b 46 3e af 42 b2 3e
       -0.25667357 0.021164065 0.19376807 0.348165
000330 db 03 9f 3e 60 d3 b0 be 8a eb 7c 3e e5 1b 75 be
       0.3105763 -0.34536266 0.24699226 -0.23936422
000340 08 cd 3b bd 13 90 d0 be 45 14 cd 3e b7 c3 73 be
       -0.04584983 -0.4073492 0.40054527 -0.23805128
000350 7f 43 40 be c0 c0 ca bd ab 16 73 3e f7 c0 eb 3e
       -0.18775748 -0.099000454 0.23739116 0.46045658
000360 26 2d 38 be 23 fb ac 3e b1 6f aa bb 07 59 17 be
       -0.17985973 0.33785352 -0.005201303 -0.14780055
000370 62 37 c2 3e 65 b2 c1 3e 96 9b 61 be d1 56 84 3d
       0.3793288 0.37831417 -0.22032008 0.064618714
000380 30 16 34 be 3f 38 95 3e 3b e3 09 3e 44 85 17 3e
       -0.17586589 0.29144475 0.13465588 0.1479693
000390 48 2e bf 3e 17 be 87 be 10 35 f1 3c c8 66 a6 3d
       0.37339997 -0.26512215 0.029444247 0.08125073
0003a0 56 69 8d 3e 8d 10 c5 3e f6 fb dc bd 3d 28 9a 3e
       0.27619427 0.3848919 -0.10790245 0.30108824
0003b0 07 39 23 be a2 cd 93 3e bb 30 25 be 2c e9 89 be
       -0.15939723 0.28867823 -0.1613187 -0.2693571
0003c0 0f 54 8f 3e a4 e7 05 bd d8 a8 b9 3e bb e9 4a be
       0.2799382 -0.032691613 0.3626163 -0.19815724
0003d0 e8 0f 93 be 15 4b be 3e 3b 62 95 3e 5c 01 b4 3e
       -0.28723073 0.37166658 0.29176506 0.35157287
0003e0 67 f2 8f be ee 83 b4 be 7f db 61 be 36 0b fc 3d
       -0.28114626 -0.35256904 -0.22056387 0.12306826
0003f0 5c aa 9b be 12 c9 5a 3e 6f 73 09 bd 7f 29 ba 3e
       -0.3040341 0.21365765 -0.03355735 0.36359784

classify.bias f4 [11]
000000 23 93 d4 bd ee 4a c7 bb 7d 43 1a be 1b 9b fc 3d
       -0.103796266 -0.0060819304 -0.15064807 0.123342715
000010 53 d2 e3 bd 20 7d 5c 3d c6 1a 95 3d 7c a8 bc bd
       -0.111241005 0.053830266 0.07280497 -0.09211823
000020 f2 2c ae 3d 03 df 0e bc d2 a2 65 3d
       0.085046664 -0.008720162 0.05606348
