pythonProject/第三周/model4.pth (torch, 8067 bytes, 5 tensors)

embedding.weight f4 [28, 20]
000000 00 00 00 00 00 00 00 00 00 00 00 00 00 00 00 00
       0.0 0.0 0.0 0.0
000010 00 00 00 00 00 00 00 00 00 00 00 00 00 00 00 00
       0.0 0.0 0.0 0.0
000020 00 00 00 00 00 00 00 00 00 00 00 00 00 00 00 00
       0.0 0.0 0.0 0.0
000030 00 00 00 00 00 00 00 00 00 00 00 00 00 00 00 00
       0.0 0.0 0.0 0.0
000040 00 00 00 00 00 00 00 00 00 00 00 00 00 00 00 00
       0.0 0.0 0.0 0.0
000050 84 5d 88 3f 12 c1 bb bf fb eb 32 be 09 f2 32 bf
       1.0653539 -1.4668295 -0.17472832 -0.69900566
000060 1d 3d 91 bf 27 c2 86 bf 47 64 0c bf f5 91 b1 bf
       -1.1346775 -1.0528 -0.5484051 -1.3872668
000070 ae 58 a1 3f f5 69 61 bf c0 3b d2 3e 60 dd cb 3f
       1.2605188 -0.880523 0.4106121 1.5926933
000080 37 20 04 40 47 73 a4 bf a6 0e 81 3f 5e 7c 71 bf
       2.0644662 -1.284768 1.0082595 -0.94330394
000090 bf 1b 8d bf 33 40 6e 3f e0 ca e5 bf af 8d 15 3f
       -1.1024092 0.9306671 -1.7952538 0.58419317
0000a0 78 7b 21 bf 53 e3 8b 3f fa b8 3b be eb 84 30 3f
       -0.63079023 1.0928749 -0.18332282 0.68952817
0000b0 97 36 ca 3e 5b 20 0e 3f c4 d3 83 bf 92 1c a8 3c
       0.39494774 0.5551812 -1.0299001 0.020521436
0000c0 58 7b 19 3d ef 31 71 bf 4e c5 ee 3f 7e ed 24 3f
       0.037471145 -0.9421682 1.8653963 0.64424884
0000d0 8a d4 06 3f 64 96 80 be c3 da ec 3f a1 38 9f 3f
       0.5266806 -0.2511474 1.8504261 1.2439157
0000e0 0f 79 a6 3f d4 7d e7 be be 15 fb bf 14 e2 8f 3f
       1.3005694 -0.45213187 -1.961601 1.1240869
0000f0 6b c2 6f bf ca 17 d8 3f 65 67 dc be 50 30 85 3f
       -0.93656033 1.688226 -0.43047634 1.0405369
000100 3a 19 d3 3f 7a 36 17 bf 9d 3f 0a be e2 b1 e4 3f
       1.6492074 -0.590675 -0.13500829 1.7866786
000110 c6 cf a3 3e ff 4f 07 3f 74 57 ad be b1 83 83 3f
       0.31994456 0.5285644 -0.33855784 1.0274564
000120 c6 30 b1 bf d7 80 c3 3f fc 20 bd 3d 0a f1 bc bd
       -1.384301 1.5273694 0.09234807 -0.09225662
000130 97 ed 37 3f 8b a0 06 3f 56 b4 f7 bf 9a 73 19 be
       0.7184691 0.5258872 -1.9351909 -0.14985505
000140 fe 09 8e 3f 28 19 71 bf a4 88 5d bf 51 d7 d5 3f
       1.1096799 -0.9417901 -0.8653662 1.6706334
000150 10 a6 41 be 91 26 1d 40 de 8b 3d bf 23 25 64 3f
       -0.18911004 2.455479 -0.74041545 0.89119166
000160 30 3b 7a 3f 59 9b 7d be 98 39 ed 3e 2c da 1e bf
       0.9774656 -0.24766292 0.46333003 -0.62051654
000170 13 a1 1a c0 2d d4 06 c0 cb d2 77 bf 82 98 aa be
       -2.4160812 -2.1067002 -0.9680602 -0.3331948
000180 a9 44 11 bd be 82 2b 3e 8b 36 c2 3e e6 d8 46 bf
       -0.03546587 0.16749093 0.37932238 -0.7767471
000190 3d ad e3 3e 63 3b 76 3f 18 82 55 3f 46 fa 72 3f
       0.44468108 0.96184367 0.8340163 0.94913137
0001a0 9b 72 24 bf c1 a4 0a bf 51 59 8d 3f 36 ee 2d bf
       -0.64237374 -0.54157645 1.1042882 -0.67941606
0001b0 23 33 ec be 32 62 44 3e b9 f5 b9 3f 84 51 b4 bd
       -0.46132764 0.19178084 1.4528114 -0.0880461
0001c0 84 33 97 bf 09 83 b9 3d 4e 50 18 bf 25 f4 8f be
       -1.1812596 0.09058196 -0.59497535 -0.28115955
0001d0 e9 c1 3d bd 96 4a f3 bf f2 d1 d1 bf 09 b7 c7 3f
       -0.046327505 -1.9007137 -1.6392195 1.5602733
0001e0 f0 72 0e bf 20 47 83 bd 90 2f 4d bf 99 89 a5 3f
       -0.5564413 -0.064100504 -0.801507 1.2932616
0001f0 af 1f 1b bd c0 f9 83 bf 35 82 02 3f 51 03 82 be
       -0.037872013 -1.0310593 0.5097993 -0.25393155
000200 0e de da bd 69 fc 0d 3f 37 c2 8b 3f 94 40 39 be
       -0.10686885 0.5546327 1.0918645 -0.18091041
000210 60 53 99 3e d4 df 15 3f 53 76 96 be 48 a6 c7 be
       0.29946423 0.5854466 -0.2938715 -0.3899405
000220 c2 84 96 3f 4e f6 b4 3e 7a 5e 0b bf 1d e2 0b 3e
       1.1759264 0.35344166 -0.54441035 0.13660474
000230 d2 96 98 3f 51 d1 19 3f 67 a1 cc be 0e a5 e1 3f
       1.1921027 0.60085016 -0.3996689 1.7628496
000240 6b 19 43 be c5 f6 95 bf b2 97 e6 3f e0 58 c8 be
       -0.19052665 -1.1715933 1.8015044 -0.39130306
000250 13 ea a8 3f 73 ea a4 be 49 64 db bf ba 6f 92 bf
       1.3196434 -0.3221012 -1.713998 -1.1440346
000260 ca 83 c0 bc 9b ba 63 be 6b 16 04 bf 84 81 7c 3f
       -0.023500342 -0.22239153 -0.5159671 0.98635125
000270 dc 51 80 be 7f 5d 3c bf a0 69 2d 3f da 76 72 3e
       -0.25062454 -0.73580164 0.67739296 0.23678151
000280 c9 55 68 bf d4 9a 80 3e bf 03 18 3e cb 51 71 3f
       -0.907559 0.25118124 0.14845179 0.9426543
000290 ea 7b 59 bf 1a 35 8c 3f 98 df 53 3f b9 97 34 bf
       -0.849547 1.0953705 0.8276305 -0.7054401
0002a0 d6 ba b5 bf df 73 4c 3f 7a b9 87 3f 82 78 c0 bf
       -1.4197643 0.79864305 1.0603478 -1.5036776
0002b0 e3 95 f4 be 4b d6 e1 be 4e 99 b9 be c2 d1 4a bf
       -0.47770604 -0.44108805 -0.36249775 -0.79226315
0002c0 2f 69 01 3f 4b e8 94 3e 73 db 8d 3e 84 6a b4 bd
       0.5055112 0.29083475 0.2770649 -0.08809379
0002d0 70 af 99 3e 3f 56 43 bf 9e de 16 c0 2e ae 95 3f
       0.3001666 -0.76303476 -2.3573375 1.169378
0002e0 07 ae 81 3f f6 c8 10 c0 2d 8d 47 be d5 11 6d bf
       1.0131234 -2.2622657 -0.19487448 -0.92605335
0002f0 68 42 b3 be d0 f9 1f bf 02 36 d3 3f 36 69 bb 3d
       -0.350116 -0.6249056 1.6500857 0.09150927
000300 67 67 21 be 68 3c e9 3d 46 e0 bd bf 6a cd 46 3f
       -0.15762101 0.11388475 -1.4834068 0.77657187
000310 de c4 0d bf b9 0b 32 be 77 60 d0 bd 12 e9 5f 3f
       -0.5537852 -0.17387284 -0.10174649 0.8746501
000320 e7 f4 5d bf eb 29 59 3f 19 6a f8 3f 4b 1f 11 3f
       -0.86701816 0.84829587 1.9407378 0.56688374
000330 ef da df bf 7e 74 be 3f 74 33 27 bf 0d ff 7c 3e
       -1.7488688 1.48793 -0.65312886 0.24706669
000340 40 90 b1 3f 94 0a db bf 68 6d 90 3f b1 34 c2 3c
       1.3872147 -1.7112603 1.1283388 0.023706766
000350 5d 5f 64 bf a8 45 d0 3f 65 e9 35 3f 4f c4 2b bd
       -0.8920801 1.6271257 0.71059257 -0.04193526
000360 bb 9e ca bf 53 09 32 bf cd be e0 3f 9b f7 55 3e
       -1.5829691 -0.6954548 1.7558228 0.20895235
000370 db ca 46 3f b1 a0 5a 3e 83 0d 2f bf 87 8a 2f bf
       0.7765328 0.21350361 -0.6837999 -0.6857075
000380 18 a2 9f 3e 4f f4 ba bf 94 b4 f6 3f 00 f7 ff 3f
       0.31178355 -1.4605807 1.9273858 1.9997253
000390 74 86 20 bd 58 d1 62 bf 3d 65 c0 3f cf fc 5b 3f
       -0.039190724 -0.88600683 1.5030895 0.8593263
0003a0 d6 40 a1 bf 5c 7a 20 bf 73 18 41 3f 63 fd 9a 3f
       -1.2597911 -0.62686706 0.7542793 1.2108577
0003b0 fe 17 52 bf 00 54 e1 3f 43 df 84 bf dd 2f b8 bf
       -0.8206786 1.760376 -1.0380634 -1.4389607
0003c0 87 8f b2 3f 63 29 1a bf 16 cc 94 3f 01 b5 18 be
       1.3950051 -0.602194 1.1624782 -0.14912798
0003d0 ac 20 94 3f 42 2c ee 3e 03 95 6f 3f e3 cf cd 3d
       1.1572471 0.4651814 0.9358675 0.10049417
0003e0 4b c5 9d 3f e6 57 03 3f bc a8 a4 bf ca b5 14 be
       1.2325834 0.51306 -1.2863994 -0.14522472
0003f0 88 46 70 3a d4 dd 54 3d 98 ac e2 bd c6 3c fd 3e
       0.00091657834 0.051969364 -0.11068076 0.4946043

layer.weight_ih_l0 f4 [20, 20]
000000 9c 63 1f 3e cc e9 21 be ab dd ce 3d bb 5c 05 bd
       0.15565342 -0.15811843 0.101008736 -0.032559138
000010 fa cd 2f be 2f 47 11 be 77 ea 51 be 21 10 03 be
       -0.17168418 -0.1418731 -0.20499597 -0.12799121
000020 70 41 d5 3d 98 ef 75 3c fc b6 8b 3d c4 78 62 3e
       0.10412872 0.015010737 0.06822011 0.22116381
000030 0a 91 51 bc 7c 81 5a bd a6 97 ed 3d b2 68 99 bc
       -0.012790928 -0.053346142 0.1160119 -0.01872668
000040 54 47 a5 3d c7 d3 7b 3e 56 e3 12 bc 6e 79 9c bb
       0.080702454 0.24592505 -0.008965334 -0.0047752177
000050 f8 2f 32 be 85 c4 85 3e fb 07 cb bd 01 11 81 3b
       -0.17401111 0.26126495 -0.099136315 0.0039387946
000060 3b f9 b2 3d 22 c5 d5 bc bd de 16 3d 3b 24 d8 3c
       0.08738943 -0.026094977 0.036833514 0.026384464
000070 29 84 58 3d 49 5b b5 bd 0b ca ab bd e0 99 1a 3e
       0.052860413 -0.08855302 -0.08388146 0.15097761
000080 16 2e 61 be f4 7b 65 3b 94 c6 6d bd 86 e5 8c 3c
       -0.21990237 0.0035016509 -0.058050707 0.017199289
000090 1e 5d 80 3e 34 ed 07 be 37 d2 8f 3e 14 b6 52 bd
       0.25071043 -0.1327408 0.2809007 -0.051443174
0000a0 0e 22 11 3e e9 79 d5 3d 0b 03 42 3d c3 85 b0 3d
       0.14173147 0.10423643 0.047366183 0.08619263
0000b0 9f 04 cd bd 14 21 b8 bb 8e 7c 22 be c6 f4 15 be
       -0.10010647 -0.0056191776 -0.15867826 -0.14644155
0000c0 22 38 05 3d 19 20 36 3d fe 67 80 3d 60 c5 22 3d
       0.032524236 0.044464204 0.06269835 0.039739013
0000d0 95 2b c4 3d 28 03 a6 bc b9 d9 d8 3d 03 20 35 be
       0.09578625 -0.020265177 0.10588402 -0.17687993
0000e0 a1 3f 3b be a0 e1 a3 bd fb 90 ca 3d bd 14 a5 3d
       -0.18285991 -0.08002019 0.09890934 0.08060596
0000f0 b2 c5 64 3e 5e 4c 34 bd 68 89 30 3d 9f 24 db 3d
       0.2234104 -0.044018142 0.04309979 0.10700344
000100 64 2d f7 bd 57 e4 b1 3d 85 60 b5 bd 5c 7b 8a be
       -0.120692044 0.086861305 -0.088563 -0.2704724
000110 ee dd f5 3d 80 94 1c bb b4 00 06 be 5b 11 68 3e
       0.1200522 -0.0023892224 -0.13086206 0.2266287
000120 b6 6d 02 3e 04 be be 3d 3b 5c 11 3b 84 b5 80 be
       0.12737164 0.09313586 0.0022180218 -0.25138485
000130 e4 a5 55 be 1d a5 1f 3e b4 6e 9c be e1 76 cc bd
       -0.20864064 0.1559033 -0.3055321 -0.09983612
000140 c2 94 92 bc 34 9d 91 bd 8a f3 45 3d d5 c0 d3 bd
       -0.017893199 -0.07110062 0.04832796 -0.10339514
000150 a4 4c 10 be e9 17 8a bc 8b 76 a2 bd 97 b4 8e 3d
       -0.14091736 -0.016857104 -0.079327665 0.069680385
000160 0c 0f 49 3c 7c ce dd 3c c6 25 a6 bd c6 e3 c1 3d
       0.012271654 0.027075998 -0.081126735 0.094672725
000170 48 2d 69 3e 7f 4e 4c 3c b3 58 14 bc c9 db 93 be
       0.2277118 0.012469887 -0.009054351 -0.2887862
000180 26 ca 8c be 7f f3 32 3e 06 09 24 be a5 14 88 3d
       -0.27497977 0.17475699 -0.16019067 0.06644563
000190 e5 b1 0f 3e 29 10 dd bc a6 3d e1 bd e4 42 c4 bd
       0.14032705 -0.026985245 -0.10998087 -0.09583071
0001a0 11 12 3f be 26 4d 62 bd 67 8d 36 be b6 69 10 bd
       -0.18659236 -0.055249356 -0.17827378 -0.035257064
0001b0 02 51 3f 3e ed 7d ec 3c 69 c7 a7 bd a0 36 f6 3d
       0.18683246 0.02886864 -0.08192331 0.12022138
0001c0 23 ce 4b 3e c0 3f 44 3c 85 f5 08 3e c9 bc 5b bd
       0.19902854 0.01197809 0.13374908 -0.053646836
0001d0 61 1d 80 be 44 16 23 bd 0e c1 1b be 2e af f1 bd
       -0.25022414 -0.039816156 -0.15210363 -0.11800991
0001e0 7e 95 09 be 1c 6e d8 bd 14 df 68 3c 72 12 6d 3b
       -0.13435933 -0.10567877 0.014213342 0.0036174324
0001f0 8d 8a 18 3e fa 13 74 3c 57 44 63 3d 7f d0 39 3e
       0.14896603 0.014897341 0.055485096 0.18145941
000200 62 e4 65 be 39 25 b1 bd 8b 05 e2 bd ca f1 b9 bd
       -0.22450402 -0.08649678 -0.110362135 -0.09079321
000210 15 18 39 be 05 09 dc 3a 50 55 bd bc 60 04 88 3d
       -0.18075593 0.0016787356 -0.02311197 0.066414595
000220 e3 fc c6 3d 2a 9e da 3b 70 c9 ff 3d 9e 85 f8 3d
       0.09716203 0.0066716867 0.12489593 0.121348605
000230 b2 59 91 bd f7 4f 21 3d a3 e3 70 3d 42 1f 09 3e
       -0.07097186 0.0393829 0.05881084 0.1339083
000240 32 13 52 3d e2 02 5b 3d 2a a6 04 3c 3e 93 67 3d
       0.051287837 0.053469546 0.008096257 0.056536905
000250 41 19 85 bd 95 77 10 3e 7c d3 09 be c1 df f1 3c
       -0.064989574 0.14108117 -0.13459581 0.02952564
000260 b9 0e 18 be fc eb 4a 3e 3b 6d 7a 3d 2c 41 ad bd
       -0.14849366 0.19816583 0.061139327 -0.08459696
000270 d2 88 3c 3d 88 d4 ec 3a 7c 73 e7 bc 74 4a c1 3c
       0.04602892 0.001806871 -0.02825331 0.023595072
000280 68 a2 42 be 6d 32 3e bd 39 fc 09 be 36 5a 5b bd
       -0.19007266 -0.04643481 -0.13475122 -0.05355283
000290 d5 17 43 3e 6b 75 78 bd 4d 49 5d bd ff bd b2 3e
       0.1905206 -0.060658854 -0.054024983 0.3491058
0002a0 93 cd d2 3d 20 fe e8 bb 5c 98 cf 3d 4c 23 f5 bd
       0.102931164 -0.007110372 0.10136482 -0.11969623
0002b0 27 2a ef 3c 35 2f 79 3e 94 a0 14 be a6 b8 c5 3d
       0.029194904 0.24334414 -0.1451438 0.096543595
0002c0 3e 65 57 3d e5 29 7c be c2 9e b9 bb 5a 97 16 be
       0.052586786 -0.24625356 -0.0056646774 -0.14706174
0002d0 98 fa 63 be b4 7c c0 bc d1 63 14 be 10 47 e0 3d
       -0.22263563 -0.023496963 -0.14491202 0.10951054
0002e0 a5 4d 58 3b 72 73 f0 3c 94 e8 4b 3e 0d a4 c6 3d
       0.0033005264 0.029351924 0.1991294 0.09699259
0002f0 c1 70 b3 bc 1d 59 ba 3d f3 b5 26 3e 63 dd c9 bd
       -0.021904351 0.09099028 0.16280346 -0.09856679
000300 e6 9a 3b be f6 ed fb 3c 08 8f b7 bd fb 13 f3 3b
       -0.18320808 0.030753117 -0.08962828 0.0074181533
000310 a9 cd 82 3d 3a 13 d3 bd e0 9e fa 3d 8a fe 37 3d
       0.06386883 -0.103064016 0.12237334 0.04492048
000320 2e ad c6 bc e7 fa 57 3e 19 51 10 3d 41 71 e9 3c
       -0.0242525 0.21091805 0.03523359 0.028496386
000330 dc 7d 27 bc 06 bd d8 3c 4e d3 ef 3d 3f 16 d5 3d
       -0.010222878 0.02645732 0.11710225 0.10404634
000340 0f 42 cb bc 5d 52 07 3e 28 30 dc bc 69 49 ff 3d
       -0.024811773 0.13215013 -0.026878431 0.12465174
000350 ba c9 66 be c1 2b f9 b9 56 05 11 ba 61 ae ad 3e
       -0.2253789 -0.0004752558 -0.0005532106 0.33922103
000360 d5 b7 76 3e 70 75 5a be 71 53 63 3e 59 a4 57 bd
       0.24093564 -0.21333861 0.22199799 -0.05264697
000370 5d 01 32 be 96 0a 7d 3e 8e 0d a7 3b 2a 0a 90 bd
       -0.17383333 0.2471107 0.0050980514 -0.07033189
000380 f5 eb c9 3c 0b cb ec 3d 94 ff 49 3e 27 c4 ae 3d
       0.024648646 0.11562165 0.19726402 0.08533507
000390 fa fb 40 bd 5a a6 2a be 47 7a e6 3d f9 58 06 be
       -0.047115304 -0.1666502 0.11253791 -0.13119878
0003a0 be 67 68 be e4 f5 8c bd 5b 6a db 3c 72 0d 07 3e
       -0.22695825 -0.068828374 0.026784113 0.13188723
0003b0 e3 ca 04 3e 7e 43 7f 3c 4c a6 5b 3e 7a 64 1d bc
       0.1296802 0.015580056 0.21450156 -0.009606475
0003c0 01 3f 52 3d df 6a 82 bd d7 38 ad 3d e0 74 00 be
       0.051329616 -0.0636804 0.08458107 -0.12544584
0003d0 db 74 04 bc 82 88 92 bd f0 54 c7 bd 32 d5 d8 bd
       -0.008084501 -0.07154943 -0.097329974 -0.10587539
0003e0 cc f6 16 3e 3f fb da bd d0 56 57 bd 3a 8a b8 3d
       0.14742583 -0.10692453 -0.052573025 0.090107396
0003f0 cd 32 0f 3e 1e 6f d9 bd 0c ad 02 3e 32 ef 6a be
       0.13984223 -0.10616897 0.12761325 -0.22942808

layer.weight_hh_l0 f4 [20, 20]
000000 ef 6c 98 be a8 f4 cc 3e bc a1 2c 3d 97 49 7a 3e
       -0.2977061 0.40030408 0.04214643 0.24442135
000010 3d 76 57 be 07 dc e3 3d 40 ce 46 bb db 4c a7 be
       -0.21041198 0.11125951 -0.0030335337 -0.32675824
000020 8e 46 5d 3d 95 e7 70 3e e2 69 88 3e fa 9f 35 3e
       0.054022364 0.23525842 0.26643282 0.17736807
000030 f1 cf d5 bd 11 fa f0 be a0 95 6c bd 99 71 b4 bd
       -0.10440052 -0.47065786 -0.05775988 -0.088107295
000040 5f 01 4c bd d6 b0 7b 3e 3e 5e 78 3e 15 64 bc be
       -0.049805995 0.24579176 0.242547 -0.36795107
000050 f2 81 b6 3d 27 c8 01 be 90 8b e5 3c 93 13 42 be
       0.08911504 -0.12674008 0.02802065 -0.1895278
000060 bc fc 6c 3b 4f ed 1c be d5 0d 8d 3e 87 39 c9 3e
       0.0036161384 -0.15324901 0.27549616 0.39301702
000070 1d 17 c7 3d 6a 74 9b bd 53 31 3f 3e 4e db 1c 3e
       0.097212054 -0.075905636 0.1867116 0.15318033
000080 6b 21 6b bd b1 7c 10 39 97 d3 82 bd 89 20 4f 3e
       -0.057404917 0.00013779361 -0.06388014 0.20227255
000090 15 c4 a3 3e 14 17 4f 3d ec c4 bb 3e b0 00 d1 3d
       0.31985536 0.05055912 0.36673677 0.10205209
0000a0 d7 aa 2c bc f0 dc c0 bb 89 f9 48 3d 24 d0 d1 3e
       -0.010538778 -0.005885713 0.0490661 0.4097911
0000b0 cf fd c3 3e 9a bd 7c bd 38 1e 44 3e 51 92 76 be
       0.38279578 -0.061704256 0.19152153 -0.24079253
0000c0 9d 03 79 bd 34 b4 60 3e c4 03 07 be 57 e9 fc bd
       -0.06079446 0.21943742 -0.1318503 -0.123491935
0000d0 93 0a e4 3c 0c aa e0 be ff 0f 73 be a8 4e 53 bd
       0.027837073 -0.43879735 -0.23736571 -0.051588684
0000e0 8a 2a 23 3d eb 0b f8 bd 25 55 a3 be d1 25 e7 be
       0.03983549 -0.12111648 -0.31900898 -0.4514604
0000f0 b7 01 41 be c7 c5 73 3c 0e 7f 27 be 8c 1e e7 bd
       -0.1884831 0.014878697 -0.16357061 -0.11285123
000100 87 9d 91 3e 09 89 0c 3d 85 93 eb 3e 2f 83 cf 3d
       0.28440496 0.034310374 0.46010986 0.10132443
000110 af eb c2 3d 9e f6 fe 3d 35 9b b2 bd 4e 45 de 3e
       0.09517609 0.12449382 -0.0872101 0.4341225
000120 6c ba 3f 3e 47 e4 60 bd a2 c5 68 3d 8e 8b 9d 3e
       0.18723458 -0.054905202 0.056829102 0.30770534
000130 15 48 92 3d db 9d 46 3e 5b 8f 24 3e 27 dc 82 be
       0.07142655 0.19396155 0.16070311 -0.25558588
000140 45 5c 5a be e3 b1 f6 bd bf 44 55 3e cf 41 43 bc
       -0.2132426 -0.12045648 0.20827006 -0.011917545
000150 98 e3 fd 3d 6c 9d ac 3e f2 a4 df bd bd 82 85 3e
       0.12396926 0.33713853 -0.10920133 0.26076308
000160 eb 11 6d be ac 5e e2 be 6e c7 18 be 86 48 5b 3e
       -0.23151366 -0.44212854 -0.14919826 0.21414384
000170 40 6a b4 3e 76 4e 23 3e 40 19 62 3e ec c2 bb bb
       0.35237312 0.15947899 0.22079945 -0.0057300236
000180 c7 c3 41 be fa 5e 0a 3e b2 ab cd be f7 8d 19 3e
       -0.1892234 0.13512793 -0.40170056 0.14995562
000190 c7 ea af 3d e2 7b d7 bd 80 22 99 be 5a 44 2f 3d
       0.08589702 -0.10521676 -0.29909134 0.042789795
0001a0 18 fe 2c 3e 1f 3d 89 3d a7 01 05 be cb fb 50 3e
       0.16893804 0.06701111 -0.12988912 0.20408551
0001b0 ea b6 d0 bd 1c ac d8 3a 56 30 04 bd c6 2b ec be
       -0.10191138 0.0016530785 -0.03227266 -0.46127146
0001c0 c6 53 21 be ad dc 8b be 7e d5 fb be eb ce 92 3c
       -0.15754613 -0.273168 -0.4918632 0.017920932
0001d0 42 01 39 be 61 a0 0b bf 61 da 19 bd de 56 13 3e
       -0.18066886 -0.54541594 -0.037561778 0.14388606
0001e0 83 f8 fa 3d 1d e6 d1 bd 6d 30 69 3e 2d 7a ad bd
       0.12254431 -0.10248969 0.22772379 -0.08470569
0001f0 bb ee cf 3e 1c 37 5f 3d 3e 9b 3a be cf e6 d1 3e
       0.40611824 0.054495916 -0.18223283 0.40996405
000200 68 0d 86 3d bd 68 86 be 44 13 e5 be de 0c 11 3d
       0.06545526 -0.26251784 -0.4474126 0.03541266
000210 dd f8 db 3e ce c1 93 3e a8 0e b5 3d 57 1c 0c 3e
       0.42963305 0.288588 0.08840686 0.13682686
000220 2e 2a d7 bd 2b 12 11 39 08 f0 c8 be f3 8a c2 ba
       -0.10506092 0.00013835046 -0.3924563 -0.0014842435
000230 2f b6 9a 3e 46 1f 19 be 74 75 98 3e d4 9e 8d 3e
       0.3021712 -0.14953336 0.2977711 0.2766024
000240 02 22 31 be 69 ab 87 3e b8 49 71 be ac cb ea 3c
       -0.17298129 0.26497963 -0.23563278 0.028661571
000250 b1 bd 85 bc 79 b7 60 be 8b 31 f6 3d c2 55 1f 3e
       -0.016325803 -0.2194499 0.12021168 0.15560058
000260 d9 a6 e2 3d 46 3e 95 3d 3f 99 6f 3d 20 51 d1 be
       0.1106698 0.07287268 0.058495756 -0.40882206
000270 4a e3 8a be 50 ae 21 bd 52 7c 0c be a9 7c a4 be
       -0.27126533 -0.039472878 -0.137193 -0.32126358
000280 aa 81 d8 ba c3 ab 47 3e a3 36 2c be ae 7d e5 3e
       -0.0016518135 0.19499116 -0.16817717 0.44822448
000290 95 87 1e 39 61 e5 1b 3e 6c 99 95 3c 4d 35 ed bd
       0.00015118562 0.1522422 0.018261634 -0.11582432
0002a0 dc 7f 56 be f9 5b ab 3c d3 d6 7d 3d 02 ec a8 bd
       -0.20947212 0.02091788 0.06197245 -0.0824814
0002b0 c1 0a bf bd 75 01 2f 3c 4d 52 a6 bc e8 9c 6d be
       -0.09328223 0.0106815 -0.020302916 -0.23204386
0002c0 a1 90 de bd d7 a9 20 3e 77 37 61 be 2a bf e8 be
       -0.108674295 0.15689789 -0.21993814 -0.45458347
0002d0 f0 a2 14 be f0 7e 3c 3e 13 70 89 3d 7c 45 28 be
       -0.1451528 0.18407798 0.067108296 -0.16432756
0002e0 b6 45 e8 bd 18 11 09 bd 78 e6 00 3d 57 4e 74 3d
       -0.11341421 -0.033463567 0.031469792 0.059645023
0002f0 fc ff b8 3d 74 14 8a 3d ed 3a b8 3c 7d 75 8f 3e
       0.090332 0.067421824 0.022489036 0.28019324
000300 7f bb 17 be f9 16 b8 bd dd 43 90 3e c7 b3 83 3e
       -0.14817618 -0.08988757 0.28176776 0.25723097
000310 40 51 25 bd 55 8d b4 3e 73 7e 89 3e c9 91 07 be
       -0.04036069 0.35264078 0.26854286 -0.13239206
000320 d0 e2 18 3e 7d c1 c9 3e d2 50 68 be 63 39 5a 3e
       0.14930272 0.39405432 -0.2268708 0.21310954
000330 dd 80 9a be fb 10 db be 1c fe 2e bd 83 7c 85 bd
       -0.3017644 -0.42786393 -0.042722806 -0.06517889
000340 e9 50 7d 3e 80 f2 5c 3e 91 e6 ee 3d c7 5e 95 bd
       0.24737896 0.21576881 0.11665071 -0.07293468
000350 7b c1 8c be e9 05 96 be f8 a5 16 bd 87 99 e1 3d
       -0.27491364 -0.29301384 -0.036779374 0.11015611
000360 86 f0 34 3e 07 86 81 3e f0 f0 8f 3e c5 2e 74 be
       0.17669877 0.25297567 0.28113508 -0.23845966
000370 6f 02 23 be 65 14 44 be 6e 8d 1b be cb cd 55 3e
       -0.15918897 -0.19148405 -0.1519067 0.20879285
000380 ca b9 b6 3e 78 f5 e3 bd 9c c5 8c 3e 9a 87 a4 3e
       0.3568862 -0.11130804 0.27494514 0.32134706
000390 70 05 f9 bc eb 45 e4 bd 4a 08 80 bd ea ae 43 bd
       -0.0303981 -0.11146148 -0.06251581 -0.047774233
0003a0 23 fa a1 3e 16 f6 6a 3e 99 0b a1 be 30 9e 27 3e
       0.31636152 0.22945437 -0.3145416 0.16368937
0003b0 57 93 81 bd 37 1c a3 be bb 1b 8d bc 58 b1 01 3e
       -0.06326931 -0.31857464 -0.017225137 0.12665308
0003c0 f3 ab 94 3e 65 86 90 be 38 c6 6e 3c e7 fb 10 3d
       0.29037437 -0.28227535 0.014573626 0.035396483
0003d0 68 dd 93 be 1d 89 fc bd 7b 5d 78 be 4b 86 8d 3c
       -0.28879857 -0.1233084 -0.2425441 0.01727595
0003e0 bb f5 55 3d 4a 79 6e be c8 04 db bd 81 70 db be
       0.0522363 -0.23288456 -0.10694271 -0.4285927
0003f0 96 b8 9c 3c 56 3a 34 3e c5 97 bc be eb 7e f3 bc
       0.019130986 0.17600378 -0.3683454 -0.029723605

classify.weight f4 [6, 20]
000000 a2 b2 cc be 86 6a a8 3e 47 ee bd be bb f8 9b be
       -0.39980036 0.3289377 -0.37095854 -0.30463204
000010 c9 8f ba be 0b 0e 27 3e 8e 2d da bc fe 4a 37 be
       -0.36437824 0.1631395 -0.02663305 -0.17899701
000020 bf 99 57 be 9d 48 46 3c ec e4 5f 3e 7b 86 63 3e
       -0.21054743 0.012102273 0.2186467 0.22219269
000030 01 ea 55 3e d1 df e6 be dc 7a 40 3e 1a d4 ab bc
       0.20890047 -0.45092633 0.18796867 -0.020975161
000040 c2 a3 57 3e f5 39 94 be 99 67 f7 be c8 2f 89 3e
       0.21058562 -0.28950468 -0.48321226 0.26794267
000050 37 a7 bb 3e 0c 83 d1 bd 83 73 17 3d 68 44 33 be
       0.36651012 -0.10230073 0.036975395 -0.17506564
000060 4c 60 8a be 50 f3 9a be cb d9 82 be 41 44 92 3e
       -0.27026594 -0.30263758 -0.25556788 0.285677
000070 0a 64 82 3e 92 30 9d 3e 0a 0a 9d 3e 66 db 60 be
       0.2546695 0.3070112 0.30671722 -0.21958694
000080 d6 19 ee bc 63 cb 56 3e 48 81 34 be 1e e3 e2 3d
       -0.029065054 0.20976023 -0.17627442 0.110784754
000090 d0 14 a0 3e 60 f3 a2 be 87 2f 8c 3e c8 b2 e4 3e
       0.3126588 -0.31826305 0.2738001 0.4466765
0000a0 d8 07 8f 3e 45 25 05 be ee ad 75 3e 62 a6 9f 3e
       0.27935672 -0.13002498 0.2399213 0.31181628
0000b0 42 43 bc be 14 58 74 3c 8e b6 0d be c2 96 65 be
       -0.36770064 0.014913578 -0.1383917 -0.22420791
0000c0 f8 c0 3c 3e 31 be a6 3e 05 dd bf 3e 42 27 b0 3e
       0.18432987 0.3256698 0.37473312 0.3440495
0000d0 00 41 a3 be 75 66 1e 3c ae 18 d9 3e e6 18 de be
       -0.3188553 0.009667982 0.42401642 -0.4337837
0000e0 fd 28 44 be 5f 65 a2 3e 93 bc 08 3e 34 9a c1 be
       -0.19156261 0.31717965 0.13353185 -0.3781296
0000f0 01 f7 a6 be 89 c8 67 3e ef dc a5 be 86 1f 6e 3e
       -0.32610324 0.22635092 -0.3239512 0.23254213
000100 fd 37 cc 3e d3 bc ba be 42 4e 74 3e ac 78 f6 bd
       0.39886466 -0.36472186 0.23857978 -0.12034735
000110 98 26 ab be 88 b9 01 3e 52 50 08 be 93 da a4 3e
       -0.33427882 0.12668431 -0.1331189 0.3219801
000120 b6 56 68 be 59 21 98 be 43 0a d9 be 36 b4 9e 3e
       -0.22689328 -0.29712942 -0.42390642 0.30996865
000130 e9 1b 7b be 1c 96 0e 3c cd 36 41 3e d0 0f d5 be
       -0.24522366 0.008702781 0.18868561 -0.41613626
000140 dc de a7 be 60 c3 b5 be 6e e9 85 3d f5 6a 4f be
       -0.32787216 -0.35500622 0.06538664 -0.20255645
000150 af fc 3c 3e c6 37 4a 3e 41 59 e2 3e c2 9d 97 3e
       0.18455766 0.19747838 0.4420872 0.29612547
000160 fe 90 88 3e 40 b4 c6 be ee e8 92 be 08 61 4c 3e
       0.2667312 -0.38809395 -0.28693336 0.1995889
000170 44 98 a0 3e c6 88 7a 3e e7 1a 77 3e 56 dd 93 3e
       0.3136617 0.24466237 0.24131356 0.28879803
000180 3e 55 a2 3e bf 3c 5a 3e ae 25 0f bc e1 df 06 3e
       0.3170566 0.21312235 -0.008737011 0.1317134
000190 ad 6f a4 3e 44 80 f6 be 6b cd ba bc 48 2f b7 3e
       0.32116452 -0.48144734 -0.022803029 0.3577826
0001a0 a6 27 83 3e b2 1c bc 3e b9 31 42 be 1e 58 01 be
       0.25616187 0.36740643 -0.1896428 -0.1263127
0001b0 37 c8 89 be 61 d5 57 be b9 73 97 be 45 6e 5b be
       -0.26910564 -0.21077491 -0.29580477 -0.21428783
0001c0 d4 db f3 3d 26 7d 95 3d 27 2e c8 be 29 3f b6 be
       0.11907163 0.07299261 -0.3909771 -0.35595062
0001d0 4d 45 b7 be 41 11 89 be bd 46 7b be f9 0e bb be
       -0.3579506 -0.26770976 -0.24538703 -0.3653486

classify.bias f4 [6]
000000 14 be 84 3e 37 ff 49 3e 46 7b 38 3e 4b 47 6b 3c
       0.25926268 0.19726263 0.18015775 0.014360259
000010 25 31 a0 3d 6c 9b 25 be
       0.078218736 -0.1617257
