pythonProject/第三周/model.pth (torch, 4102 bytes, 2 tensors)

embedding.weight f4 [28, 20]
0	0x00000000	0.0
1	0x00000000	0.0
2	0x00000000	0.0
3	0x00000000	0.0
4	0x00000000	0.0
5	0x00000000	0.0
6	0x00000000	0.0
7	0x00000000	0.0
8	0x00000000	0.0
9	0x00000000	0.0
10	0x00000000	0.0
11	0x00000000	0.0
12	0x00000000	0.0
13	0x00000000	0.0
14	0x00000000	0.0
15	0x00000000	0.0
16	0x00000000	0.0
17	0x00000000	0.0
18	0x00000000	0.0
19	0x00000000	0.0
20	0x400da3a2	2.2131124
21	0x3fb3dab2	1.4051116
22	0x40354cdb	2.832816
23	0xbf194f22	-0.5988637
24	0x3faf57e5	1.3698698
25	0xc00c8829	-2.1958106
26	0x3fada676	1.3566425
27	0x3f5ae718	0.8550887
28	0xc00b47a5	-2.1762478
29	0x3e123105	0.14276512
30	0x3fc1e91b	1.5149263
31	0xbf8fd053	-1.123545
32	0xbecf1478	-0.40445304
33	0xbfb0db01	-1.3816835
34	0x3fa28aa3	1.2698559
35	0x3fec71fd	1.8472286
36	0x3fc62b8a	1.5482037
37	0xbff97579	-1.9488975
38	0xbf02daeb	-0.5111529
39	0xbfa7aadc	-1.3099017
40	0x3fa2bfff	1.2714843
41	0xbf2efa42	-0.68350613
42	0x3ecddf95	0.40209642
43	0xbfbace3a	-1.4594185
44	0x4016d877	2.356962
45	0xbfeec82b	-1.8654836
46	0x3f0c3d05	0.5478061
47	0x3fb8d6a6	1.4440506
48	0xbff79ccc	-1.9344726
49	0x3f4026ee	0.750594
50	0x4011e8ba	2.2798295
51	0xc020e3b2	-2.5138974
52	0xc013ab4c	-2.3073301
53	0xbf9a4f1d	-1.2055393
54	0x3fde74c8	1.7379389
55	0x3ecaf98a	0.39643508
56	0x3fcf0e11	1.6176168
57	0xbf113c78	-0.56732893
58	0xbfa837c2	-1.3142016
59	0xbff2972b	-1.8952383
60	0x3fd79feb	1.6845678
61	0xc01b8106	-2.42975
62	0x40197694	2.3978624
63	0x3f7e3a27	0.99307483
64	0x3fc5d1ea	1.5454686
65	0xc00642d4	-2.0978289
66	0x3ffc0c77	1.9691304
67	0xbe3954a4	-0.18098694
68	0xbfa2c071	-1.2714978
69	0x3f1f76b0	0.6229048
70	0x3f2255c6	0.6341213
71	0xc03b8d69	-2.930506
72	0xbf414476	-0.7549509
73	0xbf5ddefd	-0.8666838
74	0xbced148c	-0.028940462
75	0x4006266d	2.0960953
76	0x401939f6	2.3941627
77	0xc02d23f8	-2.7053204
78	0xbdef59d0	-0.11687052
79	0xbfd34f93	-1.6508659
80	0xbf93786a	-1.1521122
81	0xbf9eb67b	-1.2399439
82	0x400277ba	2.0385575
83	0x3d998bb6	0.07497351
84	0xbf29efd9	-0.66381603
85	0xbda9a24b	-0.08282908
86	0xbecf161e	-0.40446562
87	0xbe823d03	-0.25437173
88	0xbdead6ea	-0.11466773
89	0xbfcc9f2c	-1.5986075
90	0xbfea90cb	-1.8325437
91	0xbfa65ad2	-1.2996466
92	0x3fb6db32	1.4285643
93	0x3f3a9bdf	0.7289409
94	0x3f8405d6	1.0314281
95	0xbe74887f	-0.23880194
96	0x3f2868ea	0.65785086
97	0x3e9f0a26	0.3106243
98	0xbe824d45	-0.25449577
99	0xbd1e39f4	-0.038629487
100	0xbf7ab9a6	-0.9793953
101	0x3f9fb3f1	1.2476789
102	0xc00ab9a7	-2.1675813
103	0x3eac2b95	0.33627
104	0x3d3cbd9b	0.04607926
105	0x3f7ee373	0.9956581
106	0x3f8a80d1	1.0820562
107	0xbc678789	-0.014131435
108	0x3f86272f	1.0480708
109	0x3ef58146	0.4795019
110	0x3f81f464	1.0152707
111	0x3f4c3504	0.79768395
112	0xbfcfaf5a	-1.6225388
113	0x3ee87c33	0.45407256
114	0xbe40f65c	-0.18843979
115	0x3c555e1a	0.013022924
116	0x3f2f81f2	0.68557656
117	0x3f58fae5	0.84757835
118	0x3ff7a985	1.9348608
119	0x3fb72187	1.4307107
120	0xbf3ef763	-0.7459623
121	0x3f2e9fce	0.6821259
122	0xbfb73c76	-1.4315326
123	0xbfe957eb	-1.8229955
124	0x3fa9acde	1.325588
125	0x3d2bc5b9	0.04193661
126	0xbee28d04	-0.4424821
127	0x3f0d6e3f	0.5524635
128	0xbe0ed6bd	-0.13949104
129	0x3fbcda1e	1.4754064
130	0xbef9b858	-0.48773456
131	0xbf650b42	-0.89470303
132	0x3e9c5050	0.30530024
133	0x3efb2fb1	0.49059823
134	0x3f87805b	1.0586046
135	0xbfec7384	-1.8472753
136	0x3da18d68	0.07888299
137	0x3eb36997	0.35041496
138	0x3ff07546	1.8785789
139	0x3f823dfe	1.0175169
140	0x3e9a31e5	0.30116192
141	0xbf568ab3	-0.8380539
142	0xbe4a34f1	-0.19746758
143	0x3fb5a891	1.4192067
144	0x3f332dcd	0.6999176
145	0x3f49fc46	0.78900564
146	0x3fbdb29e	1.4820135
147	0x3f754e9b	0.9582307
148	0x3eec994f	0.46210715
149	0xbee9e74f	-0.45684287
150	0xbf3d87c4	-0.74035287
151	0xbefb8f9e	-0.4913301
152	0xbe9b684c	-0.3035301
153	0x3fcf151b	1.6178316
154	0xbf74fab8	-0.95695066
155	0x3e805a6c	0.25068986
156	0xbec6b868	-0.38812566
157	0x3e8014a1	0.2501574
158	0xbe9c7c05	-0.3056337
159	0x3fae6c31	1.3626767
160	0xbfa62899	-1.298114
161	0xbfb4ebeb	-1.4134496
162	0x3fa90b07	1.320649
163	0xbf874ec8	-1.0570917
164	0xbf071f16	-0.5278181
165	0xbf501ab8	-0.8129077
166	0xbb28bfac	-0.002574901
167	0xbec9a07c	-0.39380252
168	0xbf3342bd	-0.7002371
169	0xbf044637	-0.5166964
170	0xbe75d113	-0.24005537
171	0xbfcfb5c1	-1.6227342
172	0x3f0302fa	0.51176417
173	0x3eaa2439	0.3323076
174	0xbe4e7cc5	-0.20164783
175	0xbfa27634	-1.2692323
176	0xbf482787	-0.78185314
177	0x3ed4a23b	0.41530022
178	0xbf002958	-0.50063086
179	0x3fb76949	1.4329005
180	0x3fab965a	1.3405259
181	0xbf3ac33a	-0.7295414
182	0x3ebab0f6	0.36463135
183	0xbf078138	-0.5293155
184	0x3f1f3f59	0.62206036
185	0x3cbb7d58	0.022886917
186	0xc0166aee	-2.3502765
187	0x3f278b37	0.654468
188	0x3f96be96	1.1776912
189	0xbf679f6d	-0.9047764
190	0xbea69033	-0.3253189
191	0x3f411162	0.7541715
192	0x3e17e3ef	0.14833044
193	0x3d2a1d65	0.04153194
194	0xbf86be87	-1.0526894
195	0xbeed013c	-0.46290004
196	0x3fae900b	1.3637708
197	0x3fc95030	1.5727596
198	0x3eb36a8a	0.3504222
199	0xbe277f78	-0.16357219
200	0xbe9029da	-0.2815693
201	0xbee9d904	-0.45673382
202	0xbf6f55db	-0.9349038
203	0xba7a6eb0	-0.0009553237
204	0x3f625f44	0.88426614
205	0xbf696ba4	-0.9117987
206	0x3f826b3a	1.0188973
207	0xbf108c3f	-0.56464
208	0xbf55ed4c	-0.8356521
209	0xbbe12c90	-0.0068717673
210	0xbf4a77f7	-0.790893
211	0x3f09eff1	0.53881747
212	0x3e48abb8	0.19596756
213	0x3f8da3a5	1.1065565
214	0xbe27d9f9	-0.16391744
215	0xbe1c248c	-0.15248317
216	0xbfbd7b94	-1.4803338
217	0x3f0b38be	0.54383457
218	0xbf17b939	-0.59267
219	0x3f7883cc	0.97076106
220	0x3fa7f6db	1.3122209
221	0x3fc22692	1.5168021
222	0x3fd7bb46	1.6854026
223	0x3fd118b0	1.6335659
224	0x3c8461ff	0.01616001
225	0x3f0489a5	0.5177253
226	0xbc81521e	-0.015786227
227	0xbf1574fd	-0.58381635
228	0x3eb583cd	0.3545212
229	0xbf326c02	-0.69696057
230	0xbf844310	-1.0332966
231	0xbf9c6e61	-1.2221185
232	0x3df74757	0.12074154
233	0x3f7a4452	0.977605
234	0xbf0d448d	-0.55182725
235	0x3fd84723	1.6896709
236	0xc00a22fb	-2.158385
237	0xbf1f97e8	-0.62341166
238	0xbf9d54bf	-1.2291487
239	0x3f45b343	0.77226657
240	0xbea6e703	-0.32598123
241	0x3f64918d	0.8928459
242	0x3fbef2f9	1.4917899
243	0xbf70433d	-0.938526
244	0xbfd0ec51	-1.6322118
245	0xbfa3fe89	-1.2812053
246	0x3fb05ce2	1.3778346
247	0xbf18e05b	-0.5971734
248	0x3ee1a48e	0.44070858
249	0xbf83c1a5	-1.0293471
250	0x3e0a5bdc	0.13511604
251	0x3db54529	0.08851082
252	0xbe39c62b	-0.18142001
253	0x3f19558b	0.59896153
254	0xbf0d09a9	-0.55092865
255	0xc0016e24	-2.0223475

classify.weight f4 [1, 20]
0	0x3f345638	0.7044406
1	0xbe4f1bc8	-0.20225441
2	0x3ebd9462	0.3702727
3	0xbe2d7b27	-0.1694151
4	0x3f47764e	0.77914894
5	0xbf5cfd7c	-0.86324286
6	0x3ef52db5	0.47886434
7	0x3e80c01b	0.25146565
8	0xbf506ada	-0.8141304
9	0x3e25a9c8	0.16178048
10	0x3f6de398	0.92925406
11	0xbf0fe762	-0.5621244
12	0xbf41f1f7	-0.75759834
13	0xbefcb17f	-0.4935417
14	0x3ef2fed2	0.47460037
15	0x3f4d11ea	0.8010546
16	0x3f84050e	1.0314043
17	0xbf4c291e	-0.7975024
18	0xbe85279a	-0.26006776
19	0xbed7ac28	-0.42123532
