pythonProject/week3 深度学习处理文本/model4.pth (torch, 8067 bytes, 5 tensors)

embedding.weight f4 [28, 20]
0	0x00000000	0.0
1	0x00000000	0.0
2	0x00000000	0.0
3	0x00000000	0.0
4	0x00000000	0.0
5	0x00000000	0.0
6	0x00000000	0.0
7	0x00000000	0.0
8	0x00000000	0.0
9	0x00000000	0.0
10	0x00000000	0.0
11	0x00000000	0.0
12	0x00000000	0.0
13	0x00000000	0.0
14	0x00000000	0.0
15	0x00000000	0.0
16	0x00000000	0.0
17	0x00000000	0.0
18	0x00000000	0.0
19	0x00000000	0.0
20	0x3fae61bc	1.3623576
21	0xbe801ae8	-0.25020528
22	0x3fd845ae	1.6896265
23	0x3f9a7230	1.2066097
24	0xbf8d4c49	-1.1038905
25	0x3faf272d	1.368383
26	0xbfce3115	-1.6108729
27	0x3f8ae776	1.0851886
28	0xbea655ed	-0.3248743
29	0xbfc9c494	-1.5763116
30	0xbf54e835	-0.8316682
31	0xbf522699	-0.82090145
32	0xbfc64009	-1.5488292
33	0x3f86df4f	1.0536898
34	0xbf44c9d2	-0.76870453
35	0xbf98a386	-1.1924903
36	0xbff424f5	-1.9073778
37	0x3ee384a5	0.44437137
38	0x3e56d8c4	0.20981127
39	0xbdcf4a73	-0.10121622
40	0xbf022ed0	-0.5085268
41	0xbe26b6f2	-0.16280726
42	0x3f58ae92	0.84641373
43	0xbf99a0a5	-1.200215
44	0xbc74723f	-0.0149198165
45	0xbd170d90	-0.03687817
46	0x3fa7e599	1.3116943
47	0xbed165a0	-0.40897846
48	0xbf23db01	-0.6400605
49	0x3f33a7cd	0.7017792
50	0x3e07ebe6	0.13273582
51	0xbf4aa7b7	-0.7916216
52	0x3f003234	0.50076604
53	0x3ea99144	0.3311864
54	0x3e49b816	0.1969913
55	0x3f76c45b	0.96393365
56	0xbfdf819d	-1.746143
57	0xbe21a58e	-0.1578581
58	0x3f5b9bcb	0.85784596
59	0x3fab4415	1.3380152
60	0xbf0eac17	-0.5573134
61	0xbfbb7208	-1.4644175
62	0x3d32af79	0.043624375
63	0x3d16cc3c	0.036815867
64	0x3ec66951	0.38752225
65	0x3f49d091	0.7883387
66	0x3e368b6e	0.17826626
67	0x3e84fbe6	0.25973433
68	0x3c0b810f	0.008514657
69	0xbe8c0116	-0.27344579
70	0xbfc9e10c	-1.5771804
71	0xbd5663e7	-0.052341368
72	0x3fdf28b4	1.7434297
73	0x3fa194b1	1.2623502
74	0x3f0921fd	0.53567487
75	0xbe14e213	-0.14539365
76	0x3e87ef71	0.26549867
77	0xbecec287	-0.40382788
78	0x3d6e727f	0.05821466
79	0xbf9c97e7	-1.2233857
80	0xbf531621	-0.8245564
81	0xbfbc8c13	-1.4730247
82	0x3efc5ef8	0.49291205
83	0xbeb4360d	-0.35197487
84	0x3f35c841	0.7100869
85	0xbf2d7c4c	-0.67767787
86	0x3d83948c	0.064248174
87	0xbddaaa19	-0.10676975
88	0x3ef89def	0.48557994
89	0xbd33b763	-0.043876063
90	0x3f505293	0.81376
91	0x3e34fc36	0.17674336
92	0x3f8f2385	1.1182715
93	0xbf9b4115	-1.2129236
94	0x3f864303	1.04892
95	0xc0103ad9	-2.2535918
96	0x3f4bed35	0.79658824
97	0x3e37a27e	0.1793308
98	0x3c3c746e	0.011502368
99	0xbd31681b	-0.043312173
100	0x3f62a55e	0.8853358
101	0x3f360f9d	0.71117574
102	0xbfd79ffc	-1.6845698
103	0xbe25d46f	-0.16194318
104	0x3fe122f8	1.7588797
105	0xbf5ce7c5	-0.8629115
106	0xbe396bc3	-0.18107514
107	0xbebcbbc3	-0.36862
108	0xbfb299bc	-1.3953166
109	0xbf537c7f	-0.8261184
110	0x3da107ea	0.078628376
111	0xbfe560f2	-1.792021
112	0x3e07e16d	0.13269587
113	0x3f39f774	0.7264321
114	0xbff72ff6	-1.9311512
115	0x3f3b8736	0.7325319
116	0x3f552fa8	0.8327584
117	0x3ecdf85c	0.40228546
118	0x3f430bf9	0.76190144
119	0x3d68fc11	0.056881014
120	0x3fc83f71	1.5644361
121	0xc00ccf64	-2.200158
122	0x3ed59799	0.41717222
123	0xbcce62b2	-0.025193546
124	0xbfa96039	-1.323249
125	0xbf9916f2	-1.1960127
126	0x3f3c5064	0.73560166
127	0xbf447cfd	-0.76753217
128	0xbfd24db9	-1.6429969
129	0x3f8bb00f	1.0913104
130	0x3e1939fe	0.14963529
131	0xbed2e2d9	-0.41188696
132	0xbc94c31c	-0.018159442
133	0x3f112f75	0.5671304
134	0x3ff7eb6d	1.9368721
135	0x3df31e5b	0.11871024
136	0x3f48b80c	0.78405833
137	0x3e24a5a3	0.1607881
138	0xbef76cae	-0.48325104
139	0x3ed7548c	0.42056692
140	0xbfe59566	-1.7936218
141	0x3f0b183c	0.54333854
142	0x400429c4	2.0650492
143	0xbeb87da8	-0.36033368
144	0x3f07270d	0.5279396
145	0xbe30214c	-0.17200202
146	0x3fdc0066	1.7187622
147	0xbf45c76b	-0.7725741
148	0xbe5149c8	-0.20438302
149	0xbecac430	-0.39602804
150	0x3f5803a5	0.8438056
151	0x400271b5	2.0381901
152	0xbf588611	-0.8457957
153	0x3be3b488	0.0069490112
154	0x3eeaaf33	0.4583679
155	0xbe441ed9	-0.19152392
156	0x3ed8b01d	0.42321864
157	0x3ec3786a	0.38177806
158	0x3f050ea7	0.5197548
159	0x3f87c339	1.0606452
160	0xbf9feabe	-1.2493513
161	0xbf3ffcd9	-0.7499519
162	0xbee5df83	-0.44897088
163	0xbfc0ddbe	-1.506767
164	0x3ded525e	0.11587976
165	0x3c90b26a	0.0176632
166	0x3eeda235	0.46412817
167	0x3f828bec	1.0198951
168	0x3ee8d290	0.45473146
169	0x3e8a3035	0.26989904
170	0xbf0c4c57	-0.54803985
171	0x3faba477	1.3409566
172	0xbda8b9a0	-0.0823853
173	0xbed5a144	-0.41724598
174	0x3f7d354b	0.98909444
175	0xbfa68ffe	-1.3012693
176	0xbf9d2bdc	-1.227901
177	0xbf120fed	-0.5705555
178	0xbf81e82e	-1.0148981
179	0x3eab2aac	0.33430994
180	0x3fedcc64	1.8578
181	0x40038cdb	2.0554721
182	0x400093c6	2.0090194
183	0xbfc17d08	-1.5116282
184	0x3e0a0247	0.13477431
185	0xbfa160e9	-1.26077
186	0x3d9cf713	0.07664313
187	0xbf809277	-1.0044698
188	0x3fc7d0ec	1.5610633
189	0x3e5b5859	0.2142042
190	0x3d964e2f	0.07339131
191	0x3faa14b2	1.3287566
192	0xbffc742e	-1.9722955
193	0x3fbe99e0	1.4890709
194	0x3f46b76e	0.7762364
195	0xbfbd5590	-1.4791737
196	0xbf0a0809	-0.5391851
197	0x3fa15946	1.2605369
198	0xbe607fcd	-0.21923752
199	0xbfdb5d31	-1.7137815
200	0x3e313890	0.17306733
201	0x3e9c352c	0.30509317
202	0x3f10708b	0.56421727
203	0xbedc0443	-0.42972
204	0x3e88d28f	0.26723143
205	0xba8e8959	-0.0010874673
206	0x3e69d2c2	0.22834304
207	0xbfae429b	-1.3614076
208	0x3f0f126b	0.5588748
209	0x3f12a8b3	0.57288665
210	0x3ee047b0	0.43804693
211	0xbfc1d758	-1.5143843
212	0x3fca5bec	1.5809302
213	0xbdc5a90e	-0.09651385
214	0xbf8b3459	-1.087535
215	0x3e23d1e8	0.15998042
216	0x3bab102d	0.005220434
217	0x3f443651	0.7664538
218	0xbe7f9dfb	-0.24962609
219	0x3eaed718	0.34148479
220	0xbe28a5e9	-0.1646954
221	0xbb48eeb9	-0.0030659868
222	0x3f75226a	0.95755637
223	0xbee7ce95	-0.45274797
224	0xbf68dd23	-0.9096243
225	0x3eb9eb6e	0.3631243
226	0x4017e914	2.373601
227	0xbdc18717	-0.094495945
228	0xc0028eec	-2.0399733
229	0xbbb8c2ae	-0.005638442
230	0x3fbdfaf8	1.4842215
231	0xbf74b451	-0.9558764
232	0x3fdb064a	1.7111294
233	0xbea957ec	-0.33074892
234	0xbfd51bb5	-1.664908
235	0x3efbc88b	0.4917644
236	0x3f61b2e1	0.8816357
237	0x3fe32116	1.7744472
238	0x3e69534f	0.22785686
239	0xbfcdf970	-1.6091747
240	0xbf62f4ff	-0.88655084
241	0xbff11c2f	-1.8836726
242	0xbf4f73e7	-0.8103623
243	0x3f15c5ef	0.5850515
244	0x3f68f6e1	0.9100171
245	0x3ee45bd4	0.4460131
246	0x3fa3d5c3	1.279961
247	0x3f8a3dc3	1.0800098
248	0xbfba0b2c	-1.4534659
249	0xbf9ab2d0	-1.2085819
250	0x3ea188f3	0.31549796
251	0xbfe53816	-1.7907741
252	0xbe1e4800	-0.15457153
253	0xbd2c252a	-0.04202763
254	0x3fa1caec	1.2640052
255	0x3d9ccc3c	0.07656142

layer.weight_ih_l0 f4 [20, 20]
0	0xbde5bc42	-0.11217548
1	0x3de04c30	0.109520316
2	0xbdc33469	-0.09531481
3	0xbe1528ca	-0.14566341
4	0x3da86f0f	0.08224308
5	0xbdc94bf3	-0.09828939
6	0x3d5eaa3e	0.054361574
7	0xbe172a54	-0.1476224
8	0x3c77b042	0.015117707
9	0xbdb20c42	-0.08693744
10	0xbe347275	-0.17621787
11	0x3c82a994	0.015950002
12	0xbc70d496	-0.014699122
13	0xbd3aac8b	-0.045574706
14	0x3e280a70	0.16410232
15	0xbc80cd13	-0.015722787
16	0x3e5272a0	0.20551538
17	0x3d867b52	0.0656649
18	0xbd996a06	-0.074909255
19	0x3d880103	0.06640818
20	0x3dc9f846	0.098618075
21	0x3d91e478	0.07123655
22	0x3e7e780d	0.24850483
23	0x3c134ee2	0.008990975
24	0xbe13d0d9	-0.14435138
25	0x38872d0e	6.445694e-05
26	0x3d4704d3	0.048588585
27	0xbda21e8c	-0.079159826
28	0xbc144876	-0.009050479
29	0xbd86af7b	-0.06576439
30	0xbe0efef1	-0.1396444
31	0xbe165a7d	-0.14682956
32	0xbe28577c	-0.16439623
33	0xbe0096d1	-0.12557532
34	0xbd40ad87	-0.04704049
35	0xbdce1834	-0.1006321
36	0xbe0311f3	-0.12799816
37	0x3ab28784	0.0013620709
38	0xbe233325	-0.15937479
39	0x3dedf683	0.11619284
40	0x3ca38d90	0.019964963
41	0x3d80ce7c	0.06289384
42	0x3c818e2c	0.015814863
43	0xbe0efee2	-0.13964418
44	0x3debf511	0.11521352
45	0xbdda255e	-0.106516585
46	0x3e32a13d	0.1744432
47	0x3b885801	0.0041608815
48	0x3dd0f391	0.102027066
49	0x3bce02dd	0.0062869624
50	0xbbda0617	-0.006653558
51	0x3e3e5c9a	0.18590012
52	0x3e8806a4	0.26567566
53	0xbd002da0	-0.03129351
54	0x3e183aa1	0.14866115
55	0x3e7f00fd	0.24902721
56	0x3dc1e79a	0.094680026
57	0xbc77be85	-0.015121107
58	0x3e09973c	0.13436598
59	0x3ba1f5c5	0.004942628
60	0x3dd395ec	0.1033133
61	0xbe3eddfd	-0.1863937
62	0x3d6e19d1	0.05813009
63	0xbddf3861	-0.10899425
64	0x3c647372	0.01394354
65	0xbd3f49f0	-0.04670137
66	0xbe6f2c23	-0.2335668
67	0x3e272f7f	0.16326712
68	0xbdbbc8ed	-0.09169183
69	0xbc5796de	-0.013158528
70	0xbcb289c8	-0.021794215
71	0x3dbc2d6f	0.09188353
72	0x3d9fa715	0.0779554
73	0x3e08d802	0.1336365
74	0xbd8aa2d7	-0.067693405
75	0xbc25107f	-0.010074734
76	0xbe020960	-0.12698889
77	0xbc736f24	-0.014858041
78	0x3d9a1f0b	0.07525452
79	0xbd3c7cb2	-0.046017356
80	0x3d5ac5d1	0.05341131
81	0x3d2de805	0.0424576
82	0x3d3f9cac	0.046780273
83	0xbe6b02d3	-0.22950296
84	0x3dbe6e10	0.092983365
85	0xbcd0e8f8	-0.025501713
86	0x3e04f859	0.12985362
87	0xbe2e219a	-0.17005005
88	0x3bb03bd9	0.005378228
89	0x3e361b55	0.17783864
90	0x3e49be2b	0.1970145
91	0x3d8dde4b	0.06927165
92	0x3e257969	0.16159596
93	0x3dd4f622	0.103985086
94	0x3d634c01	0.055492405
95	0xbda85dd5	-0.08221022
96	0x3e85cb02	0.26131445
97	0xbe7911a8	-0.24323142
98	0x3c8d5f7d	0.017257446
99	0x3d3c53c3	0.04597832
100	0xbbea2d64	-0.0071465243
101	0xbc9bdbc5	-0.019025693
102	0x3ce4aa30	0.027913183
103	0xbde9b5ee	-0.114116535
104	0x3e08e8cb	0.13370053
105	0xbe6e01f0	-0.23242927
106	0x3d3217db	0.04347978
107	0xbde113a9	-0.10990078
108	0xbc18c07a	-0.009323234
109	0x3e28d64b	0.16487996
110	0x3de26a29	0.11055405
111	0x3e2bb116	0.16766772
112	0x3d1b81b8	0.037965506
113	0xbd867462	-0.06565167
114	0xbbb1db39	-0.0054277447
115	0x3e0004a3	0.12501769
116	0x3e58d37a	0.21174422
117	0xbe69e488	-0.22841084
118	0xbdf4ffa1	-0.1196282
119	0xbce5cfb8	-0.02805315
120	0x3e170164	0.14746624
121	0x3e1e8b89	0.15482916
122	0x3e0eb12b	0.13934772
123	0x3e09ece7	0.13469277
124	0xbdd1570f	-0.10221683
125	0x3e29bb0d	0.1657526
126	0xbc9f59ee	-0.019452062
127	0x3e28f68e	0.16500303
128	0xbda703b6	-0.08155005
129	0xbe81c0a2	-0.2534228
130	0xbddf3b39	-0.10899968
131	0xbd81b081	-0.063324936
132	0xbe5ca95f	-0.21548985
133	0xbd65ccd1	-0.05610353
134	0x3c6d0b7d	0.014468071
135	0xbdc51b4e	-0.096243486
136	0xbe1f47e7	-0.15554772
137	0x3de87244	0.113499194
138	0xbe0e9f91	-0.13928057
139	0x3dc6a58b	0.096995436
140	0x3df5bb39	0.119986005
141	0x3cef2c1d	0.02919584
142	0x3d3a5303	0.045489322
143	0xbe691cc2	-0.22764876
144	0x3e8b8e8b	0.2725719
145	0xbe684228	-0.22681487
146	0x3c4c48dc	0.012468543
147	0xbda95535	-0.08268205
148	0xbd42bb88	-0.047542125
149	0x3d70688c	0.058693454
150	0x3cfa3470	0.030542582
151	0xbcd9fb86	-0.026609194
152	0x3e6c129f	0.23053978
153	0xbdc9ccb3	-0.098534964
154	0x3e5d4a77	0.21610437
155	0x3da812af	0.082066886
156	0x3e8461e7	0.25855944
157	0xbe5e7ed3	-0.21728067
158	0x3dea5671	0.11442269
159	0x3cde525a	0.027138878
160	0xbd8c171d	-0.06840346
161	0xbc186938	-0.00930243
162	0xbdef2652	-0.11677231
163	0x3c9e9620	0.019358695
164	0xbda5d3d4	-0.08097044
165	0xbe178bbb	-0.14799397
166	0xbdccf5d8	-0.100078285
167	0x3d80710f	0.06271564
168	0x3c3cf30e	0.011532558
169	0xbe0927da	-0.13394108
170	0x3d6d4773	0.057929467
171	0x3e42d8ff	0.1902809
172	0x3dce333b	0.10068365
173	0x3d12f62f	0.03587931
174	0xbdd7aa2b	-0.10530504
175	0xbdb90890	-0.09034836
176	0x3dd0a78a	0.101882055
177	0xbc801601	-0.015635492
178	0xbcd4d6c1	-0.025981309
179	0x3d852d53	0.065027855
180	0xbdd78c61	-0.10524822
181	0xbdc6d736	-0.09709017
182	0x3d49cd70	0.049268186
183	0xbd7fb5cf	-0.062429246
184	0x3e996b7e	0.29964823
185	0xbe59ba9e	-0.21262595
186	0x3e41d129	0.18927445
187	0xbe7243d6	-0.2365869
188	0x3dc98b68	0.09841043
189	0x3d727165	0.059190173
190	0x3e3ae057	0.18249641
191	0xbc84c9ac	-0.016209446
192	0x3e6e6542	0.23280814
193	0x3d202468	0.03909722
194	0x3e9cd75b	0.30633053
195	0xbd947762	-0.07249333
196	0x3d575745	0.05257346
197	0xbda48635	-0.080334105
198	0x3e25ed82	0.16203883
199	0xbe880e5e	-0.2657346
200	0xbe166caa	-0.1468989
201	0x3c216633	0.009851026
202	0xbe11d9be	-0.14243218
203	0xbe330e32	-0.17485884
204	0x3e0fd818	0.14047277
205	0xbd04828b	-0.032351058
206	0xbcbdeeaa	-0.023185093
207	0xbe52abfa	-0.20573416
208	0xbe02afbd	-0.12762351
209	0x3e24d509	0.16096891
210	0x3d70b90c	0.058770224
211	0x3e0a2a6d	0.13492747
212	0x3c4b407b	0.01240551
213	0x3e02dbb7	0.12779127
214	0x3cedc6f1	0.029025527
215	0x3dba2432	0.09088935
216	0x3dc9d225	0.09854535
217	0xbd932088	-0.07183939
218	0xbe571584	-0.21004301
219	0xbe48fad5	-0.19626935
220	0x3d265410	0.040607512
221	0xbdfa8023	-0.122314714
222	0x3d9c3fd9	0.076293655
223	0xbdd8e185	-0.105898894
224	0x3df4a8e6	0.11946277
225	0x3d2abf86	0.041686557
226	0xbbf3673a	-0.007428077
227	0xbe7f4f55	-0.24932607
228	0xbdf1f156	-0.11813609
229	0x3e893783	0.26800165
230	0xbd4d4bfa	-0.050121285
231	0xbd2bd65d	-0.04195248
232	0x3e6ea647	0.23305617
233	0x3df3f88f	0.11912643
234	0x3e6a6a76	0.22892174
235	0x3dfd32a7	0.12363177
236	0x3e74cc63	0.23906092
237	0xbc1b603f	-0.009483396
238	0xbd11c857	-0.03559145
239	0xbd54ecbe	-0.051983587
240	0xbcf2298d	-0.029560829
241	0x3d8e0633	0.06934776
242	0xbe6bf5a5	-0.23042925
243	0xbe812bfa	-0.25228864
244	0x3e4397f6	0.19100937
245	0xbe11cff4	-0.14239484
246	0x3e23f091	0.16009738
247	0xbd1915f9	-0.03737447
248	0x3e2f2cb2	0.17106894
249	0x3e648326	0.22315654
250	0x3df7f8ef	0.12108027
251	0xbdb6ea4e	-0.08931409
252	0x3e2b526d	0.16730662
253	0x3dbbac70	0.09163749
254	0xbd64f1cc	-0.055894658
255	0xbd1a520c	-0.037675902

layer.weight_hh_l0 f4 [20, 20]
0	0xbd0131b0	-0.031541526
1	0x3dee51f6	0.116367266
2	0xbea231bd	-0.31678572
3	0x3e6aecd0	0.229419
4	0xbec401ef	-0.38282725
5	0xbe03a079	-0.12854184
6	0x3d940166	0.07226829
7	0xbdc4b093	-0.09603991
8	0xbd9b0aac	-0.07570395
9	0x3d2f3cf5	0.042782743
10	0xbe1f8113	-0.15576582
11	0x3e97b4ea	0.29630214
12	0x3d4df678	0.05028388
13	0xbe9828fa	-0.29718763
14	0xbec87997	-0.39155266
15	0xbd0b1662	-0.033956893
16	0xbe158495	-0.14601357
17	0xbc0db1bf	-0.008648335
18	0x3e878f8a	0.264767
19	0x3d127ae5	0.035761733
20	0x3c468727	0.012117184
21	0x3e940646	0.28911036
22	0xbcadc25c	-0.021210842
23	0xbe3bb054	-0.18328983
24	0xbc06388b	-0.008192192
25	0xbe3db126	-0.18524608
26	0x3e879bc8	0.2648604
27	0xbde7f3de	-0.11325811
28	0x3ea96bc4	0.3309003
29	0xbca07d01	-0.019590857
30	0xbe5f3e8e	-0.21801206
31	0xbedc4c7a	-0.43027097
32	0xbb3e5311	-0.002904121
33	0x3e0979d5	0.13425381
34	0xbe8456d0	-0.25847483
35	0xbe9225f3	-0.28544578
36	0x3e9f0848	0.31061006
37	0xbd8f268f	-0.06989776
38	0xbe07570b	-0.13216798
39	0x3df33cc4	0.118768245
40	0xbe01db01	-0.126812
41	0xbe8f1538	-0.27945876
42	0xbdb6a107	-0.08917432
43	0xbe82341f	-0.2543039
44	0x3e8ce166	0.27515715
45	0x3e603271	0.21894242
46	0x3e84007c	0.2578162
47	0xbeb057c1	-0.3444195
48	0xbdbabacb	-0.09117659
49	0xbddbcc83	-0.10732367
50	0xbe94fd58	-0.29099536
51	0xbe629370	-0.22126555
52	0xbdb2f34a	-0.0873781
53	0xbce4586c	-0.027874194
54	0xbcc62d21	-0.024191441
55	0xbe9860f6	-0.29761475
56	0x3e845583	0.2584649
57	0xbe84c593	-0.25931987
58	0xbe514b66	-0.20438918
59	0x3db1c2e7	0.08679753
60	0xbdd2346d	-0.10263906
61	0x3ec6a74d	0.38799515
62	0x3d6621ba	0.056184508
63	0x3e07447a	0.13209715
64	0xbdabb5f4	-0.08384314
65	0xbe779eef	-0.24181722
66	0x3e00fbaf	0.1259601
67	0xbd8ec4aa	-0.069711044
68	0x3e9ba046	0.30395716
69	0xbd3d61f3	-0.04623599
70	0xbe27656b	-0.16347282
71	0xbe546706	-0.20742425
72	0xbd0e6f93	-0.034774374
73	0x3ca3fecf	0.020018963
74	0xbe8d3f43	-0.27587327
75	0xbe07940d	-0.1324007
76	0xbe4945bc	-0.19655508
77	0x3e8e8e2a	0.27842838
78	0x3dc74c15	0.09731308
79	0xbd7e1856	-0.062034927
80	0xbc96d52b	-0.018412193
81	0x3e0cf007	0.13763438
82	0xbdecc7dd	-0.115615584
83	0xbd124fc6	-0.03572061
84	0xbeba0286	-0.3633005
85	0x3e28ac67	0.16472016
86	0x3ea882fc	0.32912433
87	0xbe480efd	-0.19536968
88	0xbe8b71d5	-0.27235284
89	0x3dde49ef	0.108539455
90	0xbeb9a19e	-0.36256117
91	0x3c8e861b	0.01739793
92	0x3ea6999d	0.32539073
93	0xbcb79f6a	-0.022414882
94	0xbec25c24	-0.37960923
95	0xbdf911e8	-0.121616185
96	0x3ebfe050	0.37475824
97	0xbc859775	-0.016307572
98	0xbd030e93	-0.03199632
99	0xbecee35b	-0.40407833
100	0x3eb64c5d	0.35605136
101	0x3e030a0e	0.12796804
102	0xbde98756	-0.114027664
103	0xbdb679f8	-0.089099824
104	0x3e314f19	0.1731533
105	0x3eaf3086	0.34216708
106	0xbe95b44c	-0.29239118
107	0x3ea7c2f0	0.32765913
108	0x3d4ab544	0.049489275
109	0x3e7c7e44	0.24657542
110	0x3e20e11d	0.15710874
111	0x3ec8ca14	0.39216673
112	0x3e23c7a9	0.15994133
113	0x3d4d9aa1	0.050196294
114	0xbd70ac99	-0.058758352
115	0x3edfe3f5	0.43728605
116	0xbe7f775f	-0.2494788
117	0x3dd2e263	0.10297086
118	0xbda85834	-0.082199484
119	0x3d5ed136	0.054398738
120	0x3ddee6d4	0.10883871
121	0xbdd2b80b	-0.1028901
122	0x3e3efa1f	0.18650101
123	0xbe10f8cc	-0.14157408
124	0x3ee2ce38	0.44297957
125	0x3a1daf3e	0.0006015188
126	0xbe90ee44	-0.28306782
127	0xbdb454ae	-0.08805214
128	0x3ec95921	0.39325812
129	0xbd566f47	-0.052352216
130	0x3ec69df2	0.38792378
131	0x3e539474	0.20662099
132	0xbebff87d	-0.3749427
133	0xbd9f9073	-0.077912234
134	0x3e1adb0c	0.15122622
135	0x3ec2d501	0.38053134
136	0xbe9b6aed	-0.30355015
137	0xbe15840a	-0.1460115
138	0x3d6b20d3	0.05740435
139	0x3ea25004	0.31701672
140	0x3e529f71	0.20568635
141	0x3e8affac	0.27148187
142	0x3db27ce3	0.087152265
143	0x3e412536	0.18861851
144	0x3e82eacd	0.25569764
145	0xbec11ea4	-0.3771869
146	0xbdf05a3c	-0.11735961
147	0xbe68082b	-0.22659366
148	0x3e97ba9c	0.2963456
149	0xbe4029f9	-0.18766011
150	0xbe9b880a	-0.30377227
151	0xbed30183	-0.4121209
152	0xbe6d13f7	-0.23152147
153	0x3dff19c0	0.12456083
154	0xbe8a1882	-0.26971823
155	0x3def194c	0.11674747
156	0x3d9b6278	0.07587141
157	0xbc8a136d	-0.016854966
158	0x3aee83a5	0.0018197192
159	0x3c694baf	0.014239236
160	0xbe167df6	-0.14696488
161	0x3d0e3958	0.034722656
162	0xbcbb5a12	-0.022870097
163	0xbe3c89cd	-0.18411942
164	0xbe737339	-0.23774423
165	0xbd033ab1	-0.032038394
166	0x3e66b295	0.22529061
167	0xbe942ad3	-0.28938922
168	0x3e0c4699	0.13698806
169	0x3c9624b5	0.01832805
170	0xbe724a3d	-0.23661132
171	0xbeb2fc7d	-0.34958258
172	0x38681526	5.5332806e-05
173	0x3cdecaa9	0.027196245
174	0xbca97172	-0.020683978
175	0xbeb8f96e	-0.361278
176	0x3ee0b70b	0.4388965
177	0xbde053b4	-0.10953465
178	0xbe65cff4	-0.22442609
179	0xbe1f42d7	-0.15552841
180	0x3e18d446	0.14924726
181	0xbd9cc897	-0.07655447
182	0x3d9db4af	0.07700478
183	0x3c47ed96	0.012202641
184	0x3e6fae1d	0.23406263
185	0x3e36ec0a	0.1786348
186	0xbde91a98	-0.113820255
187	0x3eabf54a	0.33585578
188	0xbe7f7115	-0.24945481
189	0x3e7f3a14	0.24924499
190	0x3e9c9684	0.30583584
191	0x3c20cd92	0.009814637
192	0x3e04b6e2	0.1296039
193	0x3e81708e	0.25281185
194	0x3e0ea898	0.13931501
195	0x3e992bd1	0.29916242
196	0xbe8efa15	-0.27925172
197	0x3e521884	0.20517164
198	0xbe8fb573	-0.28068122
199	0xbe4085d9	-0.18801059
200	0xbd92a1fb	-0.071598016
201	0x3e9158e0	0.2838812
202	0xbe788975	-0.24271186
203	0x3e2ac169	0.16675343
204	0xbdab11d7	-0.08353012
205	0xbe0c6c0f	-0.13713096
206	0x3e95abee	0.29232734
207	0x3e2f38e9	0.17111553
208	0x3c2033b6	0.009777954
209	0xbed3cb20	-0.4136591
210	0x3e51dcea	0.20494428
211	0x3de3fc31	0.11132086
212	0xbe10a8d3	-0.14126901
213	0xbc8418eb	-0.016125163
214	0xbe6c2deb	-0.23064391
215	0x3df601eb	0.120120846
216	0x3e495e9e	0.19665
217	0x3eaed731	0.34148553
218	0x3e807aee	0.25093788
219	0xbd7e7e47	-0.062132146
220	0x3dfad717	0.122480564
221	0x3d4aa143	0.049470197
222	0x3c67303f	0.014110624
223	0x3e18d4ed	0.14924975
224	0xbdc90c09	-0.09816749
225	0xbea25ef1	-0.3171306
226	0x3c1b38d6	0.009474
227	0x3e9e3661	0.30900863
228	0x3e89e9ae	0.26936096
229	0xbdda538c	-0.106604666
230	0xbd69f862	-0.057121642
231	0xbcddf7b8	-0.02709566
232	0x3df78b80	0.120871544
233	0xbbd00148	-0.006347809
234	0xbe81edb6	-0.25376672
235	0x3e2efa76	0.17087731
236	0xbe894f5f	-0.26818368
237	0x3eebcf0c	0.46056402
238	0x3ef4bd60	0.47800732
239	0xbe2b0ade	-0.16703364
240	0x3ea23dab	0.31687674
241	0x3df71bd7	0.12065857
242	0x3e0f521c	0.13996166
243	0x3da71642	0.08158542
244	0x3ea17743	0.31536302
245	0xbe6ba8c7	-0.23013602
246	0xbecfdd40	-0.40598488
247	0xbdac2225	-0.0840495
248	0x3df427ed	0.11921678
249	0x3e1034c6	0.14082631
250	0x3eac3af6	0.33638734
251	0x3e7ccadd	0.24686761
252	0xbcc2a5af	-0.023760645
253	0x3e1ab114	0.15106612
254	0x3df6c320	0.12048936
255	0x3eabde8c	0.33568227

classify.weight f4 [6, 20]
0	0xbe738f24	-0.23785073
1	0xbc82e1de	-0.015976842
2	0x3ed56b81	0.4168358
3	0xbd3e3af5	-0.046442945
4	0x3ed8db0a	0.42354614
5	0xbd36e477	-0.044651475
6	0xbed5bb08	-0.41744256
7	0xbdffe673	-0.124951266
8	0x3e8d3fa7	0.27587625
9	0x3e7a7e99	0.24462356
10	0xbed4c7bf	-0.41558644
11	0xbe83712c	-0.2567228
12	0xbea5f2a0	-0.3241167
13	0x3db8ad9b	0.090174876
14	0x3ed138fa	0.40863782
15	0xbe8f75d6	-0.2801959
16	0x3eaefaa3	0.34175596
17	0xbe92d1e9	-0.28675774
18	0xbde467f7	-0.11152642
19	0x3df49933	0.11943283
20	0xbc164f02	-0.00917411
21	0xbebc2019	-0.3674324
22	0x3e457761	0.1928382
23	0xbe9205a4	-0.28519928
24	0xbe078556	-0.13234457
25	0x3eb71c03	0.3576356
26	0x3ebf9beb	0.37423643
27	0xbd7184d7	-0.058964577
28	0xbe14c31a	-0.1452755
29	0x3e82b889	0.25531414
30	0xbeb3ae0a	-0.3509372
31	0xbeacb458	-0.3373134
32	0x3eacb230	0.33729696
33	0x3da9a313	0.08283057
34	0x3ecd18e9	0.40058067
35	0xbeb4722b	-0.35243353
36	0xbdc911e7	-0.09817868
37	0x3e3638d9	0.17795123
38	0xbecea611	-0.40361074
39	0xbe017dd0	-0.1264565
40	0x3edda0dd	0.4328679
41	0xbebe5cf5	-0.37180296
42	0xbe93273e	-0.28740877
43	0x3e35bd2f	0.17747949
44	0x3eca7d01	0.39548495
45	0x3ea9e5a3	0.3318301
46	0xbe44c682	-0.1921635
47	0xbe9ac2ff	-0.30226895
48	0xbe819b2d	-0.25313702
49	0x3ea9050f	0.33011672
50	0x3e5c519f	0.21515511
51	0x3e938e8a	0.28819686
52	0xbe895021	-0.26818946
53	0xbe87af05	-0.26500717
54	0x3ecd58bf	0.4010677
55	0x3e92f335	0.28701177
56	0xbe12bd13	-0.14329939
57	0xbe39060e	-0.18068716
58	0xbd8b8a4d	-0.06813488
59	0x3ea6f50b	0.32608828
60	0xbd321e6d	-0.043486048
61	0xbe19128e	-0.14948484
62	0xbe86f894	-0.26361525
63	0x3e25ac68	0.16179049
64	0xbe8d7a27	-0.27632257
65	0x3dd8cfc0	0.105865
66	0x3eb1d2c5	0.34731117
67	0x3ed15b8e	0.40890163
68	0xbe82a26c	-0.25514543
69	0x3eadb0fd	0.33924094
70	0x3ebe3839	0.3715227
71	0x3e7a1cd2	0.24425057
72	0x3dd2bea5	0.10290269
73	0x3dfa734a	0.12229021
74	0xbe8bf962	-0.273387
75	0x3ea033e6	0.31289595
76	0xbec104e1	-0.37699035
77	0x3ec80dd4	0.3907305
78	0x3eafa625	0.34306446
79	0xbeca9d12	-0.3957296
80	0x3e963bfb	0.29342636
81	0x3e8f4555	0.27982584
82	0x3e8b79df	0.27241418
83	0x3eaea1f4	0.34107935
84	0x3ebd81e3	0.37013158
85	0xbe171d66	-0.14757308
86	0xbe5837c6	-0.21115026
87	0x3e688a5b	0.22709028
88	0x3e94f459	0.29092672
89	0xbebca713	-0.36846218
90	0x3ec87673	0.3915287
91	0x3e39484d	0.18093987
92	0xbe7f61fe	-0.24939725
93	0x3eb4f489	0.35342816
94	0xbe8db72a	-0.27678806
95	0x3e1bd0a1	0.15216304
96	0xbe986b31	-0.2976928
97	0x3e62263d	0.22084899
98	0x3eb924c3	0.3616086
99	0x3e891e94	0.26781142
100	0xbe855364	-0.26040184
101	0x3d8f1567	0.06986504
102	0xbe5d9f67	-0.21642838
103	0x3e87dac7	0.265341
104	0xbdc2c7a0	-0.09510732
105	0xbeb87621	-0.36027625
106	0x3e8d394b	0.27582774
107	0xbdc54c9c	-0.09633753
108	0xbd9a1b13	-0.07524695
109	0xbeed0913	-0.46295986
110	0xbe67db3f	-0.2264223
111	0xbe83c117	-0.25733253
112	0xbecb976b	-0.3976396
113	0xbebbf7d7	-0.36712524
114	0xbeb002c6	-0.34377116
115	0xbe7f0b6e	-0.24906704
116	0x3ec26e34	0.37974703
117	0x3e00c03c	0.12573332
118	0x3ec5ae59	0.3860958
119	0xbe844703	-0.25835428

classify.bias f4 [6]
0	0xbd2fe213	-0.04294021
1	0x3d00c5c1	0.031438593
2	0xbe23d64e	-0.1599972
3	0xbd8f03b0	-0.06983125
4	0x3b8df21e	0.004331841
5	0x3d15ceeb	0.036574285
