pythonProject/week3 深度学习处理文本/model.pth (torch, 4102 bytes, 2 tensors)

embedding.weight f4 [28, 20]
000000 00 00 00 00 00 00 00 00 00 00 00 00 00 00 00 00
       0.0 0.0 0.0 0.0
000010 00 00 00 00 00 00 00 00 00 00 00 00 00 00 00 00
       0.0 0.0 0.0 0.0
000020 00 00 00 00 00 00 00 00 00 00 00 00 00 00 00 00
       0.0 0.0 0.0 0.0
000030 00 00 00 00 00 00 00 00 00 00 00 00 00 00 00 00
       0.0 0.0 0.0 0.0
000040 00 00 00 00 00 00 00 00 00 00 00 00 00 00 00 00
       0.0 0.0 0.0 0.0
000050 cd 4d 4f bf 4f 42 97 c0 0d 27 57 3f 0b 20 1a 40
       -0.8097809 -4.7268443 0.8404396 2.4082057
000060 cf 96 5d 3f a3 c2 b6 3f 1e 6e 3a bf 82 e6 ba bf
       0.8655824 1.4278148 -0.72824275 -1.4601595
000070 23 56 de bf 45 0a 08 c0 73 a3 84 c0 f2 21 2e c0
       -1.7370037 -2.1256268 -4.1449523 -2.7208219
000080 1f a7 ff bc 99 9e a3 be 64 e9 90 bd f0 8d e6 3f
       -0.03120762 -0.31956938 -0.07075766 1.8012066
000090 ca 22 d5 3e 8e 30 f9 3f ec 85 e9 bf 7b 86 d4 3f
       0.41628104 1.9467943 -1.8243995 1.660354
0000a0 ed 42 0e c0 f3 a9 fa 3c 06 d6 4b 3f e5 f2 7e 3f
       -2.2228348 0.030598616 0.7962345 0.9958938
0000b0 37 bb be 3f 0c 9f c0 3f 22 b7 fa bf 08 5d 2a bc
       1.4900883 1.5048537 -1.9587138 -0.010398157
0000c0 f0 57 3f bf 4d c0 7f be 3e 00 bd bf ea 1b b5 bd
       -0.74743557 -0.249757 -1.4765699 -0.08843215
0000d0 99 d3 e8 3f d2 a0 22 bf 36 9b bb 3f 9c 8d 1a 40
       1.8189574 -0.6352664 1.4656742 2.4148932
0000e0 7e b7 1f bd dd 89 ff 3f af b4 b0 bf 45 07 bf 3f
       -0.03899335 1.9963948 -1.380514 1.4924093
0000f0 ae 45 dd bf 9f f2 d3 3c c9 87 86 3e e4 91 7e 3f
       -1.728689 0.025872527 0.2627547 0.9944136
000100 b6 ac 17 40 38 d5 b0 be bb 96 9f be 4e 47 b9 bf
       2.3699164 -0.34537673 -0.31169686 -1.4474885
000110 ca 33 53 be c3 d5 ed bf 83 9c 41 bf 52 71 db 3d
       -0.20625225 -1.858086 -0.7562944 0.107149735
000120 c3 3e 48 3f 11 c6 2c c0 80 9d 04 bf 0c 45 cb 3f
       0.78220767 -2.699589 -0.51802826 1.5880446
000130 9c 5b cb 3d c9 f9 a0 3f 3a bd 0a c0 52 49 c1 3f
       0.099295825 1.2576228 -2.1677995 1.51005
000140 b6 7e 9e 3e d1 83 f8 3e d7 58 0d bf 05 44 db bf
       0.30956048 0.48538068 -0.55213684 -1.7130133
000150 c9 8d 09 bf 6a fd a5 3e e2 89 c6 3e 0e a7 a3 bf
       -0.5373197 0.32419902 0.3877707 -1.2785356
000160 e1 74 1f bf eb e7 33 3f 38 f1 c1 3f 4f 2d ad bf
       -0.6228772 0.70275754 1.5151739 -1.3529452
000170 e9 65 0d bf b2 74 63 3e de 0d 69 3f 27 76 15 bf
       -0.5523363 0.22212484 0.91036785 -0.5838341
000180 7a 22 60 3f d3 e0 31 bf 51 d0 f0 bf 11 11 19 bf
       0.8755261 -0.6948368 -1.8813573 -0.59791666
000190 03 7a c6 3f 67 d7 a9 bf 4a 8a 58 3e a8 4d 10 bf
       1.5505985 -1.326886 0.21146503 -0.56368494
0001a0 b5 d0 54 bf 26 bf 84 3f 74 4e 40 3f a0 50 1c 3e
       -0.8313096 1.0370834 0.7511971 0.15265131
0001b0 d8 27 86 bf 32 81 c7 3e fe 78 19 bf 0e e3 ba bf
       -1.0480909 0.38965756 -0.59950244 -1.4600542
0001c0 bd db 0d be 95 fb be 3f d0 21 8e be d0 25 8b 3f
       -0.13853355 1.4920527 -0.27760172 1.0870914
0001d0 09 d0 a2 bf ed 57 55 bd 77 fe 68 3f 1b 8f 23 bf
       -1.2719737 -0.052085806 0.9101328 -0.63890237
0001e0 12 80 5c bf 76 48 3d bf e2 8c 0b bf 0a e0 f8 bf
       -0.8613292 -0.7393869 -0.54511845 -1.9443371
0001f0 b6 71 8f 3e ab ec 4e bf 05 76 e2 bc a7 3e 8e 3f
       0.28016442 -0.80829877 -0.027644167 1.111287
000200 a9 d2 0a bf 27 68 40 3f ae 36 4a 3f c3 c8 cf 3d
       -0.5422769 0.75158924 0.78989685 0.10145714
000210 24 3f 08 3f 7d 1d 07 3e 29 92 6f 3d 81 64 a7 be
       0.53221345 0.13194843 0.058489 -0.32693866
000220 6a e8 bd be 5c a5 05 3f f9 79 41 3f ee e2 39 3e
       -0.3709138 0.52205443 0.7557674 0.18152973
000230 06 c3 84 3e 01 8c 22 3f 0a 6a e8 3e 03 7c 21 40
       0.2593004 0.6349488 0.453934 2.523194
000240 52 28 ac bf 67 dd 92 3f 8f bd 8f be 58 fc 4f be
       -1.3449805 1.1473817 -0.2807431 -0.20311105
000250 ea f8 18 3f 7b e8 4f bf 80 49 98 3e 42 9d ab be
       0.5975481 -0.8121411 0.29743576 -0.33518416
000260 44 0e 8e bb 8c 30 7e 3f eb c3 7b 3f 87 86 9e bd
       -0.0043351967 0.99292827 0.9834582 -0.07740503
000270 ed c9 eb bf 55 c2 75 bf e1 c8 c4 3e 40 06 b9 bf
       -1.8420998 -0.9599965 0.38434508 -1.4455032
000280 15 f1 75 3f 46 a6 94 bf a6 e6 29 3f 3e a4 3f 3f
       0.96070987 -1.1613243 0.66367567 0.7485999
000290 65 54 56 3e 3a 9b fb bf f0 df 22 bf d0 99 1a bf
       0.20930631 -1.9656746 -0.6362295 -0.6039095
0002a0 01 2e 54 bf ed 4d a2 be 39 3f 8d 3f d1 6d 01 3f
       -0.82882696 -0.31700078 1.1034919 0.5055819
0002b0 7d d7 14 3e 80 96 90 3e ba 3a d7 3d 14 c5 c5 bf
       0.14535327 0.28239822 0.10509248 -1.5450768
0002c0 b6 92 dc 3f 1c 82 04 3e ff e4 bf 3e b2 42 67 3f
       1.7232273 0.12940258 0.37479398 0.90336144
0002d0 c1 e1 15 40 80 bc 6f 3f 90 25 bb be c4 be 84 3e
       2.341904 0.93647003 -0.36552095 0.25926793
0002e0 ae e7 10 bf d0 16 19 40 5f dd 9b be e9 87 f9 bf
       -0.56603515 2.3920174 -0.3044233 -1.9494601
0002f0 b2 d5 66 be 90 9c 1b 3e bf 3c 2a bf 89 87 ad be
       -0.22542456 0.15196443 -0.6649894 -0.33892468
000300 e2 7a 95 bf 73 62 23 be 28 2a 02 bf 2c 59 82 3f
       -1.1678126 -0.15955524 -0.50845575 1.0183463
000310 4e 08 b8 3d ab 98 0b 3f cb 2d 9a 3f 99 a6 37 bf
       0.08985959 0.5452983 1.2045225 -0.7173858
000320 48 a9 fc be b1 44 0e bf c2 52 4e 3f 7c 3e 28 3f
       -0.493479 -0.55573565 0.8059503 0.65720344
000330 4d 6a f3 bf b4 c5 8f be 13 50 80 bf e1 f2 61 bf
       -1.9016815 -0.28080523 -1.0024437 -0.8826123
000340 eb 29 a3 be 35 8f e7 bd f7 b5 21 bf b7 03 df be
       -0.31867918 -0.113066114 -0.6316828 -0.43557522
000350 fd 40 af 3e 99 46 e6 3f 19 ce ff 3e 13 07 ca be
       0.3422927 1.7990295 0.49961928 -0.39458522
000360 51 27 a2 3f 64 33 a5 bf 17 f6 b0 3e 74 d0 00 3f
       1.2668248 -1.2906308 0.34562752 0.50318074
000370 f7 3e c0 3e 5b 21 d8 bf cf de 43 3f f5 b5 44 bf
       0.37548038 -1.6885179 0.76511854 -0.76840144
000380 86 49 82 be 42 58 6e 3f 98 60 dd 3f 16 0a 32 3f
       -0.2544672 0.9310342 1.7295103 0.6954664
000390 a9 4d 92 bf e6 c5 a1 3f cb 95 01 40 a2 05 0b 3e
       -1.142995 1.2638519 2.0247676 0.13576367
0003a0 2f 19 83 bf e5 14 f5 be 26 54 b2 bf a1 10 52 bf
       -1.024206 -0.47867504 -1.393193 -0.82056624
0003b0 d9 75 16 c0 90 b4 87 bf e0 df ac 3e a0 a1 22 40
       -2.3509429 -1.0601978 0.33764553 2.5411148
0003c0 16 63 a1 3f 86 6b 38 3d c2 95 9b bf 9c cb 7a 3f
       1.2608364 0.045024417 -1.2155077 0.97966933
0003d0 7e ab 33 bd 7f ee 8f bd b1 96 64 3f 26 31 fd 3f
       -0.04386472 -0.070279114 0.89292437 1.9780624
0003e0 1a c1 32 3f bd c1 23 bf 90 6c 04 3f ab 99 44 bf
       0.698259 -0.63967496 0.51728153 -0.7679698
0003f0 bf 31 43 bf 4d 06 29 bf b5 73 0e bf 13 d5 13 3f
       -0.7624778 -0.6602524 -0.55645305 0.57747

classify.weight f4 [1, 20]
000000 a0 66 51 bf 74 7f 20 bf f5 63 87 3e 11 f6 1e 3f
       -0.8179722 -0.6269448 0.2644345 0.6209422
000010 5e cd 33 3f fe 0e bf 3e 27 09 9b be 3c a9 8a be
       0.7023524 0.37316126 -0.3028042 -0.2708224
000020 f1 0d af be 85 08 e0 be 54 bf 2b bf 4a 07 bd be
       -0.34190324 -0.437565 -0.6708882 -0.36919624
000030 f2 7e b1 3e 0c a4 39 bf c0 4a 5a 3d 2a 6c 54 3f
       0.34667164 -0.7251594 0.053293943 0.82977545
000040 0c 27 05 3d 60 c3 30 3f e0 eb 74 bf 42 ce 0d 3f
       0.03250794 0.6904812 -0.95672417 0.5539285
