pythonProject/week4 中文分词和tfidf特征应用/上午-中文分词/rnn分词/model.pth (torch, 988718 bytes, 7 tensors)

embedding.weight f4 [4622, 50]
000000 00 00 00 00 00 00 00 00 00 00 00 00 00 00 00 00
       0.0 0.0 0.0 0.0
000010 00 00 00 00 00 00 00 00 00 00 00 00 00 00 00 00
       0.0 0.0 0.0 0.0
000020 00 00 00 00 00 00 00 00 00 00 00 00 00 00 00 00
       0.0 0.0 0.0 0.0
000030 00 00 00 00 00 00 00 00 00 00 00 00 00 00 00 00
       0.0 0.0 0.0 0.0
000040 00 00 00 00 00 00 00 00 00 00 00 00 00 00 00 00
       0.0 0.0 0.0 0.0
000050 00 00 00 00 00 00 00 00 00 00 00 00 00 00 00 00
       0.0 0.0 0.0 0.0
000060 00 00 00 00 00 00 00 00 00 00 00 00 00 00 00 00
       0.0 0.0 0.0 0.0
000070 00 00 00 00 00 00 00 00 00 00 00 00 00 00 00 00
       0.0 0.0 0.0 0.0
000080 00 00 00 00 00 00 00 00 00 00 00 00 00 00 00 00
       0.0 0.0 0.0 0.0
000090 00 00 00 00 00 00 00 00 00 00 00 00 00 00 00 00
       0.0 0.0 0.0 0.0
0000a0 00 00 00 00 00 00 00 00 00 00 00 00 00 00 00 00
       0.0 0.0 0.0 0.0
0000b0 00 00 00 00 00 00 00 00 00 00 00 00 00 00 00 00
       0.0 0.0 0.0 0.0
0000c0 00 00 00 00 00 00 00 00 40 cc b6 3f 34 8f c1 3f
       0.0 0.0 1.4281082 1.5121827
0000d0 2d 71 9a bd 56 60 f6 3f 4b 38 16 3f 61 68 c1 3f
       -0.07541118 1.9248149 0.58679646 1.5109979
0000e0 d9 ef d0 be 4a bc b5 bf 40 cc a9 bf cc 5b c9 be
       -0.4080799 -1.4198086 -1.3265457 -0.39327848
0000f0 75 38 2f 3f a1 96 b4 bf 3c 0f d4 3e 72 0e dc 3e
       0.6844552 -1.4108468 0.41417873 0.4297977
000100 f3 19 93 bf d8 f8 cb 3e 82 cf c7 3f f5 72 d0 3f
       -1.1492294 0.3983829 1.5610201 1.6285082
000110 a8 6a 06 3f 28 0c 1d c0 5e 1e 82 3f d4 a6 b2 bf
       0.52506495 -2.453867 1.0165517 -1.3957162
000120 8e 0d ff bc e7 71 57 be 99 3a a6 3d 5c 30 32 3f
       -0.031134393 -0.21039544 0.08116645 0.6960504
000130 8e be 58 bf 45 ea 89 be fd 93 73 3f e3 6f cc be
       -0.84665763 -0.26936546 0.9514769 -0.39929113
000140 11 c4 47 bf 27 ac 85 be af 20 68 bf a1 59 a2 be
       -0.7803355 -0.26107904 -0.9067487 -0.31709006
000150 17 b2 13 bf da 46 1a 3e 9d 9a 95 bf 58 5b c3 bf
       -0.5769362 0.1506609 -1.1687809 -1.5262251
000160 d8 05 fc 3f 99 24 c0 bf 43 73 f8 3f f8 84 59 3e
       1.9689283 -1.5011169 1.9410175 0.2124213
000170 01 73 cb bd 7f dc 7c bf f4 6e 0b 40 95 e4 6c be
       -0.09934045 -0.9877395 2.178647 -0.23134072
000180 66 1a ea 3e ca 6b 9e bf 56 17 f6 3f 79 83 23 be
       0.45723265 -1.2376645 1.9225872 -0.15968122
000190 24 fe 17 3f 62 43 29 3e db db 15 40 65 03 b3 3f
       0.5937216 0.16529611 2.341544 1.3985411
0001a0 0f 15 44 be 19 b2 72 b9 6a 77 31 3e a0 19 f5 3f
       -0.19148658 -0.00023145265 0.17330709 1.9148445
0001b0 27 6f 00 3e 43 b7 bf 3f f6 ff 23 3d 36 b6 e1 3d
       0.12542401 1.4977802 0.040039025 0.11021082
0001c0 c0 93 c1 bf 70 fe f8 be 89 a7 3c 3e f0 64 d4 bf
       -1.5123215 -0.4863162 0.18423285 -1.6593304
0001d0 8c 60 22 3e af 7f 30 be 3c eb 03 3e 8c e7 16 be
       0.15857142 -0.17236207 0.12882704 -0.14736766
0001e0 15 fd 3e bf 07 13 5c bf ec 9c aa be 9b fa 9c 3f
       -0.7460492 -0.85966533 -0.33322847 1.2263979
0001f0 76 ad 80 bf 28 96 bd 3e 36 a1 5e c0 d0 0e 31 be
       -1.0052936 0.37028623 -3.4785895 -0.17290807
000200 ec 98 70 bf d9 47 0c bf eb 91 0f 3f 81 06 94 3f
       -0.9398334 -0.5479713 0.5608203 1.1564485
000210 96 1a cb 3d a3 ab 8c bf ae a2 be bf 55 65 c1 be
       0.0991718 -1.0989879 -1.4893396 -0.37772623
000220 aa 05 8b 3f 3c 29 51 3e 5b 0f 2f bf 14 5f d5 3e
       1.0861104 0.20425886 -0.68382806 0.416741
000230 79 93 7e 3f e0 50 96 bf e9 9e ef 3e b9 ad 84 3f
       0.99443775 -1.1743431 0.46800926 1.0365516
000240 bb 44 29 bf a4 ba 12 3f fc 08 9d 3e 7b 7f b2 bf
       -0.661205 0.5731604 0.30670917 -1.3945154
000250 82 a7 e8 bf 22 ef 5e bf 46 ef 30 3f 3f 27 4d 3f
       -1.8176119 -0.8708364 0.691151 0.8013801
000260 ba bc 84 3e 00 0a 98 bf 3a 48 d7 3d 5d 8f c3 bf
       0.25925237 -1.1878052 0.10511823 -1.5278126
000270 40 f3 38 bf 4c 0b eb be 71 bb c7 3e cd 95 51 be
       -0.7224617 -0.45907056 0.39010194 -0.204673
000280 71 27 bb bf 24 61 1f 3f 7b 67 2c bf a7 b8 ec 3e
       -1.4621412 0.622576 -0.673454 0.4623463
000290 fd 18 52 3c e8 78 d8 be 62 42 49 bf 05 9a fa be
       0.0128233405 -0.42279744 -0.7861692 -0.48945633
0002a0 c2 0c eb 3f 51 68 75 3e d2 a4 4b 3f 80 0a 99 be
       1.8363268 0.23965575 0.7954837 -0.29890823
0002b0 bd 79 a7 bf e3 31 93 be f1 f1 a4 bf 61 77 44 bf
       -1.3084027 -0.28748998 -1.2886335 -0.7674466
0002c0 8b 05 38 3f 52 b3 6c bf f9 7f ee 3f 2f ff 36 be
       0.7188346 -0.9246112 1.8632804 -0.17870782
0002d0 f8 26 c8 be d9 31 ae 3f 30 7a 9b bf 22 1b ca be
       -0.3909223 1.3608962 -1.2146664 -0.39473826
0002e0 6a ea 81 bf 2d 4d 26 3e 1e 4e 01 40 90 c3 6d 3f
       -1.0149662 0.16240378 2.020393 0.9287653
0002f0 08 67 82 be fa 8f 51 bf aa 03 1b be 16 0b e4 3f
       -0.25469232 -0.81860316 -0.15138116 1.7815883
000300 ef c3 fc be de 8e cb bf f7 2a c0 3e 28 3d 99 bf
       -0.49368235 -1.5902975 0.3753278 -1.1971788
000310 b5 54 9f be d9 8b 37 3e 5a 79 02 c0 66 34 fe 3d
       -0.31119314 0.17924441 -2.0386567 0.12412338
000320 68 ff e0 3e 15 5e 80 bd ca 68 b8 bf 50 ed 69 bf
       0.4394486 -0.06267945 -1.4406979 -0.91377735
000330 19 f7 70 bf b7 b7 4e bf 76 9f b1 3f 45 4e 1b c0
       -0.9412704 -0.80749077 1.3876789 -2.4266522
000340 51 8e 33 bf 2f c8 d7 3e 08 9d 1b bf eb df 88 bf
       -0.7013903 0.42144915 -0.60786486 -1.0693334
000350 07 db a3 bf 7c 16 ab bd 8a ac 43 3f 6f 93 c2 bc
       -1.2801217 -0.08353898 0.7643515 -0.023751942
000360 d6 e3 ad bf 2e 4e df bf 53 a6 6c bf 19 f8 e1 3f
       -1.3585155 -1.7445734 -0.9244129 1.7653838
000370 74 90 b0 3f d6 0d 49 bf cc 42 1c bf 0c 72 96 3c
       1.3794084 -0.78536737 -0.61039424 0.018364929
000380 b3 71 d4 bf 89 87 2b 3e 93 8e 1f bf 16 42 46 3f
       -1.6597198 0.16750921 -0.62326926 0.7744459
000390 65 2d 7a 3f 8a 9b fe 3e c2 d2 5f bf 73 9d 80 3e
       0.97725517 0.49728042 -0.87430966 0.25120124
0003a0 f0 ed f1 be f1 40 a8 bf f3 c5 a8 bf 6c eb de 3f
       -0.47251844 -1.3144819 -1.3185409 1.7415595
0003b0 c3 9e 8d 3f 0d 42 8f be 30 63 6b bf 08 ed 6f 3f
       1.1064075 -0.2798008 -0.91948223 0.93721056
0003c0 0a 29 b3 3e 69 67 eb 3e 54 53 c9 3e 13 d5 82 bf
       0.34992248 0.45977333 0.39321387 -1.0221275
0003d0 22 34 7b bf 33 8e dc 3f ac e9 9f 3e a7 dc 98 be
       -0.98126423 1.7230896 0.31232965 -0.29855844
0003e0 44 b3 c2 bf 48 96 1c bf eb af b5 3f 8e 51 f5 be
       -1.5210958 -0.6116681 1.4194311 -0.47913784
0003f0 01 02 c9 3e 0d 80 fb bf 2b 5c a1 3e df e1 97 bf
       0.3925934 -1.9648453 0.3151563 -1.1865805

rnn_layer.weight_ih_l0 f4 [100, 50]
000000 62 96 88 3d 86 6c c7 bc 9d 59 a0 bd 60 66 2e 3e
       0.06669308 -0.02434374 -0.078295924 0.1703124
000010 d4 e9 df bd 40 99 14 be 24 38 9c bd e8 3d 62 be
       -0.10933271 -0.14511585 -0.076278955 -0.22093928
000020 2c 3f dd ba a9 be 66 bd 5d 9a 07 bc 93 75 62 bc
       -0.0016879789 -0.05633417 -0.008276549 -0.013821977
000030 45 d5 d0 3a a1 43 08 be 22 68 24 39 58 4f d2 3d
       0.00159327 -0.13307048 0.00015679051 0.1026904
000040 93 17 20 bd f9 12 e7 bd 48 a4 e9 bd ea c8 54 bd
       -0.039084982 -0.112829156 -0.11408287 -0.05194942
000050 98 ff bb bd 72 da b9 3d 8f 89 2b 3d 3a ff 3b 3d
       -0.0917961 0.09074868 0.041879233 0.0458977
000060 45 fc 0f 3e a3 0f 14 3d c5 45 80 3c ff 5f 76 3d
       0.14061077 0.036147725 0.015658269 0.060150143
000070 84 10 80 bd 93 ee 09 3d 21 22 7d 3d ed c2 07 bd
       -0.0625315 0.033674788 0.061800126 -0.03314488
000080 ca f1 51 3d 1f 7e ee bd 5d 4a 6f bd 2c c6 5e 3d
       0.05125598 -0.116451494 -0.058420528 0.05438821
000090 e4 80 de bd bb e3 ee bd 07 2d 0a bd 23 0f 36 3d
       -0.10864428 -0.1166453 -0.033734348 0.04444803
0000a0 c0 26 02 be 6c ec 15 3d 86 84 0b 3e b7 3a 20 bd
       -0.12710094 0.036602423 0.13624772 -0.039118495
0000b0 d2 2b b7 3d 4e fe 03 bd 7a aa e5 3d 93 80 05 bd
       0.08943905 -0.032224946 0.112141564 -0.03259332
0000c0 b2 fc 95 bd 79 e4 81 bd 03 60 d3 3d 4d 03 46 3e
       -0.073235884 -0.06342406 0.10321047 0.19337197
0000d0 0f f2 80 bd 56 ba 89 3e 12 78 b3 bc 32 13 62 3d
       -0.06296169 0.26899976 -0.02190784 0.055194087
0000e0 98 ef fe 3d 2e 86 f4 3d 70 a7 30 be 7b 58 77 be
       0.12448043 0.11939655 -0.17251372 -0.24154846
0000f0 b2 02 ae 3d ca 58 47 bd 89 6f 26 be 87 77 27 be
       0.08496608 -0.04866866 -0.16253485 -0.1635419
000100 25 aa 0b 3d ad 06 8c bc d1 74 54 bd cf 70 d9 bc
       0.03409781 -0.017093027 -0.051869217 -0.02654305
000110 90 c1 ee 3c 48 3e 93 bd 09 2b 82 bd 41 da 09 3e
       0.029145032 -0.071896136 -0.063558646 0.13462164
000120 28 b9 7b bd 70 19 1f 3e d7 25 07 be f4 7a 36 bd
       -0.061455876 0.15537047 -0.13198029 -0.04455085
000130 02 a6 76 3c 3f 66 10 be 52 6e 02 bc a8 3d 9c 3d
       0.015054228 -0.14101504 -0.007960873 0.076289475
000140 46 ec cc bc bd a3 5a be 77 74 b4 bd d2 9f 1c be
       -0.025015008 -0.21351524 -0.088112764 -0.15295342
000150 26 29 63 bc 4c 42 96 bc 19 b8 b8 3d d2 a2 8c 3d
       -0.013864791 -0.01834216 0.09019489 0.06866993
000160 1c 2c 9e 3e ab a7 ed 3c 10 f7 25 be e8 cb 9c 3d
       0.30893028 0.029010614 -0.16207528 0.076560795
000170 9e 8f 3f bd d7 26 92 3d d9 99 18 bd f8 c4 93 3c
       -0.046767823 0.07136314 -0.037256096 0.018038258
000180 f5 e1 a9 3d 5f bb 71 3d 8a 84 66 be 5b be 52 be
       0.08295051 0.05901658 -0.22511497 -0.20580427
000190 27 84 5f 3e 50 19 90 bd b5 0b b3 bd a7 46 bf 3d
       0.21827756 -0.07036078 -0.08742467 0.09339648
0001a0 2d f3 42 3e ec f4 91 bd 29 fa b3 bd 98 c9 1c bd
       0.19038077 -0.07126793 -0.08787949 -0.038278192
0001b0 28 d4 16 bd 96 35 21 be c0 da 0f 3e 8d 3d aa 3d
       -0.03682342 -0.15743098 0.1404829 0.08312521
0001c0 f4 1c c4 bd 24 ca aa bd 57 bd cb 3b 54 73 a8 3d
       -0.09575835 -0.083393365 0.0062176394 0.08225122
0001d0 87 d0 51 bc 33 9f f4 3c 15 cd 30 bc 2d 5d b7 bd
       -0.012806064 0.029861068 -0.010791083 -0.08953319
0001e0 f5 00 fa bd 13 87 5b 3d 3a f6 88 3d a2 b6 3d be
       -0.12207214 0.053595614 0.06687589 -0.185267
0001f0 2a c0 28 3e 08 e3 73 bd 69 89 cc 3d 13 9a 94 bc
       0.16479555 -0.059542686 0.099871464 -0.018139875
000200 ac be 96 bd 37 e1 42 3e a4 1a 06 be 42 8e 01 bc
       -0.073605865 0.19031225 -0.130961 -0.007907452
000210 ec 14 bb bd 15 c4 28 be 9e 81 12 bd d0 9c d1 3b
       -0.0913485 -0.1648105 -0.035768144 0.0063968673
000220 00 f7 08 bd ca b7 95 bd b6 41 8b bb 0a 1a 05 3e
       -0.033438683 -0.073104456 -0.0042497767 0.12998214
000230 1a 30 85 bd b7 e9 35 3d 5d 6c 09 be 49 7c b6 bd
       -0.06503315 0.04441234 -0.13420244 -0.08910424
000240 6f 1a bd bd bc 35 b1 bd 0c dd 9f bd b0 cd 0c bd
       -0.092335574 -0.08652827 -0.07805833 -0.034375846
000250 fd 62 54 3d 51 b8 40 3b 9e 78 b2 3b 2e a7 cc bc
       0.051852215 0.0029406736 0.0054465076 -0.024982061
000260 2b 99 6a bd c3 38 de 3d 9a fe 43 3d 16 f7 87 bd
       -0.05727498 0.1085067 0.04785023 -0.06638925
000270 d2 0d 14 3e 8f 14 f5 3b 97 e8 33 be a0 0a 32 bb
       0.14458397 0.0074792574 -0.17569195 -0.0027166978
000280 4e 8a 43 bd a3 52 ab 3d 72 39 74 bd 84 2c b6 3c
       -0.04773932 0.08365371 -0.059625097 0.022238024
000290 d7 bb d6 bd 24 60 1a bd 25 f3 49 3d 29 c0 2f 3d
       -0.10485046 -0.037689343 0.049304146 0.042907868
0002a0 cf 7e 23 3d f6 0d a1 3b a6 17 b8 3d 62 2a 0f be
       0.039915856 0.0049149944 0.089888856 -0.13981012
0002b0 fe d1 aa bd ef 4e a1 3d 2b ea 66 bd 38 aa 9e bd
       -0.08340834 0.078763835 -0.056375664 -0.077473104
0002c0 41 8c 69 bb 3f b5 4d 3d c6 ad 4a bc 72 58 93 3d
       -0.0035636576 0.050221678 -0.012370532 0.07194604
0002d0 ec 91 e8 3b f8 9e af 3d d2 9f 90 3c 9a 10 e1 bc
       0.0070974734 0.08575243 0.017654333 -0.027473737
0002e0 e4 23 b0 3c a8 c4 aa bd 7b ec 69 3e da c7 09 bb
       0.021501489 -0.083382905 0.22844116 -0.0021023662
0002f0 c8 e5 b5 3c 75 21 70 3d 4c b0 c2 3d f7 35 3a 3e
       0.022204295 0.058625657 0.09506282 0.18184648
000300 30 b3 f5 3c 3d b3 4b 3e 46 b4 09 3d f0 d3 33 bd
       0.02999267 0.19892593 0.033619188 -0.04390329
000310 3c c9 10 be c3 f6 1f 3d cd e0 58 bd cf 33 4a 3e
       -0.14139265 0.03905369 -0.05294876 0.19746326
000320 3e 20 23 3e 33 be 57 bd b9 06 f2 bd 92 5d 42 3c
       0.15930268 -0.052671622 -0.118176885 0.011863129
000330 b3 14 1f bd d0 78 90 3d 78 6c 3c bd 92 c7 14 3d
       -0.0388381 0.07054293 -0.04600188 0.036323138
000340 87 cd 32 3d de e8 3d 3e 6f 3b bc 3c 1b 4f 8c 3d
       0.043653037 0.18545863 0.022977559 0.06851026
000350 f9 67 9a 3d 7a 11 9e bd a3 31 77 bc 48 ba 18 3e
       0.075393625 -0.07718177 -0.015087518 0.1491481
000360 0c 52 7b 3e c6 de d9 3d 04 7e 2a 3b cb 28 5f bc
       0.24543017 0.10638194 0.0026015053 -0.013620566
000370 23 86 19 3e 15 04 8f 3d d6 2b 00 3e 86 bd 55 be
       0.14992575 0.069832005 0.12516722 -0.20873079
000380 67 c3 47 3e 51 a0 8b 3d 46 8e 9d bc 1e a4 6a bd
       0.19508134 0.06817687 -0.01923288 -0.05728542
000390 e0 d9 9b bb a8 fe 00 3c 38 92 94 3c aa 84 4b 3d
       -0.0047561973 0.007873215 0.018136129 0.049687065
0003a0 18 13 18 bd be 47 21 bc c5 5d 0d 3d de 37 3a bd
       -0.037127584 -0.009843765 0.034513254 -0.045463435
0003b0 1c 6d 36 be 61 f7 fa 3d a6 c6 0c 3d 3f 93 4c 3e
       -0.1781506 0.12254215 0.034369133 0.19978045
0003c0 01 5c 83 3e f6 33 c8 bb 78 b5 c1 bd 8f 5d fa 3d
       0.2565613 -0.00610971 -0.094584405 0.12224876
0003d0 49 40 27 3e ce 6a 19 be c1 e0 40 bc 55 c2 c3 3d
       0.16333117 -0.14982149 -0.0117723355 0.0955855
0003e0 53 b4 83 be 8f f3 97 3d 4b f3 9f 3d a3 3f 28 bd
       -0.25723514 0.07419502 0.07810076 -0.041076314
0003f0 65 ba 95 bd d6 58 4d bd f4 dd f9 bd 30 e6 e3 3c
       -0.073109426 -0.05013355 -0.12200537 0.027819723

rnn_layer.weight_hh_l0 f4 [100, 100]
000000 ad 7e 8b bd 2a c0 45 3d fe de e6 3c b9 16 40 bc
       -0.06811271 0.048278965 0.028182503 -0.0117241675
000010 b7 d9 3d 3d 8a f6 bd 3d ce 33 08 3d 98 00 93 bd
       0.046350207 0.09275539 0.03325253 -0.071778476
000020 ea 65 1c 3d bf 91 ea 3c 46 6c 83 bd 87 1a 6f 3d
       0.03818313 0.02863395 -0.06417136 0.058374908
000030 1f 9d be 3d b8 95 ba bd 7e 0d 0b bd a6 62 d7 3c
       0.09307312 -0.09110588 -0.033948414 0.026292156
000040 71 64 bf 3d a6 82 19 bd e0 65 f2 bc 45 b4 97 bd
       0.093453296 -0.03747811 -0.029589593 -0.074074306
000050 16 a5 09 3e 0a 66 2d bc 5c 41 e9 bd 98 d7 3c bd
       0.13441882 -0.01058341 -0.113894194 -0.046104044
000060 b6 18 b2 bb c9 c0 c3 bc 6f 18 d9 bd 69 3f 50 3d
       -0.0054350747 -0.023895638 -0.106003635 0.050841723
000070 b3 35 0c 3d 29 c1 5e 3d c0 67 f5 3d ec 4d 2a bd
       0.0342309 0.05438343 0.11982679 -0.04157822
000080 29 11 2c 3e dc 85 b5 bc 3e 67 46 bd 70 ef fc b9
       0.16803421 -0.022158556 -0.048438303 -0.0004824358
000090 76 ba 02 3c dc ef 60 bd d0 d7 d8 3d 85 d8 d5 bd
       0.007979026 -0.054916248 0.10588038 -0.104416884
0000a0 c6 c4 a0 bd 29 1c 3d 3d 2a be 65 bd 5e 2a 89 3d
       -0.078500316 0.046169434 -0.056089558 0.06697534
0000b0 1a 39 20 bc 9e b6 16 bd ed ee 4c 3d d0 68 b5 bd
       -0.009779239 -0.03679525 0.050032545 -0.08857882
0000c0 d8 af b9 3d ae b5 89 3d 4f 76 4b bb a8 eb ac bc
       0.09066743 0.06724106 -0.003104586 -0.021108463
0000d0 52 ec f5 3c af a2 05 3c 1d be 32 bd ad ae aa bb
       0.030019913 0.008156463 -0.043638337 -0.0052088113
0000e0 e6 93 b8 bc 43 79 d6 3d f5 64 f7 3b d7 11 b8 bd
       -0.022531461 0.104723476 0.007549877 -0.08987778
0000f0 53 bc 38 3e 70 12 20 3e c9 05 36 bd 65 0c af bd
       0.1804059 0.15632033 -0.04443911 -0.08547286
000100 83 05 79 3c e1 c1 ca 3d 6b a8 5f bc be c4 20 3d
       0.015199068 0.09900261 -0.013650994 0.039250128
000110 2e b4 db 3d 35 9f 69 3c fb 41 0a 3d 45 9a 26 ba
       0.10727726 0.014259149 0.03375433 -0.00063553854
000120 82 92 49 bd 46 98 db 3c ce 7b 22 be 39 bc 72 bd
       -0.049211986 0.026806008 -0.1586754 -0.059261534
000130 59 56 1e 3d 08 3e b9 3c d2 ad 2e 3e b7 b8 a9 bd
       0.038656566 0.022612587 0.17058495 -0.08287185
000140 04 a1 39 3e 70 e2 a1 bd f4 2a 93 3c 99 c6 61 bd
       0.18127829 -0.07904518 0.017964818 -0.055121038
000150 b5 49 e8 bb 04 8a b7 bd 06 ab f1 bd 96 01 17 bc
       -0.0070888647 -0.08961871 -0.11800198 -0.009216687
000160 b8 bf 50 3c 28 3b af 3c ba 29 1d bd 07 85 a0 bd
       0.012741022 0.021390513 -0.03836987 -0.07837873
000170 22 63 d3 3d 1c 3c 38 bd 33 50 fb 3c c5 b1 f0 3d
       0.103216425 -0.0449792 0.03067789 0.11752657
000180 d6 c8 21 be 58 56 9c 3d 8e c8 ec bd aa 37 8a 3c
       -0.15799269 0.07633656 -0.1156169 0.016872246
000190 51 e0 69 3d 20 9c c7 3d 98 ac 28 3e c2 21 8b bd
       0.05709869 0.09746575 0.1647209 -0.06793548
0001a0 54 81 1a bb 8f 35 cd 3d 55 01 b7 3d 3c d9 b0 3d
       -0.002357562 0.10019981 0.08935801 0.08635184
0001b0 4c b5 f4 bd b2 70 b9 3b 3d ee 9e 3d b8 11 16 bd
       -0.11948642 0.0056591863 0.07760284 -0.03663799
0001c0 65 62 2c 3e 04 92 5e 3d 3d 46 04 3e 73 7a 1b be
       0.1683441 0.05433847 0.12917419 -0.1518343
0001d0 87 aa a4 3d 9d 71 d4 3d 56 92 2e bd fe 6e 91 3c
       0.08040338 0.103732325 -0.042620026 0.01775312
0001e0 c4 3b a6 3d 95 7d 32 3d bf 0f 60 3d 89 9a 97 3d
       0.08116868 0.043576796 0.054702517 0.07402522
0001f0 c1 f8 1e be 12 8e 32 be 79 88 5b bc 34 d1 12 bd
       -0.1552458 -0.17437008 -0.013399237 -0.035844043
000200 60 b3 8e bc 8e 34 38 bd df 14 6e 3c c6 e7 a1 3d
       -0.017419517 -0.044971995 0.014531343 0.079055354
000210 fc f6 c6 3d 19 5b 3b bd 94 1c 8a bd 9a 74 4c bc
       0.09715077 -0.045741174 -0.06743732 -0.012478972
000220 8c 6d 81 3a 08 9e 0c bd 51 f7 2c bd 77 90 9c 3d
       0.0009874566 -0.034330398 -0.042228047 0.07644742
000230 3c f9 a8 3d c7 5f c2 bd b4 85 cf 3d bd a9 17 3e
       0.08250663 -0.09490924 0.10132924 0.14810844
000240 84 47 13 be 6b 59 35 bd c9 e0 aa bd c6 12 10 3e
       -0.1438275 -0.04427473 -0.083436556 0.14069661
000250 6a 9b 75 bd c5 42 92 bc 23 f7 19 bd f3 91 99 bd
       -0.059962668 -0.017854104 -0.037589204 -0.07498541
000260 e2 5f a3 bd c8 2d 13 be 82 94 df bd 14 ed b1 bd
       -0.079772726 -0.14372933 -0.109169975 -0.08687797
000270 da ed 9f bd 7b 3b b1 3d d7 46 44 be 44 66 8b bc
       -0.078090385 0.08653923 -0.19167648 -0.017016537
000280 f4 ca b1 3d d8 23 86 3d aa 8d 13 be d3 4f fb 3c
       0.08681288 0.065498054 -0.1440951 0.030677712
000290 a6 5c 7a bd 94 97 54 bd c7 cd d9 bd 8f 3e 3c 3d
       -0.061123513 -0.05190237 -0.10634952 0.045958098
0002a0 f9 3a 02 3d aa 73 5f bd a7 14 27 3b 0f 89 e4 bc
       0.031794522 -0.054553665 0.0025494487 -0.027897386
0002b0 15 47 28 3d 87 db ba bd 9e a2 60 bd 7a 6e 18 3d
       0.041083414 -0.09123903 -0.054842584 0.037214734
0002c0 97 0e 2a bd f4 7a b2 3d 18 81 95 3d d1 cb f3 bd
       -0.04151782 0.08714858 0.07300013 -0.11904109
0002d0 92 96 1c bd 54 25 74 bd d2 bd b7 3c 26 61 82 3d
       -0.038229533 -0.05960591 0.02242938 0.06366186
0002e0 83 56 29 bd 22 81 19 be a0 40 3f bc 42 62 b3 bd
       -0.04134227 -0.14990667 -0.011673123 -0.087589756
0002f0 2f a7 5d bd b3 62 06 bb b6 ac 0e bc 10 3b 86 3d
       -0.054114517 -0.0020505607 -0.00870817 0.06554234
000300 a4 ac fe ba 9f c2 fb b9 a8 cf fb 3d bc 7d 25 3d
       -0.0019430113 -0.00048019455 0.12295467 0.040403113
000310 84 8d f3 bd f4 4e 8e bc 0b 54 17 be 64 a2 5c bc
       -0.11892226 -0.017371632 -0.14778154 -0.013466451
000320 10 4b 1b be ad 42 e6 bc 31 02 13 be dc 5e 1c bd
       -0.15165353 -0.028107965 -0.14356305 -0.038176402
000330 b4 c3 05 be 0d 4f 37 3d 08 40 2c 3d 34 e4 c4 3d
       -0.13062936 0.044753123 0.042053252 0.09613839
000340 91 03 be bd e8 d9 85 3c 52 a4 14 3e 76 80 db bc
       -0.09278024 0.016339257 0.14515808 -0.026794653
000350 89 25 58 3d bc 92 34 be 01 91 1a be 1f 62 98 bd
       0.05277017 -0.176341 -0.15094377 -0.0744059
000360 cd 49 f2 3d e9 ee 28 3b 81 e6 f0 3d d3 32 a8 bc
       0.11830483 0.0025777167 0.11762715 -0.020532047
000370 d7 2b 71 bd e5 4b 93 bd a7 ec 82 3b 6e fd 0b ba
       -0.0588797 -0.0719221 0.0039954963 -0.0005340193
000380 c0 fc 19 be 19 46 b6 bd 2f 53 7a bd 7a 83 95 bb
       -0.15037823 -0.08900089 -0.061114486 -0.0045627924
000390 e2 05 bf bc 6c dd 69 3c 80 94 9c bc 1b 31 d6 3c
       -0.023318235 0.0142739825 -0.019113779 0.026146462
0003a0 53 02 07 3e 0e 3b 6d bd 8e 23 c6 3d 10 82 13 3d
       0.1318448 -0.057917647 0.0967475 0.03601271
0003b0 9a 67 7c bc e0 af 1d 3e af 21 13 3e 36 87 00 be
       -0.01540556 0.15399122 0.14368318 -0.12551579
0003c0 75 3e d5 bc 3b 99 d7 bb d4 f1 83 3d 8a 7c 02 3d
       -0.026030758 -0.006579546 0.064426094 0.03185705
0003d0 e5 2d b3 bc 51 2f 0f 3d d8 09 ab bd f9 1b cf 3d
       -0.02187247 0.034957234 -0.08351487 0.10112757
0003e0 c8 09 95 bc 24 85 14 bd cd b7 82 bc 4e f5 48 3d
       -0.01819314 -0.036259785 -0.015956784 0.049062066
0003f0 30 b6 3e 3d 3b 33 e4 bd e5 97 4c bd 13 60 84 3d
       0.046560466 -0.11142584 -0.049949545 0.06463637

rnn_layer.bias_ih_l0 f4 [100]
000000 46 6a 4d 3e 58 e1 8c bc ae 4f 35 3e 4b 46 35 be
       0.20060071 -0.017197296 0.17706177 -0.17702596
000010 93 8d 75 3e 9d fd 17 be 40 0c 70 bd d7 9f 0c 3e
       0.23979788 -0.1484284 -0.058605433 0.13732849
000020 25 09 68 be 18 be a0 3d 44 22 51 3e da 1b 51 3d
       -0.22659738 0.078487575 0.20423228 0.051051952
000030 ba ef 45 3e 54 3d 24 3d 8c c0 00 be a9 b8 2a be
       0.1932973 0.04009755 -0.12573451 -0.16672005
000040 91 0f 39 3e c9 4d 90 3e 70 d6 12 be 6e 75 a8 3e
       0.18072344 0.28184345 -0.14339614 0.32902092
000050 37 bb 69 3d ac 78 5b 3e 58 b3 a1 3d bd a7 6d 3e
       0.057063308 0.21432751 0.07895535 0.23208518
000060 f9 1a 15 be ef 5f 6f bd 68 1f 0f 3c d8 13 5f 3e
       -0.1456107 -0.0584411 0.008735515 0.21784914
000070 de c7 b1 3d ed e2 29 be 1d a0 5d 3d 22 a2 6c 3e
       0.086807 -0.16590472 0.054107774 0.23108724
000080 d4 91 54 3e 92 69 cb bc 27 7d 2c be ac c8 e5 3d
       0.20758754 -0.024830613 -0.16844617 0.11219916
000090 79 cc 87 be 02 6c d6 bd ae 92 e4 bd 4f 8b 7d 3e
       -0.26523188 -0.104698196 -0.111607894 0.24760173
0000a0 d8 37 03 bd e9 c7 ad bd c6 5d 37 3e e4 03 36 3e
       -0.03203568 -0.084853955 0.17906865 0.17774922
0000b0 60 e0 50 be ad 3e b2 3c 84 c1 ec bd 33 49 0f 3d
       -0.20398092 0.021758402 -0.11560348 0.034981918
0000c0 5e 1f ad bd 86 9b 89 be 8d 96 2e be 64 1c 17 3e
       -0.084532484 -0.26876467 -0.17049618 0.14756924
0000d0 81 e4 e5 bb 9f e0 78 be c7 25 08 3e 06 f1 26 bd
       -0.007015765 -0.24304436 0.13295661 -0.0407572
0000e0 65 e3 cb 3b 80 70 bf 3d 09 e7 36 be 5f c3 32 3e
       0.006222176 0.093476295 -0.1786157 0.1745734
0000f0 5d d7 66 be f3 22 d4 bd ab c6 6e be 29 22 9c bd
       -0.22543092 -0.103582285 -0.23317973 -0.07623703
000100 95 03 c7 bc 59 86 d6 3c 43 5c 4e be ea 89 0e be
       -0.0242937 0.026187109 -0.20152383 -0.13919798
000110 6c 86 47 3d 51 d1 95 bd d9 c7 ed 3c 3c 76 8c 3d
       0.04871218 -0.073153146 0.029025959 0.06858489
000120 a4 de 45 3d ac 98 a3 bd 3e 47 ea bd 9b 0b 97 3d
       0.04830803 -0.07988104 -0.114393696 0.073752604
000130 99 67 18 be 23 2c eb 3d 28 ed e1 bc 6f 29 6e 3e
       -0.1488327 0.11483028 -0.027578905 0.23257993
000140 5a d7 06 be d0 a0 68 be c5 6a b4 bd af 29 31 be
       -0.13168088 -0.22717595 -0.08809427 -0.17301057
000150 44 07 ed bd 38 63 22 3e dd f5 57 3e 48 97 0d bd
       -0.115736514 0.15858161 0.21089883 -0.0345681
000160 ed 2f 21 bc d9 9e ac 3e 24 4d 0f 3e 59 35 61 3e
       -0.009838087 0.3371494 0.1399427 0.21993007
000170 fa 5c 18 be ae 6a ab 3d cf dd 1b 3e 7a 3a a0 3d
       -0.14879218 0.08369957 0.15221332 0.078236535
000180 2b 41 5e bd ea 94 b4 be bc 16 85 be ac 9c 99 3e
       -0.054261368 -0.35269862 -0.25993907 0.30002344

rnn_layer.bias_hh_l0 f4 [100]
000000 4b 97 54 3e c4 46 1f 3b 44 dc 91 3e e7 ea fb bd
       0.20760839 0.0024303654 0.28488362 -0.123006634
000010 64 b7 7c 3e c7 cd 31 be 9f 6a 0a be de 98 ab 3d
       0.24679333 -0.17363654 -0.13517235 0.083787665
000020 3f 09 36 be 06 39 b4 3c 69 93 45 3e e5 b1 09 3d
       -0.17776965 0.021999847 0.19294514 0.03361692
000030 6c 24 a0 3e 56 c7 15 bd 14 71 89 bd a2 9d 79 be
       0.31277788 -0.036567055 -0.06711021 -0.24376538
000040 dc ea 93 3e 8f e7 94 3e 3d fc 0e be 8d 1b c1 3e
       0.2889012 0.29082915 -0.13963409 0.37716332
000050 b2 3c 2e 3d c2 f7 4d 3e 1f 94 66 3e a8 e4 c3 3d
       0.042538352 0.20114043 0.22517441 0.09565097
000060 68 18 59 bc 3b 61 a5 bd 73 c2 02 bc d8 a5 4d 3e
       -0.013250448 -0.08075186 -0.007980931 0.20082796
000070 d1 47 17 3d c5 e2 94 be 32 5e d2 bc 5f 04 8d 3e
       0.036933724 -0.2907926 -0.025679681 0.27542397
000080 79 d6 14 3e f2 d8 7d 3d fa a8 fb bd f5 d7 31 3c
       0.1453494 0.061974473 -0.12288089 0.010854711
000090 d5 d7 5c be cb e5 cd bd 5a c7 90 bd 01 c4 dd 3d
       -0.21566708 -0.10053595 -0.07069273 0.108284004
0000a0 10 25 9e 3c 37 c7 98 3b ad ec cd 3d d2 5c 74 3e
       0.019304782 0.00466242 0.10054908 0.23863533
0000b0 4d 00 9e be 84 fb bf 3d e5 20 8b bc 2e 62 cc bd
       -0.30859604 0.09374145 -0.016983459 -0.09979664
0000c0 c5 24 0e bc 8b f1 56 be ea 1a 6e be 8e 54 05 3e
       -0.008675759 -0.20990579 -0.23252454 0.13020536
0000d0 28 ad 18 be 9e f2 9b be 43 52 0c 3c 48 66 3c be
       -0.14909804 -0.3045854 0.008564535 -0.18398392
0000e0 7d 48 77 bd 4a c4 9e bd f6 9c 06 be 63 9c be 3d
       -0.060371865 -0.07752283 -0.13145813 0.09307172
0000f0 8b e5 69 be ed e0 6d be fa b3 63 be 8b d3 9f 3c
       -0.2284147 -0.23230334 -0.22236624 0.019510051
000100 d1 1b af bd 07 4c ca 3d cc 02 5f be ee 9c 2c be
       -0.085502274 0.09877782 -0.2177841 -0.16856739
000110 16 6c e6 3d 4a ef 23 bc fa dc 05 3d ae 30 57 3d
       0.112510845 -0.010005781 0.032681443 0.05253666
000120 5c b4 47 bc d2 71 60 3d ca ed 32 3c d4 23 9c 3d
       -0.012188997 0.054796048 0.010920951 0.07624021
000130 81 07 38 be 44 e3 2f 3d 5b 37 ab bd a8 11 18 3e
       -0.17971613 0.042941347 -0.083601676 0.14850485
000140 32 01 e1 bd 97 b8 dd bd 96 db 80 bd a7 c8 7e be
       -0.10986556 -0.10826223 -0.06291883 -0.2488123
000150 24 51 e5 3b 15 83 5c 3d fd 2a 58 3d c5 61 dc bd
       0.006998198 0.053835947 0.05277537 -0.107608356
000160 e7 2b a0 bd 3f 4d c1 3e 1f 5e b3 3d 6d e5 ae 3e
       -0.07820874 0.37754247 0.087581865 0.34159413
000170 b6 68 76 bd 72 e7 de 3b 8d 94 b6 3b 0e 50 bd 3d
       -0.060158454 0.006802493 0.005571908 0.09243785
000180 0c 68 21 be 51 d2 a3 be 56 c3 8f be 9d 61 89 3e
       -0.15762347 -0.31996396 -0.28078717 0.26832286

classify.weight f4 [2, 100]
000000 bd e0 b0 3c 3e 08 50 3e 5a 36 0c 3e 33 9c 16 3e
       0.021591539 0.20315644 0.13692608 0.14708023
000010 9e a8 e3 3d 12 94 0d be 16 85 06 be e0 7e 53 3e
       0.111161456 -0.13826016 -0.13136706 0.20653868
000020 16 10 28 be 6f 38 e3 3d 24 f6 45 bd a4 6e 94 bd
       -0.16412386 0.11094748 -0.04833044 -0.072476655
000030 7e ea a6 3b 75 fa c0 bd 30 c4 63 3c c6 40 95 bc
       0.0050938716 -0.09422771 0.013901755 -0.018219363
000040 db 42 2f 3e f3 5b 38 bd e2 bc 63 bd 9c 0e f9 3d
       0.17115347 -0.045009565 -0.055600055 0.1216099
000050 a7 57 20 be a0 37 2a 3e 21 88 42 3e cb 0d 2e bd
       -0.15658437 0.16622782 0.18997242 -0.042493623
000060 39 25 d9 bd c0 17 c0 3d 0a 9f 63 bd 69 c7 d8 3d
       -0.10602803 0.0937953 -0.055571593 0.105849095
000070 02 0a 0d be dc 36 2d be ba 15 da bd da f3 a4 3d
       -0.13773349 -0.16915458 -0.10648675 0.080543235
000080 b3 e6 b9 bd e3 e9 a8 bd f8 25 6d bd 92 ad 81 be
       -0.090772055 -0.08247735 -0.057897538 -0.25327736
000090 88 e2 ff bd b5 48 61 3d d0 a1 ab bd 50 88 9b 3d
       -0.12494379 0.05500098 -0.08380473 0.07594359
0000a0 85 8d ad 3c ea b2 f2 3c cc c5 58 be db 47 2a 3e
       0.021185646 0.029626328 -0.21169204 0.16628973
0000b0 a2 7f 19 be 0a 0c 62 be eb e1 e9 bd 85 59 9c bd
       -0.14990094 -0.22074905 -0.114200436 -0.07634262
0000c0 78 e8 ac 3d 35 cb 16 3d 70 73 8c 3d 33 63 12 3e
       0.084427774 0.036814887 0.068579555 0.14295654
0000d0 7d e8 4a 3e 29 95 76 be 65 30 07 3c bb bf 92 bd
       0.1981525 -0.24080338 0.008251284 -0.07165476
0000e0 42 8c b8 bd 18 94 78 3d fb cc 92 bc b2 6e 08 3d
       -0.09011127 0.06068811 -0.017920008 0.033308692
0000f0 62 33 4f 3d af 61 ea bd 10 00 51 bd ad 9a a1 3b
       0.05058611 -0.11444413 -0.05102545 0.004931769
000100 48 e1 0f be 28 25 07 3c 69 89 3e be 87 a8 3c bd
       -0.14050782 0.008248605 -0.18607105 -0.046059158
000110 f6 54 2f 3e a2 2c 5b 3d 9f 1c 18 3e a9 a5 b4 3d
       0.17122254 0.053509362 0.14854668 0.0882066
000120 ac c8 bf 3d f9 34 59 3e 66 c3 b3 3d da b6 14 be
       0.09364447 0.21211614 0.08777504 -0.14522877
000130 5e 82 1c 3d 5b 74 de 3d e8 e8 31 3d dc 30 c4 3d
       0.038210265 0.10862037 0.043435007 0.09579632
000140 af 0b 6c 3c b6 76 71 bc ec 68 0d 3c 23 43 33 be
       0.014407082 -0.014737776 0.008630972 -0.1750608
000150 8f 12 0d be bc ee 1f bd c6 56 e3 3d 75 c5 f7 3d
       -0.13776611 -0.039046034 0.11100535 0.12098209
000160 a3 ba fe 3d ca 53 9d 3d a1 f4 fa 3d 42 fe c8 3d
       0.12437942 0.07681997 0.122536905 0.09814121
000170 16 e3 52 3e 63 5d 65 3e a3 11 26 3e 65 31 9b bd
       0.20594439 0.22398905 0.16217665 -0.07577781
000180 8c 36 df bd 79 85 80 bd 3f 5d 5b 3d f9 ed 81 3e
       -0.10899076 -0.06275458 0.053555723 0.2537687
000190 2c 9e 91 bd 9e 2b a6 bd 22 51 29 be eb d6 86 3c
       -0.07110247 -0.08113788 -0.16534856 0.016459903
0001a0 35 18 4e bd 51 96 14 3e 7f 0f 83 3d 82 70 6c be
       -0.050316054 0.14510466 0.0639944 -0.23089793
0001b0 6d 0a af 3d bc 00 fa bd e0 e0 13 be 29 4b 28 3c
       0.085469104 -0.12207171 -0.14441252 0.010271826
0001c0 cc db 1b be 2a 7a d5 bc 91 c1 1d 3e c9 43 d2 3d
       -0.15220565 -0.026059229 0.15405871 0.10266835
0001d0 e1 d4 61 be dc b0 f8 bd bb f6 97 3d 8d ea 61 be
       -0.22053863 -0.12143108 0.07420107 -0.2206213
0001e0 4e ff df 3d df 21 48 be 8d c3 65 bc 83 76 e0 bd
       0.109373674 -0.19544171 -0.014023674 -0.10960104
0001f0 42 9e 76 3e 91 b6 ab bd 04 6e f9 3d e3 55 18 bc
       0.24083808 -0.08384431 0.12179187 -0.009297821
000200 25 c8 b5 3d 44 5f 6d 3d ea c8 c7 3d a3 a6 1c bd
       0.08876065 0.05795218 0.09755118 -0.038244855
000210 1f cc 3f 3e 7f 4e 11 bb cb 55 32 3e 91 8f 82 3e
       0.1873021 -0.0022172031 0.1741554 0.25500157
000220 b5 b0 7a 3e cc 4c 2f 3d 14 2e eb 3d 7f 65 3b be
       0.24481471 0.04279785 0.11483398 -0.18300436
000230 fc ee 1c be a2 93 bb 3d 8e f4 44 3e ef a4 13 be
       -0.1532554 0.09159018 0.19233915 -0.14418386
000240 db 68 31 3d f3 a4 2d 3e bf 7b f1 3d e6 d8 a3 3b
       0.04331289 0.16957454 0.11791181 0.0050002215
000250 42 74 fb bc 4b 73 b3 3d 42 f3 0d be 2f da 4b be
       -0.030695084 0.08762225 -0.13862327 -0.19907449
000260 ff 13 59 be b3 52 34 3e 68 9b 98 bc bb c8 15 bd
       -0.21199034 0.17609672 -0.018628791 -0.036568385
000270 ce 2b d6 3d 91 f6 38 3d 18 9e 79 bd d4 54 9a 3d
       0.10457574 0.04515702 -0.060941786 0.07535711
000280 0a 38 86 bd 55 58 38 3e 8f d6 d9 3b 57 0a 81 bc
       -0.06553657 0.18002446 0.006647892 -0.015752
000290 95 e4 81 3d 20 3b a3 3d e1 23 8e 3c 3a 55 61 3d
       0.06342427 0.079702616 0.017351093 0.05501292
0002a0 37 2f 43 be 03 2b 59 3c 6a 3f d3 bd ba 7f a5 bd
       -0.1906098 0.013254884 -0.1031483 -0.080810025
0002b0 ca 27 00 be 09 e1 5a be e9 ee a9 bd 30 82 c9 3c
       -0.12515178 -0.21374907 -0.082975216 0.024598211
0002c0 d0 a0 0d be 48 6e ac bd e0 55 05 bd 65 b5 55 3d
       -0.13830876 -0.08419472 -0.0325526 0.052174944
0002d0 1f ea 1c 3c 7f a4 6f 3d 3e 43 0e bd 44 54 de 3d
       0.009577303 0.058506485 -0.034732096 0.10855916
0002e0 4d 47 10 3e 1e be 81 3c 09 11 b2 bd 93 d6 79 be
       0.14089699 0.015837725 -0.086946554 -0.2439826
0002f0 19 b8 ff bd 52 c5 83 3d 7e f7 42 bd e1 5a 1f be
       -0.12486286 0.0643412 -0.04759931 -0.15562011
000300 bf c2 68 be c5 9f 42 bd 50 e1 f6 bd 51 2f 3e 3d
       -0.2273054 -0.04751565 -0.12054694 0.046431843
000310 27 07 ff 3d 9a f3 d0 3d 0e 83 76 3d df 17 63 be
       0.12452536 0.10202713 0.060183577 -0.22177075

classify.bias f4 [2]
000000 6e 18 d6 3c e0 9b 80 bd
       0.026134696 -0.06279731
