pythonProject/week4 中文分词和tfidf特征应用/上午-中文分词/rnn分词/model.pth (torch, 988718 bytes, 7 tensors)

embedding.weight f4 [4622, 50]
00000000: 0000 0000 0000 0000 0000 0000 0000 0000
00000010: 0000 0000 0000 0000 0000 0000 0000 0000
00000020: 0000 0000 0000 0000 0000 0000 0000 0000
00000030: 0000 0000 0000 0000 0000 0000 0000 0000
00000040: 0000 0000 0000 0000 0000 0000 0000 0000
00000050: 0000 0000 0000 0000 0000 0000 0000 0000
00000060: 0000 0000 0000 0000 0000 0000 0000 0000
00000070: 0000 0000 0000 0000 0000 0000 0000 0000
00000080: 0000 0000 0000 0000 0000 0000 0000 0000
00000090: 0000 0000 0000 0000 0000 0000 0000 0000
000000a0: 0000 0000 0000 0000 0000 0000 0000 0000
000000b0: 0000 0000 0000 0000 0000 0000 0000 0000
000000c0: 0000 0000 0000 0000 517d d8be 9c7e 46bf
000000d0: 2d35 1a3f 7024 afbf 2606 803f 520c 05c0
000000e0: 6dcc 1c3f e1b7 013f e010 0bbe 981c 9ebf
000000f0: fd5b 853f eb81 a8bf 5222 ef3f 0463 413f
00000100: 2942 fbbf afd2 eabc c1f2 223e d797 d53f
00000110: 5c1d e13e 9706 863f f309 103f 05f0 003f
00000120: de55 86bf ebd5 13bc 299e 8d3f 88b6 edbc
00000130: e35d 6fbf 1fcf e9be 74ee 96be a3cb da3f
00000140: ab41 233e feee 663e f787 ba3d 1188 f33f
00000150: b9e6 0bc0 98bf c9bf cc7b 883f a899 31be
00000160: f15e d4bd 3b4f 3c3e dc4e 14c0 e787 82bf
00000170: c1ee 353f d862 1540 d8a7 02bf c9f3 a7bd
00000180: 51e0 fbbe 387c 3f3f 8323 443f caa1 2bbe
00000190: d1e7 8bbe 0460 aebe c4d6 903e 9f66 f23e
000001a0: 3ea5 1bbf 3176 a03c bd07 b4bf ac7f a0be
000001b0: f56f 2dbf f10a 0340 1d78 c13d 7441 0abf
000001c0: 24d8 543f 371f e0be 1084 933f 5f9a e1be
000001d0: f2eb 8fbe d4ef bcbe bd83 0bbd 1b1e 333f
000001e0: a6dc 273d bf44 a3be 748e 363f 1de9 b13f
000001f0: 0e56 a93f 543a 3dbf 1a3e 473f 6cc5 ae3e
00000200: 7d13 ee3f 2575 05be b579 bebd 38e6 1a3f
00000210: f804 fd3e cc32 08c0 4b1f cd3f d061 abbe
00000220: f33a 51bf 4082 e33e 3d7b db3e 5c6d 84be
00000230: 4454 d0bd 8621 2fbe eaf3 4bc0 8995 1abf
00000240: cdb5 c4bf b137 76bf 59a9 89bf 4991 b3bf
00000250: 703d 083e 4c52 62bf 6398 6d3f 6b6d 793e
00000260: f535 36bf 3024 c03f 8b36 a93e a474 093e
00000270: c157 04c0 6679 9abb bec5 283f 435a 213f
00000280: 8eb5 7cbf 51b6 0bc0 b1e5 d33f 634a 75bf
00000290: cd2b 673f a928 92bf 0945 853d ef1e 28be
000002a0: 01cc 053f 4104 433d 7da4 5a3f 53cc d83f
000002b0: 00b5 c83f 5eb1 3a3f 0587 cbbf 71e8 233f
000002c0: a139 da3f dcd1 1ebd dea5 793e 9aa1 97bf
000002d0: 82f0 053f c141 bd3f 93b6 bf3f 27bf ccbf
000002e0: dddb b03d 4de6 1bbe 3ed9 4b3f 1a8c 713f
000002f0: 90e9 fc3e b3da 14c0 b75e 9b3f 06d6 a53f
00000300: 0c8a 3ebf d950 2340 a77d b3bd fa36 c4be
00000310: 1204 f23f 19a1 eabf b6d3 19c0 f462 d2be
00000320: b890 73bf 3f54 6c3f 6614 8a3f f27c 82be
00000330: c456 7b3f 088b e73f f3ae a6bd 26c7 ae3e
00000340: 6f55 24be 8d78 2e40 5412 8b3f 1362 b23f
00000350: a0b8 b5bd 10df cebe d6b9 e63c f721 82bf
00000360: 6969 6040 c1a8 b23e d87a 8dbe 7586 9f3e
00000370: 1d35 853e 1e66 76bf 00e0 51be 12c6 89bf
00000380: fa62 783e 774d aabf b831 f6be b3c6 d6bf
00000390: 9099 bebf 0a8a 383f cf7d fd3f c069 d13e
000003a0: 7998 1f3e 4fd1 ebbf 415a bdbe 70ae 903f
000003b0: 5438 583f 9947 033f f56d 86bf 2fa0 fc3c
000003c0: d0a8 0ac0 7a81 66bf f672 873f fd1a e1be
000003d0: f2a6 05bc 3577 02bf 1e8a ce3f c943 a23f
000003e0: 9253 cbbe 3dba 763e f6d3 5b3e c042 533f
000003f0: 86b3 163f 6ccd 1a3f 4b38 65be 5f90 57bf
0.0 0.0 0.0 0.0 0.0 0.0 0.0 0.0
0.0 0.0 0.0 0.0 0.0 0.0 0.0 0.0
0.0 0.0 0.0 0.0 0.0 0.0 0.0 0.0
0.0 0.0 0.0 0.0 0.0 0.0 0.0 0.0
0.0 0.0 0.0 0.0 0.0 0.0 0.0 0.0
0.0 0.0 0.0 0.0 0.0 0.0 0.0 0.0
0.0 0.0 -0.4228311 -0.7753694 0.6023739 -1.3682995 1.0001876 -2.078877
0.6124943 0.506712 -0.13580656 -1.2352476 1.0418698 -1.3164648 1.8682349 0.7554171
-1.9629565 -0.028664915 0.15912916 1.6686963 0.43967712 1.0470761 0.5626518 0.5036624
-1.0494955 -0.00902317 1.1063892 -0.029017702 -0.93502635 -0.45665833 -0.294788 1.7093395
0.15943019 0.22552106 0.091079645 1.9025899 -2.1859572 -1.5761595 1.066278 -0.17343771
-0.10369671 0.18389599 -2.3173132 -1.0197724 0.71067435 2.334158 -0.5103736 -0.08200795
-0.49194577 0.7479892 0.76616687 -0.16760936 -0.273253 -0.3405763 0.28288853 0.4734392
-0.60799015 0.019587608 -1.4064862 -0.31347406 -0.6774896 2.0475428 0.09446738 -0.54006124
0.83142304 -0.43773815 1.1524677 -0.44063088 -0.281097 -0.36901724 -0.034061182 0.6996781
0.04098191 -0.31888387 0.71311116 1.3899266 1.3229387 -0.73917127 0.77829134 0.34134996
1.8599697 -0.13032968 -0.093005575 0.60507536 0.49417853 -2.1281004 1.6025175 -0.33473063
-0.81730574 0.4443531 0.4286746 -0.25864685 -0.101723224 -0.17102632 -3.1867623 -0.6038442
-1.5367981 -0.9617873 -1.0754806 -1.4028713 0.13304687 -0.88406825 0.9281065 0.24358146
-0.7117608 1.5011044 0.33049425 0.13423401 -2.067856 -0.004714179 0.6592673 0.63028353
-0.9871453 -2.1830027 1.6554471 -0.9581663 0.9030121 -1.1418658 0.06507308 -0.1641805
0.5226441 0.04761148 0.8540724 1.6937355 1.5680237 0.7292689 -1.590058 0.6402655
1.7048837 -0.038774356 0.2437968 -1.1846192 0.5232011 1.4785691 1.4977592 -1.5995835
0.086356856 -0.15224572 0.7962836 0.94354403 0.49396944 -2.3258483 1.213828 1.295594
-0.7442939 2.5518095 -0.08764201 -0.38323194 1.8907492 -1.8330413 -2.4035468 -0.4109112
-0.951427 0.9231605 1.0787475 -0.2548595 0.9817927 1.8089304 -0.08138838 0.34136313
-0.16048215 2.7261078 1.0864968 1.393618 -0.08873105 -0.40404558 0.028164785 -1.0166615
3.5064337 0.34894374 -0.27632785 0.3115727 0.26017085 -0.9624957 -0.20495605 -1.0763571
0.24256507 -1.330489 -0.48084807 -1.6779388 -1.4890614 0.7208563 1.9804019 0.40900993
0.15585507 -1.8423251 -0.3698292 1.1303234 0.8446095 0.51281124 -1.0502306 0.0308381
-2.1665535 -0.90041316 1.0581958 -0.43965903 -0.008157479 -0.50963145 1.61359 1.2676936
-0.39712197 0.24094482 0.21467575 0.8252373 0.5886768 0.604697 -0.22384755 -0.8420467

rnn_layer.weight_ih_l0 f4 [100, 50]
00000000: 9d49 4bbe 247e 74be 21a1 3ebe 3383 88bd
00000010: 966a 98bd 7b44 ad3d 8fcb 1d3d 2124 023e
00000020: 1fb0 733d 4ffc a23b 98f2 a5bd f41c 04bd
00000030: 20ab b33c 4f03 c5bd 3b81 29bb 7a30 953d
00000040: 3a79 c23c d468 333d 7d34 133d f5c4 a03d
00000050: 81c6 26be 4a7a 18bd 87b7 e3bd fca0 3fbd
00000060: a67f e63d 813e 9c3c 7a5a 11be 4f94 a4bd
00000070: 58d4 1f3e ea4f 30be 4ba2 133d 03be 163e
00000080: 94bf 403d d1b4 1d3d 2a02 253e af33 1d3e
00000090: 2095 143e e1d6 6dbe d1f6 353d 4e1e ffbb
000000a0: 81c1 723d 26c0 06be 94f8 f53d 990f f9bd
000000b0: bcbc c6bd 522c af3b b15b d4bd b30a 08be
000000c0: ed2e fa3c d389 383e 614d 66be ac9e a63d
000000d0: 91aa a6bd 5e44 bbbc ab4b 003e 6dfc e9bc
000000e0: 2af5 313e 45c3 c0bd dd80 42bd 9d6b 603d
000000f0: 57d1 ac3d 6a9d c4bd 56ef c6bc 263f 9f3c
00000100: 0ee5 b73d 8a89 62bc b55c fe3d 38e0 243d
00000110: 3e8f 71bd 377a 1e3e 43e6 0d3e 4c71 29b9
00000120: 663c 86be c673 94ba 006b 02be 47ec ef3c
00000130: 1011 ed3d 34c9 0fbe 787a 91bd 992a ba3d
00000140: 9538 df3d 6703 e7bd 2a78 333e 80e3 4339
00000150: e10f 493d 1c94 7b3b 3aaf d3bc 42b5 09bd
00000160: ccda 4c3e 9c75 113e c0f9 25bd 9b1b 103e
00000170: fdc7 833d d2b5 173e 98a3 823d a10e 233d
00000180: a5a1 043e 54cf 093e 417d 8c3b ce31 3ebc
00000190: 3857 453e 3d56 95bd d5b4 5dbe 9e76 02bd
000001a0: 0e78 273e dd61 91bd 6775 20bd ac31 03be
000001b0: 16fd b73d 43f0 03be 9c81 6abc 1ee5 09bd
000001c0: 0314 5fbd 354c ae3d 01d3 23be fca1 e23d
000001d0: 9eb6 1ebe 4180 0cbe d7e0 37bd 8151 533e
000001e0: fefb b8bc fb7b 51bd d8b8 143d 3caa e3bd
000001f0: 583f cb3b 2be0 153e a2ce 793d 56db f5bd
00000200: a8ae 61bd 4ceb 1abe 028b 9a3d f08c 4d3d
00000210: f0fe 973d 4402 ba3d bb56 deba f17d 553c
00000220: ff2b 04be 981e d0bd 9077 2c3e e171 243d
00000230: 1333 d2bd e2cb 63be 64de ca3c 2cb3 d8bd
00000240: 097d fdbd 74db dd3d 608c 903e 4649 8a3d
00000250: ad48 f03d 1a06 243d a68f 3d3b 2cc3 bfbd
00000260: 5064 b33d b02d 2f3e 5a1a 073e 0ba0 6d3d
00000270: a01b 193c e6c3 863d 13ca 23bd a09d f7bd
00000280: 28e0 dfbd 2800 bb3d 524b 9fbb 3a66 b23d
00000290: 51f1 79bc b17e dd3d 1ab8 70bd 29a5 6ebd
000002a0: a1db 17be 30ad ee3b 9dcb b73d a9a2 4f3e
000002b0: ceaa 993a 8aec eb3b 9b52 07be 3042 ae3d
000002c0: 2954 bd3d 9d61 20bc ca1a 49be 1968 e53d
000002d0: 51e0 bfbd 25cc bbb9 9f7a bebd 2433 f5bd
000002e0: 68e2 d43d 4c71 1a3e 034b 333e 984a 0c3d
000002f0: dab9 28bb de31 293d eafa a2bd 2dda 323b
00000300: 9bb1 9bbd 7437 57be 0f41 68bd 90e6 5ebd
00000310: c3e2 853c 5047 debd 0aa7 a83d d0bf 963d
00000320: 2571 933d 47a5 783c 466a 413d 5445 923d
00000330: 2edd 99bd 7402 333e 9be0 6dbc 4a35 38be
00000340: 0c90 b43d 72c4 e2bd fbfb 4d3d e0e0 20be
00000350: ee66 d2bd a03c b63d bf64 f93a 8272 53bd
00000360: 2153 0d3e 3897 cb3d 85d4 953c 0b97 e53d
00000370: 6e11 833e 829d 3bbe 1d89 0c3c 9a26 513e
00000380: 4c51 2fbd deed 51bc 9f71 5cbd a10b 37be
00000390: 23e8 0abd 236b 8a3d bafc 7ebe 7e00 4abd
000003a0: 5c2a 8c3d e552 a03d fb73 95bd c34f 4ebe
000003b0: 7755 1d3d 21e7 d83d 1d9e bfba f6ea 1b3e
000003c0: c2f4 793e 8ebd d0bd e06b 6bbe a83f 48bd
000003d0: d354 ffbc ba2b e1bd eeab 533d f599 28bd
000003e0: 1191 ecbd ded3 8e3d 09b4 bd3c e23b d23d
000003f0: 4ee9 c0bd c926 c33c 1aef 333d 4b49 8d3c
-0.198523 -0.23876244 -0.18616153 -0.06665649 -0.07442205 0.08460327 0.038524207 0.12709095
0.059494134 0.004973925 -0.08102912 -0.032254174 0.021932185 -0.09619772 -0.002586438 0.07284637
0.023739446 0.043801144 0.03593873 0.078500666 -0.1628666 -0.037226 -0.111189894 -0.046784386
0.11254816 0.019072773 -0.1419467 -0.080361 0.15608346 -0.17217985 0.036043447 0.14720921
0.047057703 0.038502518 0.16114107 0.15351747 0.14510012 -0.23226501 0.044424836 -0.007785595
0.05926657 -0.13159236 0.12010303 -0.12161178 -0.09703967 0.0053458596 -0.10369051 -0.13285331
0.030539954 0.18021326 -0.22490455 0.08135733 -0.08138002 -0.022859748 0.12528865 -0.028562749
0.17378679 -0.09412245 -0.047486175 0.054790128 0.08438366 -0.09600337 -0.024284046 0.019439291
0.089792356 -0.013826737 0.12420026 0.040252894 -0.058974497 0.15476309 0.13857369 -0.00016159302
-0.26217955 -0.0011326007 -0.1273613 0.02928747 0.1157552 -0.14041597 -0.07103437 0.09090156
0.10899464 -0.11279946 0.17526308 0.000186814 0.04908741 0.003838784 -0.02584039 -0.033620127
0.2000534 0.1420502 -0.040521383 0.1407303 0.06434629 0.14815453 0.06378859 0.039808873
0.12952287 0.13457996 0.0042873924 -0.011608554 0.19271553 -0.07291839 -0.21651013 -0.031851403
0.16354391 -0.07098744 -0.039174464 -0.12811917 0.08983819 -0.12884621 -0.014313128 -0.03366577
-0.054462444 0.08510629 -0.1599846 0.11066052 -0.1549935 -0.137208 -0.04489216 0.2063656
-0.022581097 -0.051143628 0.036309093 -0.11116454 0.0062026195 0.14636295 0.060988076 -0.12004726
-0.055098206 -0.15128821 0.07546045 0.050183237 0.07421672 0.090824634 -0.0016963104 0.013030515
-0.12907408 -0.10162085 0.16842484 0.040147666 -0.10263648 -0.22245744 0.024764247 -0.10581049
-0.12377364 0.10832873 0.28232098 0.06752257 0.11732612 0.04004488 0.0028924732 -0.09363398
0.087593675 0.17107272 0.13193646 0.058013957 0.009344965 0.065803334 -0.039987635 -0.120906115
-0.10931426 0.09130889 -0.004861274 0.087109044 -0.015255288 0.1081518 -0.058769323 -0.058262978
-0.14829876 0.007283829 0.08974383 0.20276894 0.0011723877 0.0071998285 -0.13215105 0.08508718
0.09244568 -0.009788898 -0.19639125 0.11201496 -0.09368957 -0.0003581952 -0.09300732 -0.11972645
0.10394746 0.15082282 0.17509083 0.034250826 -0.0025745542 0.041307323 -0.07958014 0.0027290687
-0.07602235 -0.21017247 -0.05670267 -0.0544191 0.01634348 -0.108534455 0.08234985 0.07360804
0.07199315 0.015176124 0.04722049 0.071421295 -0.0751289 0.17481405 -0.014518882 -0.17989078
0.08816537 -0.11072625 0.050289135 -0.15710783 -0.102735385 0.08898282 0.0019027217 -0.051622875
0.13801242 0.09940952 0.018289814 0.1121045 0.25599235 -0.18321803 0.008577612 0.20424882
-0.04280214 -0.01281306 -0.053819295 -0.1787553 -0.03391279 0.06758716 -0.24901095 -0.049316876
0.06844017 0.07828311 -0.07297512 -0.20147614 0.038411584 0.10590959 -0.0014619265 0.15226349
0.24409774 -0.10192405 -0.2299037 -0.048888832 -0.031168377 -0.10994668 0.051677637 -0.04116245
-0.11551107 0.06974004 0.023157137 0.10265328 -0.09419499 0.023822205 0.043929197 0.017246863

rnn_layer.weight_hh_l0 f4 [100, 100]
00000000: 5090 f63d 69b0 b63c f4a5 713d a6aa 153b
00000010: c829 b53b 90de a03c e108 f5bd e163 2d3d
00000020: 603f a5bd 1c8d 45be c080 33bd c56e 1c3e
00000030: e16d 6cbd 531c 9fbb 30ed 2a3d 3d45 2fbe
00000040: 1503 5bbd 2e83 97bd 62ad 183e f887 fcbd
00000050: 972e ae3d 3e70 8c3d 32ac b9bd 87bc 26bd
00000060: 3096 6c3d 165b 5f3d 5f4e 963d 29bd 8bbd
00000070: 8d3a 933d 8aa6 8d3d 9bc1 03be 16b4 47be
00000080: 66bd 1c3e 358f 763c 3865 84bd 90fb 9abd
00000090: f942 a1bc 8848 be3d 8f90 38bd 7e76 99bd
000000a0: b7fc 243d 9a27 05be 3221 0bbd b787 1f3e
000000b0: 9104 4e3d 6664 953d 3c5d 283d 7b6e f2bb
000000c0: d0b0 c2bd 3d34 cbbc e021 a6bd c184 2f3e
000000d0: 6525 073e d0cd 1e3e 61e9 72bd c5b2 57bd
000000e0: 1520 97bd 1ed7 823c 6619 a8bb 96cb 813d
000000f0: e65a 453d 3a01 ea3d 1f38 bf3c a3ff d93d
00000100: 8f0d 843c 6bd0 aebd 1da1 3a3d b826 003e
00000110: e07a 0e3e 1aaf 0a3d 17e4 a43d 0874 673c
00000120: c388 323d 530b 53bd 5440 9c3b 40b4 99bd
00000130: 88f3 9abc 8c23 81bd faab 263d 662b 0ebe
00000140: 6a3c 6a3d 424f 5b3c ebec 47be d136 36bd
00000150: 14d3 77bd 1d75 abbc 17f4 b6bd d558 30be
00000160: 5da6 dc3d b0af 79bd fd99 24bd 2ae0 b23d
00000170: a3c9 d43d 2999 b73c df1a 0d3d be1d 123c
00000180: 3739 8f3d d669 55bd e73b d83d 6caa 9fbd
00000190: 4647 463d 2f71 953c 44cf d3bc fea8 71bc
000001a0: 05b4 f83d 0807 693d 7460 8dbd ed88 13be
000001b0: 4ea4 c33d 91fe cbbd e6cf a03c da38 bd3d
000001c0: ddd5 c6bd a6a4 68bd 62ec 013e 480f f8bc
000001d0: bd5a a03c 7063 803d 7cff 1dbe 32a4 d73d
000001e0: c5ab 8c3d fec0 a63c 551a 953d 4b6e 5dbc
000001f0: 4bba d23d 0236 c33d c07d c4bd 3df1 263d
00000200: 9454 debc 0af3 a7bb c702 e7bd 0891 d0bd
00000210: 70f0 29be cc39 ffbd 18ff 04bc e019 9f3d
00000220: f552 8f3c 8d3b 7f3d 0761 553d a263 70bd
00000230: 7792 85bd 49a9 c03c 56fe 3cbe cb2c 7fbd
00000240: 6b38 35bd d21a debc 37a6 2bbd 12d3 debd
00000250: abf5 223d 6d83 ae3c ea5b 5cbb 9693 7c3e
00000260: a5af 813c 1a71 b33c dfb9 afbd b893 47bc
00000270: b699 59bd 1053 af3c 9256 82bd 8a52 c03d
00000280: 002a 863e 43ca 823d 9d32 bcbd 400f ecbd
00000290: 7277 8e3d 8838 eebc 2980 94bd 903a a93d
000002a0: 298c 963c 1d00 67bd 1364 0e3e b099 d0bd
000002b0: f77f 8dbd ad13 743b fd6f 88bb 6d17 00be
000002c0: 6866 4e3d 36cb c6bc 856c 5abd ed4b 1fbe
000002d0: beb1 6cbd 1026 fbbc 00f7 c1bc 5f11 69bd
000002e0: aab3 0f3d efc9 603d fa6c c23d 5186 f5bd
000002f0: 764a 4f3c e9cd 3ebc 5fda 0d3d 2a87 8b3c
00000300: 6a76 8cbc abef b43c 894e 0e3d aa7a 7ebd
00000310: 6542 103e 8fce c63d 248c fabc 9ce6 f2bd
00000320: 2fc2 433c 789b dd3c a179 cc3d 2ef4 9abd
00000330: 210d d6bd 0138 74bd 5cfb 033e 18bc 953b
00000340: 59a9 dcbd 1262 68bd 0118 23bd a7c7 563c
00000350: 8f13 9dbd 1b4a ebbd cf6c cfbd 5da3 ed3d
00000360: 8fc2 203e edeb 08be 4c53 f4bd 6023 afbd
00000370: a4d7 ed3c 4d96 53bc 6219 e6bd 4396 2fbd
00000380: a7fc b7bc 6298 f1bc 194b 7fbd 7433 63bc
00000390: 2417 de3d aff5 313d b45a 9f3d a73e fbbd
000003a0: 1953 b8bd ac5a 6bbc 82bc 8ebd 347c a7bd
000003b0: 235e b1bb 762f 5e3d 684f 123c f2d6 003e
000003c0: 78b8 0ebd f4e2 97bc a8a6 4a3a 1b49 593d
000003d0: 7ffb 84bd 910e 303c e182 083c 2c1d e53c
000003e0: fe56 2abd 96af 0fbc 861a 5dbe df65 c2bd
000003f0: 37d7 13bd 47e6 0bbe b769 ca3d 2f91 953d
0.12039244 0.022300916 0.058996156 0.002283731 0.0055286624 0.019637376 -0.11964584 0.04233158
-0.080687284 -0.1929211 -0.043823957 0.1527663 -0.057721976 -0.0048556714 0.041730106 -0.17116256
-0.053469736 -0.073980674 0.1490989 -0.123306215 0.0850498 0.06857346 -0.09066047 -0.040707137
0.057760417 0.054530226 0.07339167 -0.06823189 0.07188902 0.069165304 -0.12866823 -0.19502291
0.15306625 0.015048792 -0.064646184 -0.07567513 -0.019685255 0.09291178 -0.045059737 -0.07493304
0.04028007 -0.13003388 -0.033967204 0.15579115 0.050297324 0.0729454 0.04110454 -0.007398424
-0.095063806 -0.024805183 -0.0811193 0.17140485 0.13197859 0.15508199 -0.0593046 -0.052660722
-0.07379166 0.015971716 -0.005129981 0.06337659 0.04818239 0.11426015 0.02334219 0.10644462
0.016119746 -0.08535846 0.045563806 0.1251477 0.1391406 0.033858396 0.08051317 0.014126785
0.043587457 -0.05152447 0.0047684107 -0.07505083 -0.018914953 -0.06305608 0.040691353 -0.13883743
0.05718652 0.013385596 -0.19523971 -0.04448587 -0.060504034 -0.020929867 -0.08933275 -0.17221387
0.10773919 -0.060958564 -0.040185917 0.08734162 0.10390022 0.0224119 0.034449454 0.008918224
0.06993335 -0.052102886 0.105583005 -0.07796177 0.048407815 0.018242447 -0.025855668 -0.0147497635
0.12143711 0.05689147 -0.069031626 -0.14407702 0.09552823 -0.09960664 0.019630384 0.09239359
-0.0970876 -0.056797646 0.12687829 -0.030280724 0.019574517 0.06268966 -0.15429491 0.10529365
0.068687 0.020355698 0.07280413 -0.013515065 0.10289439 0.095317855 -0.095942974 0.040757407
-0.02713994 -0.005125408 -0.112798266 -0.101839125 -0.16595626 -0.12462196 -0.00811746 0.07768607
0.017495612 0.06231265 0.052094486 -0.058688767 -0.065220766 0.023518221 -0.18456396 -0.062298577
-0.044243257 -0.027112398 -0.04190656 -0.10880102 0.03978507 0.021302903 -0.003362412 0.24665675
0.015830824 0.021904517 -0.08580374 -0.012181215 -0.053125106 0.021401912 -0.06364168 0.09390743
0.26203918 0.063862346 -0.09189341 -0.11526346 0.06956376 -0.02907969 -0.07251007 0.08263123
0.01837738 -0.056396592 0.13905363 -0.101855636 -0.06909173 0.0037243173 -0.0041637407 -0.12508936
0.05039063 -0.02426682 -0.05332615 -0.15556307 -0.057786696 -0.030657798 -0.02367735 -0.056901332
0.03508345 0.05488008 0.09493442 -0.119885094 0.01265203 -0.0116457725 0.034632083 0.017032225
-0.017146308 0.022086939 0.034742866 -0.0621287 0.14087828 0.09707367 -0.030584402 -0.118603915
0.011948152 0.027051672 0.099841364 -0.07566105 -0.10451723 -0.059623722 0.12888855 0.0045695417
-0.10774488 -0.056734152 -0.039817814 0.013109124 -0.07669746 -0.11488744 -0.101281755 0.11603425
0.15699218 -0.13371249 -0.1192995 -0.08551669 0.02903349 -0.0129142525 -0.1123531 -0.04286791
-0.022459341 -0.029491607 -0.062327478 -0.013867248 0.108442575 0.043447193 0.07780972 -0.12267809
-0.090002246 -0.01436488 -0.06969549 -0.08177987 -0.0054128333 0.05424448 0.008930065 0.12581995
-0.03484389 -0.018540837 0.0007730522 0.053048234 -0.064932816 0.01074566 0.008331985 0.027968012
-0.04158687 -0.00876989 -0.21592149 -0.094920866 -0.036093917 -0.13662063 0.09883445 0.07303082

rnn_layer.bias_ih_l0 f4 [100]
00000000: b9ea 0b3e 2372 873e 9bca 9fbd 6c9b c43c
00000010: 90c1 e0bb 6d2e 003e a8be debc 3926 983d
00000020: cc57 3b3c 80f3 953d 49e1 803c 2bcf 4fbe
00000030: 3fa5 af3c bfc8 e43d ded7 b2bd d835 30be
00000040: 68f1 46bd ef03 ac3d d2e4 a2bd 150d 633d
00000050: 5826 e93d c2c8 83be d0a6 95bd 5e0b b0be
00000060: 0f45 113e 0b2b 76bc 118e 993d 2e55 443e
00000070: 5aba 33be 2d1f 45bd 0f7e 663c 2301 2b3e
00000080: e261 6b3d b35d 21be 9386 983e 1a52 483d
00000090: 9375 e4bc 925c 48be 5176 bfbc 8fc7 a6bb
000000a0: f224 40be e476 bb3d c635 35be 45be 86bb
000000b0: 3e09 97bd 7fa9 43bd 17bd 81bd 92a3 4a3d
000000c0: 19ee afbd 4b3f a0bd 2ddd 213e a5db c2bd
000000d0: 1331 e13d dd51 39bd 67d0 09be 2a96 4f3d
000000e0: aee9 443e 306f 333d 673a da3d 0ee0 c03d
000000f0: 6c74 cd3c 09f5 433e 676c 473e dfec 9f3d
00000100: 9b31 3f3e 58c1 0f3e 4114 10bd b4c3 3dbe
00000110: ced2 48bc b4b0 1b3d 2158 6b3e 0900 9fbd
00000120: 3c78 85be e07b 9a3e 1eba 96be a471 733e
00000130: 9c64 00be a628 2abe ff70 88bd 161b 913d
00000140: b6d4 f43d 0bf5 b03d 767f 8cbd f61a 80be
00000150: 1fd8 c33c 0f65 d83d aebc 3b3e 5160 3b3e
00000160: df3f ecbc a095 613e e96e 75be 22a6 24bd
00000170: 4290 2cbe 0620 a43d fae2 133e 7e4e afbd
00000180: 0f2b 513d be13 d83d 5aa6 28be 2315 913e
0.13663758 0.26454267 -0.07802316 0.023999892 -0.006859012 0.1251771 -0.027190521 0.074291654
0.011434507 0.073218346 0.015732424 -0.20293872 0.0214411 0.11171102 -0.0873258 -0.1720804
-0.048570067 0.08399188 -0.079538 0.055432398 0.113842666 -0.25739104 -0.073072076 -0.34383672
0.141865 -0.015024911 0.074978 0.19173118 -0.17551556 -0.048125435 0.014068141 0.16699652
0.057466395 -0.157584 0.29790172 0.048906423 -0.027888095 -0.19566563 -0.023371847 -0.005089707
-0.18764094 0.09153536 -0.17696294 -0.0041120374 -0.0737481 -0.047769066 -0.06334894 0.0494724
-0.085903354 -0.07824572 0.15807028 -0.0951455 0.10995688 -0.045244087 -0.13458405 0.050680317
0.19229767 0.04380721 0.106556706 0.09417735 0.025079928 0.19136442 0.19474946 0.078088515
0.18671267 0.14038599 -0.035175566 -0.18531686 -0.012257291 0.038010314 0.22982837 -0.077636786
-0.26068294 0.30172634 -0.2943887 0.23773819 -0.1253838 -0.16617069 -0.06662177 0.07085244
0.11954634 0.08640488 -0.06860249 -0.2502057 0.023906766 0.105661504 0.18333694 0.1829846
-0.02883905 0.22029734 -0.2396809 -0.0401975 -0.16851905 0.080139205 0.14442053 -0.08559893
0.051066454 0.105506405 -0.16469708 0.2833644

rnn_layer.bias_hh_l0 f4 [100]
00000000: ea0f 0f3e 3111 c63d b773 823c 941b ba3d
00000010: 8ca0 a93d 2730 223e e9d6 7ebc 2630 a0bc
00000020: f1c2 243e e833 08b8 9cdc 423d f1dd 1cbe
00000030: f6f4 05bc c543 2b3e 5696 05be b8d8 20be
00000040: fe25 a3bd b4ab de3d 7803 93bd d6cb 7b3d
00000050: 1c1a 573e c2a9 8fbe 9b69 5ebe 3a10 8ebe
00000060: 2ddf bb3b 8f4c 913c bbaf 213e c7a9 0e3c
00000070: 8524 b3bc 1532 03be 551c 413d 0b97 6b3e
00000080: 9d1f 2e3d 29f7 ef3b 5b18 273e 9cbe 36bd
00000090: 1b66 4cbd 22c1 73be 1e8f 0cbe 6de2 853d
000000a0: f680 89be e552 c33d c9b0 96bd b34e a9bd
000000b0: cb3b 57bb 9066 1abe d988 c83c aa7c 633d
000000c0: 0416 093d fdf2 27be 69bf 483e 6c74 d8bd
000000d0: 2966 093e a856 13bd 0907 2ebc a4ac a0bd
000000e0: 460e f43d c231 393d 9b93 763d 134d 573c
000000f0: 09ee 043e d800 7f3e edc0 e13d 0868 ea3b
00000100: ecf4 883e 422a ea3d 96fa 773d 9733 dfbd
00000110: 58d2 0fbd d750 8cbd 58a5 5c3e 9326 9bbd
00000120: 37ae b7be b018 a03e d63f a6be 99bc 1d3e
00000130: 504e 09be 2827 0cbe 42da bbbd 49a9 a03c
00000140: ed0d 023e e7d4 d73d c5c6 083c daec a8be
00000150: ad61 bebd a1f3 5f3e d12d 953e 61cd 823d
00000160: 3d4c 9fbb ad84 773e 9efb 9abe efae 3abe
00000170: ab8e 8abe e26f 0bbd 41e9 393e 41de 85bc
00000180: baba 30bd 2064 403e 276e d9bd 2b74 aa3e
0.13970914 0.09671248 0.015924318 0.09087291 0.08282575 0.15838681 -0.015554168 -0.019554209
0.16089989 -3.247327e-05 0.04757367 -0.15319039 -0.008176079 0.16725071 -0.1304563 -0.15707672
-0.07966231 0.108725935 -0.07178396 0.06147369 0.21006054 -0.28059202 -0.21719973 -0.27746755
0.0057333917 0.017736701 0.15789692 0.00870747 -0.021868 -0.12812074 0.04714616 0.23006837
0.042510618 0.007323165 0.16317885 -0.044615373 -0.049902063 -0.23804143 -0.1372647 0.06537328
-0.26856202 0.09537295 -0.07357938 -0.08266964 -0.0032842036 -0.15078187 0.024479317 0.05553881
0.03346826 -0.16401286 0.19604267 -0.10569081 0.13417877 -0.035971314 -0.0106217945 -0.078454286
0.11916785 0.04521347 0.06019936 0.0131409345 0.12981428 0.24902666 0.11023126 0.007153515
0.2674936 0.11433841 0.06054171 -0.10898512 -0.03511271 -0.068513565 0.21547449 -0.07575717
-0.35875103 0.31268835 -0.32470578 0.15403976 -0.1340878 -0.13686812 -0.09172489 0.019611971
0.12700625 0.10538655 0.008348172 -0.32993203 -0.09295974 0.21870281 0.29136518 0.06386829
-0.0048613832 0.24171706 -0.30270094 -0.18230794 -0.27061972 -0.034042247 0.18155386 -0.01634133
-0.043146826 0.18788195 -0.10616713 0.33291754

classify.weight f4 [2, 100]
00000000: 7ca4 183e d258 053e 926e a33c 423c 373e
00000010: ceed 3d3e 6e67 0fbd a845 8abd f093 b6bd
00000020: 55a8 893d 0582 63bd 153e 2a3e c426 80bc
00000030: ae37 c8bd d61b 873e a6d8 d9bc cc24 353e
00000040: cb8a fbbd 7e69 4f3d 55fe 373e 49c6 20be
00000050: 21da 2f3e d8e7 0ebe 23ee dfbd 04f8 27be
00000060: 2149 10be 4a23 6f3e 878e 05be 6185 833a
00000070: fc98 09bd 96e6 483e 42b5 95bd ddcf 4dbd
00000080: e664 053e f98d 55be 76f8 193e ae7e 2c3e
00000090: d7dd 1cbe 17f5 29be b070 353e 3ab6 1dbe
000000a0: 7749 693b 037b c13c aab5 e43c 2c9b 3cbd
000000b0: 4df5 e13c 8568 dbbd 9798 033e 0b7e 98bd
000000c0: bafb 263e 7a39 a33d 9e77 da3d 2c0c 5c3d
000000d0: 3b28 29be fbbb 6bbe 9b84 873d 58b3 d3bd
000000e0: 1098 1abc 400e 673e 3431 48be 84cd cb3c
000000f0: d11c b6bd caca bf3e 87c7 693e 1c9b 5b3d
00000100: fad6 493e da31 5bbe e92a 0b3d 4a72 a8bd
00000110: c80a f73c bc6f 9ebd 3f87 7dbd 132e 2b3e
00000120: 4560 11be ef63 1b3e 47ca cfbc a71a 233e
00000130: 432b 91bd 3ac6 debd 2bfa 86bd b7ec fc3d
00000140: 9d7b 68be 47b9 79bd 50a0 d73d c328 01be
00000150: c88e d1bd 4fc8 c33d 3856 853d f6cf 343d
00000160: 65f8 bfbd dd95 613e 60a2 27be d04a f1bc
00000170: e799 2ebd fc1a 623e 882a 823d 2f1d c0bb
00000180: be53 f23c 6d4d 0d3d 352a 4fbd 5be5 5c3e
00000190: 2b63 4fbd 6951 f0bd a985 dabd 266d 31be
000001a0: f76b d2bd 1b6f 94bd 07f6 573e ac6c d3bd
000001b0: d236 f0bd 7b53 afbd 1a11 16be 14c3 203d
000001c0: d088 913d a943 80be a9aa 28bc 5621 62bc
000001d0: 8b42 9f3c df21 dabd 5cb3 4bbe 3c63 e93d
000001e0: d6c2 7dbe 0bd1 4e3e 31e6 963d 878b 163e
000001f0: 47a6 533d fcd3 71be 4c22 353e 53d1 93bd
00000200: d85c 683d b107 e9bd db9b ed3c a3a5 a6bd
00000210: e036 f5bd de9c 783e 57bf 60be 324b 23be
00000220: fadc 0a3d 1b69 1c3e 6f19 b8bd df60 2e3e
00000230: 0d29 2a3e 47f1 f53d 3c44 10bb 6871 bc3d
00000240: fe11 05bd c457 113e 124e aabc 0439 fe3d
00000250: f5ea 17be 5cd8 bebd a509 1bbe 9ce4 21be
00000260: 05e1 cb3d a971 7a3e 1c14 40bb 5034 92bc
00000270: 35fa c03d 3a61 03be 967c 7f3d 53d6 fcbd
00000280: 0fef ab3c fd22 4ebe 4336 2fbe cf9d 673d
00000290: 46f8 4cbe 80c8 2f3e bd2d 25be 8333 c83d
000002a0: 069e d63d 560b aebd 6714 133c 56b7 82be
000002b0: 5cb9 273e 609d 51be 3cd5 113e 85d1 29be
000002c0: 1048 1d3e 8f5d b13d 435f 023d c1a6 dfbd
000002d0: 2b5b 333e 03ba 29bd d3ca debd 4e59 613e
000002e0: 3fb0 ce3d 1d0c c5bd d74a 943c 78bd 873d
000002f0: 8ec0 c03d 0a1f f8bd 7c1f fd3d edb8 c0bd
00000300: 0726 223d 5b72 01be 192a 283c 77c5 b7bd
00000310: acf0 72bd 8833 b9bd ce17 a53d 9e3a 98be
0.14906496 0.13022164 0.019950185 0.1789408 0.18547747 -0.035010748 -0.06751567 -0.089149356
0.0672156 -0.05554392 0.16625245 -0.015643485 -0.09776245 0.26388425 -0.026592564 0.17689818
-0.12282332 0.050637715 0.17968114 -0.1570064 0.17173053 -0.13955629 -0.10934093 -0.16403204
-0.14090396 0.23353305 -0.13042651 0.0010034257 -0.033593163 0.19619212 -0.07309963 -0.050247062
0.13026771 -0.2085494 0.15036187 0.168452 -0.15319 -0.165974 0.17718768 -0.15401545
0.0035596767 0.023618227 0.027918655 -0.04604642 0.027582789 -0.10713295 0.12851177 -0.07445916
0.16306964 0.07969947 0.106673464 0.053722546 -0.16519253 -0.23020928 0.06617089 -0.103369415
-0.009435669 0.2256403 -0.1955002 0.02487827 -0.08892215 0.37459403 0.2283002 0.05361472
0.19710913 -0.21405736 0.03397647 -0.08224924 0.030156508 -0.077361554 -0.06189656 0.16716795
-0.1419688 0.1517484 -0.025365008 0.15928136 -0.0708833 -0.108776525 -0.065906845 0.12349837
-0.22703405 -0.06096771 0.10528624 -0.12613206 -0.102323115 0.0955969 0.065105855 0.04414364
-0.09373549 0.22029825 -0.16370535 -0.029454619 -0.04262724 0.22080606 0.063557684 -0.005862854
0.029580947 0.034497667 -0.05057736 0.21571867 -0.050631683 -0.11734278 -0.10670025 -0.17326793
-0.10274499 -0.07247754 0.21089946 -0.10323462 -0.11729206 -0.085608445 -0.14654961 0.03924854
0.07106173 -0.2505162 -0.010294595 -0.013801893 0.01944091 -0.10650992 -0.19892639 0.113958806
-0.24781355 0.20196931 0.07368124 0.14701663 0.051672246 -0.23616022 0.17688864 -0.0721766
0.056729168 -0.1137842 0.029004982 -0.081370614 -0.11973357 0.2427859 -0.2194799 -0.15946653
0.033902146 0.1527447 -0.08989226 0.17029141 0.16617222 0.120089106 -0.0022013327 0.09201318
-0.03248786 0.14193636 -0.02078918 0.124132186 -0.14835723 -0.09318611 -0.15140398 -0.15809864
0.099550284 0.2445742 -0.002930886 -0.01784721 0.09422723 -0.12830058 0.062374674 -0.123455666
0.020988015 -0.20130534 -0.17110543 0.056546982 -0.20016584 0.17166328 -0.16130729 0.0977545
0.10479359 -0.08498256 0.008977032 -0.255305 0.16379303 -0.2047019 0.14241499 -0.16583832
0.15359521 0.08660423 0.03182913 -0.10920478 0.17515247 -0.04143716 -0.108785294 0.22006723
0.1009221 -0.09621451 0.018102093 0.06627935 0.09411727 -0.12115295 0.12359521 -0.09410272
0.039587047 -0.1264128 0.010263943 -0.0897321 -0.059311554 -0.09043032 0.08061181 -0.2973222

classify.bias f4 [2]
00000000: 077c 57bb b2be b73c
-0.0032880323 0.022429798
